<?xml version="1.0" ?>
<net name="text-to-speech-en-0001-generation" version="10">
	<layers>
		<layer id="0" name="mel" type="Parameter" version="opset1">
			<data element_type="f16" shape="1, 80, 128"/>
			<output>
				<port id="0" names="mel" precision="FP16">
					<dim>1</dim>
					<dim>80</dim>
					<dim>128</dim>
				</port>
			</output>
		</layer>
		<layer id="1" name="93326117" type="Const" version="opset1">
			<data element_type="i64" offset="0" shape="3" size="24"/>
			<output>
				<port id="0" precision="I64">
					<dim>3</dim>
				</port>
			</output>
		</layer>
		<layer id="2" name="933" type="Const" version="opset1">
			<data element_type="i64" offset="24" shape="3" size="24"/>
			<output>
				<port id="0" precision="I64">
					<dim>3</dim>
				</port>
			</output>
		</layer>
		<layer id="3" name="Constant_18" type="Const" version="opset1">
			<data element_type="f16" offset="48" shape="" size="2"/>
			<output>
				<port id="0" names="161" precision="FP16"/>
			</output>
		</layer>
		<layer id="4" name="Pad_19" type="Pad" version="opset1">
			<data pad_mode="constant"/>
			<input>
				<port id="0" precision="FP16">
					<dim>1</dim>
					<dim>80</dim>
					<dim>128</dim>
				</port>
				<port id="1" precision="I64">
					<dim>3</dim>
				</port>
				<port id="2" precision="I64">
					<dim>3</dim>
				</port>
				<port id="3" precision="FP16"/>
			</input>
			<output>
				<port id="4" names="162" precision="FP16">
					<dim>1</dim>
					<dim>80</dim>
					<dim>138</dim>
				</port>
			</output>
		</layer>
		<layer id="5" name="data_mul_12595" type="Const" version="opset1">
			<data element_type="f16" offset="50" shape="1, 1, 1" size="2"/>
			<output>
				<port id="0" precision="FP16">
					<dim>1</dim>
					<dim>1</dim>
					<dim>1</dim>
				</port>
			</output>
		</layer>
		<layer id="6" name="Div_23/Fused_Mul_" type="Multiply" version="opset1">
			<data auto_broadcast="numpy"/>
			<input>
				<port id="0" precision="FP16">
					<dim>1</dim>
					<dim>80</dim>
					<dim>138</dim>
				</port>
				<port id="1" precision="FP16">
					<dim>1</dim>
					<dim>1</dim>
					<dim>1</dim>
				</port>
			</input>
			<output>
				<port id="2" precision="FP16">
					<dim>1</dim>
					<dim>80</dim>
					<dim>138</dim>
				</port>
			</output>
		</layer>
		<layer id="7" name="data_add_12597" type="Const" version="opset1">
			<data element_type="f16" offset="52" shape="1, 1, 1" size="2"/>
			<output>
				<port id="0" precision="FP16">
					<dim>1</dim>
					<dim>1</dim>
					<dim>1</dim>
				</port>
			</output>
		</layer>
		<layer id="8" name="Add_21/Fused_Add_" type="Add" version="opset1">
			<data auto_broadcast="numpy"/>
			<input>
				<port id="0" precision="FP16">
					<dim>1</dim>
					<dim>80</dim>
					<dim>138</dim>
				</port>
				<port id="1" precision="FP16">
					<dim>1</dim>
					<dim>1</dim>
					<dim>1</dim>
				</port>
			</input>
			<output>
				<port id="2" names="166" precision="FP16">
					<dim>1</dim>
					<dim>80</dim>
					<dim>138</dim>
				</port>
			</output>
		</layer>
		<layer id="9" name="92725673" type="Const" version="opset1">
			<data element_type="i64" offset="54" shape="3" size="24"/>
			<output>
				<port id="0" precision="I64">
					<dim>3</dim>
				</port>
			</output>
		</layer>
		<layer id="10" name="927" type="Const" version="opset1">
			<data element_type="i64" offset="54" shape="3" size="24"/>
			<output>
				<port id="0" precision="I64">
					<dim>3</dim>
				</port>
			</output>
		</layer>
		<layer id="11" name="Constant_23" type="Const" version="opset1">
			<data element_type="f16" offset="78" shape="" size="2"/>
			<output>
				<port id="0" precision="FP16"/>
			</output>
		</layer>
		<layer id="12" name="Pad_42" type="Pad" version="opset1">
			<data pad_mode="reflect"/>
			<input>
				<port id="0" precision="FP16">
					<dim>1</dim>
					<dim>80</dim>
					<dim>138</dim>
				</port>
				<port id="1" precision="I64">
					<dim>3</dim>
				</port>
				<port id="2" precision="I64">
					<dim>3</dim>
				</port>
				<port id="3" precision="FP16"/>
			</input>
			<output>
				<port id="4" names="189" precision="FP16">
					<dim>1</dim>
					<dim>80</dim>
					<dim>144</dim>
				</port>
			</output>
		</layer>
		<layer id="13" name="Mul_45" type="Const" version="opset1">
			<data element_type="f16" offset="80" shape="512, 80, 7" size="573440"/>
			<output>
				<port id="0" names="192" precision="FP16">
					<dim>512</dim>
					<dim>80</dim>
					<dim>7</dim>
				</port>
			</output>
		</layer>
		<layer id="14" name="Conv_46/WithoutBiases" type="Convolution" version="opset1">
			<data auto_pad="explicit" dilations="1" pads_begin="0" pads_end="0" strides="1"/>
			<input>
				<port id="0" precision="FP16">
					<dim>1</dim>
					<dim>80</dim>
					<dim>144</dim>
				</port>
				<port id="1" precision="FP16">
					<dim>512</dim>
					<dim>80</dim>
					<dim>7</dim>
				</port>
			</input>
			<output>
				<port id="2" precision="FP16">
					<dim>1</dim>
					<dim>512</dim>
					<dim>138</dim>
				</port>
			</output>
		</layer>
		<layer id="15" name="Conv_46/Dims7605" type="Const" version="opset1">
			<data element_type="f16" offset="573520" shape="1, 512, 1" size="1024"/>
			<output>
				<port id="0" precision="FP16">
					<dim>1</dim>
					<dim>512</dim>
					<dim>1</dim>
				</port>
			</output>
		</layer>
		<layer id="16" name="Conv_46" type="Add" version="opset1">
			<data auto_broadcast="numpy"/>
			<input>
				<port id="0" precision="FP16">
					<dim>1</dim>
					<dim>512</dim>
					<dim>138</dim>
				</port>
				<port id="1" precision="FP16">
					<dim>1</dim>
					<dim>512</dim>
					<dim>1</dim>
				</port>
			</input>
			<output>
				<port id="2" names="193" precision="FP16">
					<dim>1</dim>
					<dim>512</dim>
					<dim>138</dim>
				</port>
			</output>
		</layer>
		<layer id="17" name="LeakyRelu_47/weights1978126120" type="Const" version="opset1">
			<data element_type="f32" offset="574544" shape="1" size="4"/>
			<output>
				<port id="0" precision="FP32">
					<dim>1</dim>
				</port>
			</output>
		</layer>
		<layer id="18" name="LeakyRelu_47" type="PReLU" version="opset1">
			<input>
				<port id="0" precision="FP16">
					<dim>1</dim>
					<dim>512</dim>
					<dim>138</dim>
				</port>
				<port id="1" precision="FP32">
					<dim>1</dim>
				</port>
			</input>
			<output>
				<port id="2" names="194" precision="FP16">
					<dim>1</dim>
					<dim>512</dim>
					<dim>138</dim>
				</port>
			</output>
		</layer>
		<layer id="19" name="Mul_50" type="Const" version="opset1">
			<data element_type="f16" offset="574548" shape="512, 512, 17" size="8912896"/>
			<output>
				<port id="0" names="197" precision="FP16">
					<dim>512</dim>
					<dim>512</dim>
					<dim>17</dim>
				</port>
			</output>
		</layer>
		<layer id="20" name="Conv_51/WithoutBiases" type="Convolution" version="opset1">
			<data auto_pad="explicit" dilations="1" pads_begin="8" pads_end="8" strides="1"/>
			<input>
				<port id="0" precision="FP16">
					<dim>1</dim>
					<dim>512</dim>
					<dim>138</dim>
				</port>
				<port id="1" precision="FP16">
					<dim>512</dim>
					<dim>512</dim>
					<dim>17</dim>
				</port>
			</input>
			<output>
				<port id="2" precision="FP16">
					<dim>1</dim>
					<dim>512</dim>
					<dim>138</dim>
				</port>
			</output>
		</layer>
		<layer id="21" name="Conv_51/Dims7437" type="Const" version="opset1">
			<data element_type="f16" offset="9487444" shape="1, 512, 1" size="1024"/>
			<output>
				<port id="0" precision="FP16">
					<dim>1</dim>
					<dim>512</dim>
					<dim>1</dim>
				</port>
			</output>
		</layer>
		<layer id="22" name="Conv_51" type="Add" version="opset1">
			<data auto_broadcast="numpy"/>
			<input>
				<port id="0" precision="FP16">
					<dim>1</dim>
					<dim>512</dim>
					<dim>138</dim>
				</port>
				<port id="1" precision="FP16">
					<dim>1</dim>
					<dim>512</dim>
					<dim>1</dim>
				</port>
			</input>
			<output>
				<port id="2" names="198" precision="FP16">
					<dim>1</dim>
					<dim>512</dim>
					<dim>138</dim>
				</port>
			</output>
		</layer>
		<layer id="23" name="Unsqueeze_52/Dims" type="Const" version="opset1">
			<data element_type="i64" offset="9488468" shape="1" size="8"/>
			<output>
				<port id="0" precision="I64">
					<dim>1</dim>
				</port>
			</output>
		</layer>
		<layer id="24" name="Unsqueeze_52/Unsqueeze" type="Unsqueeze" version="opset1">
			<input>
				<port id="0" precision="FP16">
					<dim>1</dim>
					<dim>512</dim>
					<dim>138</dim>
				</port>
				<port id="1" precision="I64">
					<dim>1</dim>
				</port>
			</input>
			<output>
				<port id="2" names="199" precision="FP16">
					<dim>1</dim>
					<dim>512</dim>
					<dim>138</dim>
					<dim>1</dim>
				</port>
			</output>
		</layer>
		<layer id="25" name="Shape_71" type="ShapeOf" version="opset3">
			<data output_type="i64"/>
			<input>
				<port id="0" precision="FP16">
					<dim>1</dim>
					<dim>512</dim>
					<dim>138</dim>
					<dim>1</dim>
				</port>
			</input>
			<output>
				<port id="1" names="218" precision="I64">
					<dim>4</dim>
				</port>
			</output>
		</layer>
		<layer id="26" name="Slice_75/Concat814725970" type="Const" version="opset1">
			<data element_type="i64" offset="9488476" shape="1" size="8"/>
			<output>
				<port id="0" precision="I64">
					<dim>1</dim>
				</port>
			</output>
		</layer>
		<layer id="27" name="Slice_75/Concat8137814825949" type="Const" version="opset1">
			<data element_type="i64" offset="9488484" shape="1" size="8"/>
			<output>
				<port id="0" precision="I64">
					<dim>1</dim>
				</port>
			</output>
		</layer>
		<layer id="28" name="Slice_75/Strides814925625" type="Const" version="opset1">
			<data element_type="i64" offset="9488492" shape="1" size="8"/>
			<output>
				<port id="0" precision="I64">
					<dim>1</dim>
				</port>
			</output>
		</layer>
		<layer id="29" name="Slice_75" type="StridedSlice" version="opset1">
			<data begin_mask="0" ellipsis_mask="0" end_mask="0" new_axis_mask="0" shrink_axis_mask="0"/>
			<input>
				<port id="0" precision="I64">
					<dim>4</dim>
				</port>
				<port id="1" precision="I64">
					<dim>1</dim>
				</port>
				<port id="2" precision="I64">
					<dim>1</dim>
				</port>
				<port id="3" precision="I64">
					<dim>1</dim>
				</port>
			</input>
			<output>
				<port id="4" names="222" precision="I64">
					<dim>2</dim>
				</port>
			</output>
		</layer>
		<layer id="30" name="Shape_53" type="ShapeOf" version="opset3">
			<data output_type="i64"/>
			<input>
				<port id="0" precision="FP16">
					<dim>1</dim>
					<dim>512</dim>
					<dim>138</dim>
					<dim>1</dim>
				</port>
			</input>
			<output>
				<port id="1" names="200" precision="I64">
					<dim>4</dim>
				</port>
			</output>
		</layer>
		<layer id="31" name="Constant_54" type="Const" version="opset1">
			<data element_type="i32" offset="9488500" shape="" size="4"/>
			<output>
				<port id="0" names="201" precision="I32"/>
			</output>
		</layer>
		<layer id="32" name="Gather_55/axis" type="Const" version="opset1">
			<data element_type="i64" offset="9488476" shape="" size="8"/>
			<output>
				<port id="0" precision="I64"/>
			</output>
		</layer>
		<layer id="33" name="Gather_551013" type="Gather" version="opset7">
			<data batch_dims="0"/>
			<input>
				<port id="0" precision="I64">
					<dim>4</dim>
				</port>
				<port id="1" precision="I32"/>
				<port id="2" precision="I64"/>
			</input>
			<output>
				<port id="3" names="202" precision="I64"/>
			</output>
		</layer>
		<layer id="34" name="Cast_56" type="Convert" version="opset1">
			<data destination_type="f32"/>
			<input>
				<port id="0" precision="I64"/>
			</input>
			<output>
				<port id="1" names="203" precision="FP32"/>
			</output>
		</layer>
		<layer id="35" name="Constant_57" type="Const" version="opset1">
			<data element_type="f32" offset="9488504" shape="" size="4"/>
			<output>
				<port id="0" names="204" precision="FP32"/>
			</output>
		</layer>
		<layer id="36" name="Mul_58" type="Multiply" version="opset1">
			<data auto_broadcast="numpy"/>
			<input>
				<port id="0" precision="FP32"/>
				<port id="1" precision="FP32"/>
			</input>
			<output>
				<port id="2" names="205,206" precision="FP32"/>
			</output>
		</layer>
		<layer id="37" name="Floor_60" type="Floor" version="opset1">
			<input>
				<port id="0" precision="FP32"/>
			</input>
			<output>
				<port id="1" names="207" precision="FP32"/>
			</output>
		</layer>
		<layer id="38" name="Unsqueeze_67/Dims" type="Const" version="opset1">
			<data element_type="i64" offset="9488476" shape="1" size="8"/>
			<output>
				<port id="0" precision="I64">
					<dim>1</dim>
				</port>
			</output>
		</layer>
		<layer id="39" name="Unsqueeze_67/Unsqueeze" type="Unsqueeze" version="opset1">
			<input>
				<port id="0" precision="FP32"/>
				<port id="1" precision="I64">
					<dim>1</dim>
				</port>
			</input>
			<output>
				<port id="2" names="214" precision="FP32">
					<dim>1</dim>
				</port>
			</output>
		</layer>
		<layer id="40" name="Shape_61" type="ShapeOf" version="opset3">
			<data output_type="i64"/>
			<input>
				<port id="0" precision="FP16">
					<dim>1</dim>
					<dim>512</dim>
					<dim>138</dim>
					<dim>1</dim>
				</port>
			</input>
			<output>
				<port id="1" names="208" precision="I64">
					<dim>4</dim>
				</port>
			</output>
		</layer>
		<layer id="41" name="Constant_62" type="Const" version="opset1">
			<data element_type="i32" offset="9488508" shape="" size="4"/>
			<output>
				<port id="0" names="209" precision="I32"/>
			</output>
		</layer>
		<layer id="42" name="Gather_63/axis" type="Const" version="opset1">
			<data element_type="i64" offset="9488476" shape="" size="8"/>
			<output>
				<port id="0" precision="I64"/>
			</output>
		</layer>
		<layer id="43" name="Gather_63983" type="Gather" version="opset7">
			<data batch_dims="0"/>
			<input>
				<port id="0" precision="I64">
					<dim>4</dim>
				</port>
				<port id="1" precision="I32"/>
				<port id="2" precision="I64"/>
			</input>
			<output>
				<port id="3" names="210" precision="I64"/>
			</output>
		</layer>
		<layer id="44" name="Cast_64" type="Convert" version="opset1">
			<data destination_type="f32"/>
			<input>
				<port id="0" precision="I64"/>
			</input>
			<output>
				<port id="1" names="211,212" precision="FP32"/>
			</output>
		</layer>
		<layer id="45" name="Floor_66" type="Floor" version="opset1">
			<input>
				<port id="0" precision="FP32"/>
			</input>
			<output>
				<port id="1" names="213" precision="FP32"/>
			</output>
		</layer>
		<layer id="46" name="Unsqueeze_68/Dims" type="Const" version="opset1">
			<data element_type="i64" offset="9488476" shape="1" size="8"/>
			<output>
				<port id="0" precision="I64">
					<dim>1</dim>
				</port>
			</output>
		</layer>
		<layer id="47" name="Unsqueeze_68/Unsqueeze" type="Unsqueeze" version="opset1">
			<input>
				<port id="0" precision="FP32"/>
				<port id="1" precision="I64">
					<dim>1</dim>
				</port>
			</input>
			<output>
				<port id="2" names="215" precision="FP32">
					<dim>1</dim>
				</port>
			</output>
		</layer>
		<layer id="48" name="Concat_69" type="Concat" version="opset1">
			<data axis="0"/>
			<input>
				<port id="0" precision="FP32">
					<dim>1</dim>
				</port>
				<port id="1" precision="FP32">
					<dim>1</dim>
				</port>
			</input>
			<output>
				<port id="2" names="216" precision="FP32">
					<dim>2</dim>
				</port>
			</output>
		</layer>
		<layer id="49" name="Cast_76" type="Convert" version="opset1">
			<data destination_type="i64"/>
			<input>
				<port id="0" precision="FP32">
					<dim>2</dim>
				</port>
			</input>
			<output>
				<port id="1" names="223" precision="I64">
					<dim>2</dim>
				</port>
			</output>
		</layer>
		<layer id="50" name="Concat_77" type="Concat" version="opset1">
			<data axis="0"/>
			<input>
				<port id="0" precision="I64">
					<dim>2</dim>
				</port>
				<port id="1" precision="I64">
					<dim>2</dim>
				</port>
			</input>
			<output>
				<port id="2" names="224" precision="I64">
					<dim>4</dim>
				</port>
			</output>
		</layer>
		<layer id="51" name="Resize_79/StridedSlice_sizes_input_port_1/value606125841" type="Const" version="opset1">
			<data element_type="i64" offset="9488484" shape="1" size="8"/>
			<output>
				<port id="0" precision="I64">
					<dim>1</dim>
				</port>
			</output>
		</layer>
		<layer id="52" name="Resize_79/StridedSlice_sizes_input_port_2/value606326195" type="Const" version="opset1">
			<data element_type="i64" offset="9488512" shape="1" size="8"/>
			<output>
				<port id="0" precision="I64">
					<dim>1</dim>
				</port>
			</output>
		</layer>
		<layer id="53" name="Resize_79/StridedSlice_sizes_input_port_3/value606525808" type="Const" version="opset1">
			<data element_type="i64" offset="9488492" shape="1" size="8"/>
			<output>
				<port id="0" precision="I64">
					<dim>1</dim>
				</port>
			</output>
		</layer>
		<layer id="54" name="Resize_79/StridedSlice_sizes" type="StridedSlice" version="opset1">
			<data begin_mask="0" ellipsis_mask="0" end_mask="0" new_axis_mask="0" shrink_axis_mask="0"/>
			<input>
				<port id="0" precision="I64">
					<dim>4</dim>
				</port>
				<port id="1" precision="I64">
					<dim>1</dim>
				</port>
				<port id="2" precision="I64">
					<dim>1</dim>
				</port>
				<port id="3" precision="I64">
					<dim>1</dim>
				</port>
			</input>
			<output>
				<port id="4" precision="I64">
					<dim>2</dim>
				</port>
			</output>
		</layer>
		<layer id="55" name="6081" type="Convert" version="opset1">
			<data destination_type="f32"/>
			<input>
				<port id="0" precision="I64">
					<dim>4</dim>
				</port>
			</input>
			<output>
				<port id="1" precision="FP32">
					<dim>4</dim>
				</port>
			</output>
		</layer>
		<layer id="56" name="Resize_79/ShapeOf" type="ShapeOf" version="opset3">
			<data output_type="i64"/>
			<input>
				<port id="0" precision="FP16">
					<dim>1</dim>
					<dim>512</dim>
					<dim>138</dim>
					<dim>1</dim>
				</port>
			</input>
			<output>
				<port id="1" precision="I64">
					<dim>4</dim>
				</port>
			</output>
		</layer>
		<layer id="57" name="6080" type="Convert" version="opset1">
			<data destination_type="f32"/>
			<input>
				<port id="0" precision="I64">
					<dim>4</dim>
				</port>
			</input>
			<output>
				<port id="1" precision="FP32">
					<dim>4</dim>
				</port>
			</output>
		</layer>
		<layer id="58" name="Resize_79/Div" type="Divide" version="opset1">
			<data auto_broadcast="numpy" m_pythondiv="true"/>
			<input>
				<port id="0" precision="FP32">
					<dim>4</dim>
				</port>
				<port id="1" precision="FP32">
					<dim>4</dim>
				</port>
			</input>
			<output>
				<port id="2" precision="FP32">
					<dim>4</dim>
				</port>
			</output>
		</layer>
		<layer id="59" name="Resize_79/Add_input_port_1/value607925964" type="Const" version="opset1">
			<data element_type="f32" offset="9488520" shape="1" size="4"/>
			<output>
				<port id="0" precision="FP32">
					<dim>1</dim>
				</port>
			</output>
		</layer>
		<layer id="60" name="Resize_79/Add" type="Add" version="opset1">
			<data auto_broadcast="numpy"/>
			<input>
				<port id="0" precision="FP32">
					<dim>4</dim>
				</port>
				<port id="1" precision="FP32">
					<dim>1</dim>
				</port>
			</input>
			<output>
				<port id="2" precision="FP32">
					<dim>4</dim>
				</port>
			</output>
		</layer>
		<layer id="61" name="Resize_79/StridedSlice_scales_input_port_1/value606825967" type="Const" version="opset1">
			<data element_type="i64" offset="9488484" shape="1" size="8"/>
			<output>
				<port id="0" precision="I64">
					<dim>1</dim>
				</port>
			</output>
		</layer>
		<layer id="62" name="Resize_79/StridedSlice_scales_input_port_2/value607025844" type="Const" version="opset1">
			<data element_type="i64" offset="9488512" shape="1" size="8"/>
			<output>
				<port id="0" precision="I64">
					<dim>1</dim>
				</port>
			</output>
		</layer>
		<layer id="63" name="Resize_79/StridedSlice_scales_input_port_3/value607226165" type="Const" version="opset1">
			<data element_type="i64" offset="9488492" shape="1" size="8"/>
			<output>
				<port id="0" precision="I64">
					<dim>1</dim>
				</port>
			</output>
		</layer>
		<layer id="64" name="Resize_79/StridedSlice_scales" type="StridedSlice" version="opset1">
			<data begin_mask="0" ellipsis_mask="0" end_mask="0" new_axis_mask="0" shrink_axis_mask="0"/>
			<input>
				<port id="0" precision="FP32">
					<dim>4</dim>
				</port>
				<port id="1" precision="I64">
					<dim>1</dim>
				</port>
				<port id="2" precision="I64">
					<dim>1</dim>
				</port>
				<port id="3" precision="I64">
					<dim>1</dim>
				</port>
			</input>
			<output>
				<port id="4" precision="FP32">
					<dim>2</dim>
				</port>
			</output>
		</layer>
		<layer id="65" name="Resize_79/axis607526012" type="Const" version="opset1">
			<data element_type="i64" offset="9488524" shape="2" size="16"/>
			<output>
				<port id="0" precision="I64">
					<dim>2</dim>
				</port>
			</output>
		</layer>
		<layer id="66" name="Resize_79" type="Interpolate" version="opset4">
			<data antialias="false" coordinate_transformation_mode="asymmetric" cube_coeff="-0.75" mode="nearest" nearest_mode="floor" pads_begin="0, 0, 0, 0" pads_end="0, 0, 0, 0" shape_calculation_mode="sizes"/>
			<input>
				<port id="0" precision="FP16">
					<dim>1</dim>
					<dim>512</dim>
					<dim>138</dim>
					<dim>1</dim>
				</port>
				<port id="1" precision="I64">
					<dim>2</dim>
				</port>
				<port id="2" precision="FP32">
					<dim>2</dim>
				</port>
				<port id="3" precision="I64">
					<dim>2</dim>
				</port>
			</input>
			<output>
				<port id="4" names="226" precision="FP16">
					<dim>1</dim>
					<dim>512</dim>
					<dim>1104</dim>
					<dim>1</dim>
				</port>
			</output>
		</layer>
		<layer id="67" name="Squeeze_80/Dims" type="Const" version="opset1">
			<data element_type="i64" offset="9488468" shape="1" size="8"/>
			<output>
				<port id="0" precision="I64">
					<dim>1</dim>
				</port>
			</output>
		</layer>
		<layer id="68" name="Squeeze_80" type="Squeeze" version="opset1">
			<input>
				<port id="0" precision="FP16">
					<dim>1</dim>
					<dim>512</dim>
					<dim>1104</dim>
					<dim>1</dim>
				</port>
				<port id="1" precision="I64">
					<dim>1</dim>
				</port>
			</input>
			<output>
				<port id="2" names="227" precision="FP16">
					<dim>1</dim>
					<dim>512</dim>
					<dim>1104</dim>
				</port>
			</output>
		</layer>
		<layer id="69" name="Mul_83" type="Const" version="opset1">
			<data element_type="f16" offset="9488540" shape="256, 512, 33" size="8650752"/>
			<output>
				<port id="0" names="230" precision="FP16">
					<dim>256</dim>
					<dim>512</dim>
					<dim>33</dim>
				</port>
			</output>
		</layer>
		<layer id="70" name="Conv_84/WithoutBiases" type="Convolution" version="opset1">
			<data auto_pad="explicit" dilations="1" pads_begin="16" pads_end="16" strides="1"/>
			<input>
				<port id="0" precision="FP16">
					<dim>1</dim>
					<dim>512</dim>
					<dim>1104</dim>
				</port>
				<port id="1" precision="FP16">
					<dim>256</dim>
					<dim>512</dim>
					<dim>33</dim>
				</port>
			</input>
			<output>
				<port id="2" precision="FP16">
					<dim>1</dim>
					<dim>256</dim>
					<dim>1104</dim>
				</port>
			</output>
		</layer>
		<layer id="71" name="Conv_84/Dims7389" type="Const" version="opset1">
			<data element_type="f16" offset="18139292" shape="1, 256, 1" size="512"/>
			<output>
				<port id="0" precision="FP16">
					<dim>1</dim>
					<dim>256</dim>
					<dim>1</dim>
				</port>
			</output>
		</layer>
		<layer id="72" name="Conv_84" type="Add" version="opset1">
			<data auto_broadcast="numpy"/>
			<input>
				<port id="0" precision="FP16">
					<dim>1</dim>
					<dim>256</dim>
					<dim>1104</dim>
				</port>
				<port id="1" precision="FP16">
					<dim>1</dim>
					<dim>256</dim>
					<dim>1</dim>
				</port>
			</input>
			<output>
				<port id="2" names="231" precision="FP16">
					<dim>1</dim>
					<dim>256</dim>
					<dim>1104</dim>
				</port>
			</output>
		</layer>
		<layer id="73" name="Mul_87" type="Const" version="opset1">
			<data element_type="f16" offset="18139804" shape="256, 256, 1" size="131072"/>
			<output>
				<port id="0" names="234" precision="FP16">
					<dim>256</dim>
					<dim>256</dim>
					<dim>1</dim>
				</port>
			</output>
		</layer>
		<layer id="74" name="Conv_88/WithoutBiases" type="Convolution" version="opset1">
			<data auto_pad="explicit" dilations="1" pads_begin="0" pads_end="0" strides="1"/>
			<input>
				<port id="0" precision="FP16">
					<dim>1</dim>
					<dim>256</dim>
					<dim>1104</dim>
				</port>
				<port id="1" precision="FP16">
					<dim>256</dim>
					<dim>256</dim>
					<dim>1</dim>
				</port>
			</input>
			<output>
				<port id="2" precision="FP16">
					<dim>1</dim>
					<dim>256</dim>
					<dim>1104</dim>
				</port>
			</output>
		</layer>
		<layer id="75" name="Conv_88/Dims7407" type="Const" version="opset1">
			<data element_type="f16" offset="18270876" shape="1, 256, 1" size="512"/>
			<output>
				<port id="0" precision="FP16">
					<dim>1</dim>
					<dim>256</dim>
					<dim>1</dim>
				</port>
			</output>
		</layer>
		<layer id="76" name="Conv_88" type="Add" version="opset1">
			<data auto_broadcast="numpy"/>
			<input>
				<port id="0" precision="FP16">
					<dim>1</dim>
					<dim>256</dim>
					<dim>1104</dim>
				</port>
				<port id="1" precision="FP16">
					<dim>1</dim>
					<dim>256</dim>
					<dim>1</dim>
				</port>
			</input>
			<output>
				<port id="2" names="235" precision="FP16">
					<dim>1</dim>
					<dim>256</dim>
					<dim>1104</dim>
				</port>
			</output>
		</layer>
		<layer id="77" name="LeakyRelu_89/weights1973325586" type="Const" version="opset1">
			<data element_type="f32" offset="574544" shape="1" size="4"/>
			<output>
				<port id="0" precision="FP32">
					<dim>1</dim>
				</port>
			</output>
		</layer>
		<layer id="78" name="LeakyRelu_89" type="PReLU" version="opset1">
			<input>
				<port id="0" precision="FP16">
					<dim>1</dim>
					<dim>256</dim>
					<dim>1104</dim>
				</port>
				<port id="1" precision="FP32">
					<dim>1</dim>
				</port>
			</input>
			<output>
				<port id="2" names="236" precision="FP16">
					<dim>1</dim>
					<dim>256</dim>
					<dim>1104</dim>
				</port>
			</output>
		</layer>
		<layer id="79" name="91525667" type="Const" version="opset1">
			<data element_type="i64" offset="18271388" shape="3" size="24"/>
			<output>
				<port id="0" precision="I64">
					<dim>3</dim>
				</port>
			</output>
		</layer>
		<layer id="80" name="915" type="Const" version="opset1">
			<data element_type="i64" offset="18271388" shape="3" size="24"/>
			<output>
				<port id="0" precision="I64">
					<dim>3</dim>
				</port>
			</output>
		</layer>
		<layer id="81" name="Constant_176" type="Const" version="opset1">
			<data element_type="f16" offset="78" shape="" size="2"/>
			<output>
				<port id="0" precision="FP16"/>
			</output>
		</layer>
		<layer id="82" name="Pad_108" type="Pad" version="opset1">
			<data pad_mode="reflect"/>
			<input>
				<port id="0" precision="FP16">
					<dim>1</dim>
					<dim>256</dim>
					<dim>1104</dim>
				</port>
				<port id="1" precision="I64">
					<dim>3</dim>
				</port>
				<port id="2" precision="I64">
					<dim>3</dim>
				</port>
				<port id="3" precision="FP16"/>
			</input>
			<output>
				<port id="4" names="259" precision="FP16">
					<dim>1</dim>
					<dim>256</dim>
					<dim>1106</dim>
				</port>
			</output>
		</layer>
		<layer id="83" name="Mul_111" type="Const" version="opset1">
			<data element_type="f16" offset="18271412" shape="256, 256, 3" size="393216"/>
			<output>
				<port id="0" names="262" precision="FP16">
					<dim>256</dim>
					<dim>256</dim>
					<dim>3</dim>
				</port>
			</output>
		</layer>
		<layer id="84" name="Conv_112/WithoutBiases" type="Convolution" version="opset1">
			<data auto_pad="explicit" dilations="1" pads_begin="0" pads_end="0" strides="1"/>
			<input>
				<port id="0" precision="FP16">
					<dim>1</dim>
					<dim>256</dim>
					<dim>1106</dim>
				</port>
				<port id="1" precision="FP16">
					<dim>256</dim>
					<dim>256</dim>
					<dim>3</dim>
				</port>
			</input>
			<output>
				<port id="2" precision="FP16">
					<dim>1</dim>
					<dim>256</dim>
					<dim>1104</dim>
				</port>
			</output>
		</layer>
		<layer id="85" name="Conv_112/Dims7521" type="Const" version="opset1">
			<data element_type="f16" offset="18664628" shape="1, 256, 1" size="512"/>
			<output>
				<port id="0" precision="FP16">
					<dim>1</dim>
					<dim>256</dim>
					<dim>1</dim>
				</port>
			</output>
		</layer>
		<layer id="86" name="Conv_112" type="Add" version="opset1">
			<data auto_broadcast="numpy"/>
			<input>
				<port id="0" precision="FP16">
					<dim>1</dim>
					<dim>256</dim>
					<dim>1104</dim>
				</port>
				<port id="1" precision="FP16">
					<dim>1</dim>
					<dim>256</dim>
					<dim>1</dim>
				</port>
			</input>
			<output>
				<port id="2" names="263" precision="FP16">
					<dim>1</dim>
					<dim>256</dim>
					<dim>1104</dim>
				</port>
			</output>
		</layer>
		<layer id="87" name="LeakyRelu_113/weights1978526099" type="Const" version="opset1">
			<data element_type="f32" offset="574544" shape="1" size="4"/>
			<output>
				<port id="0" precision="FP32">
					<dim>1</dim>
				</port>
			</output>
		</layer>
		<layer id="88" name="LeakyRelu_113" type="PReLU" version="opset1">
			<input>
				<port id="0" precision="FP16">
					<dim>1</dim>
					<dim>256</dim>
					<dim>1104</dim>
				</port>
				<port id="1" precision="FP32">
					<dim>1</dim>
				</port>
			</input>
			<output>
				<port id="2" names="264" precision="FP16">
					<dim>1</dim>
					<dim>256</dim>
					<dim>1104</dim>
				</port>
			</output>
		</layer>
		<layer id="89" name="Mul_116" type="Const" version="opset1">
			<data element_type="f16" offset="18665140" shape="256, 256, 1" size="131072"/>
			<output>
				<port id="0" names="267" precision="FP16">
					<dim>256</dim>
					<dim>256</dim>
					<dim>1</dim>
				</port>
			</output>
		</layer>
		<layer id="90" name="Conv_117/WithoutBiases" type="Convolution" version="opset1">
			<data auto_pad="explicit" dilations="1" pads_begin="0" pads_end="0" strides="1"/>
			<input>
				<port id="0" precision="FP16">
					<dim>1</dim>
					<dim>256</dim>
					<dim>1104</dim>
				</port>
				<port id="1" precision="FP16">
					<dim>256</dim>
					<dim>256</dim>
					<dim>1</dim>
				</port>
			</input>
			<output>
				<port id="2" precision="FP16">
					<dim>1</dim>
					<dim>256</dim>
					<dim>1104</dim>
				</port>
			</output>
		</layer>
		<layer id="91" name="Conv_117/Dims7503" type="Const" version="opset1">
			<data element_type="f16" offset="18796212" shape="1, 256, 1" size="512"/>
			<output>
				<port id="0" precision="FP16">
					<dim>1</dim>
					<dim>256</dim>
					<dim>1</dim>
				</port>
			</output>
		</layer>
		<layer id="92" name="Conv_117" type="Add" version="opset1">
			<data auto_broadcast="numpy"/>
			<input>
				<port id="0" precision="FP16">
					<dim>1</dim>
					<dim>256</dim>
					<dim>1104</dim>
				</port>
				<port id="1" precision="FP16">
					<dim>1</dim>
					<dim>256</dim>
					<dim>1</dim>
				</port>
			</input>
			<output>
				<port id="2" names="268" precision="FP16">
					<dim>1</dim>
					<dim>256</dim>
					<dim>1104</dim>
				</port>
			</output>
		</layer>
		<layer id="93" name="Add_118" type="Add" version="opset1">
			<data auto_broadcast="numpy"/>
			<input>
				<port id="0" precision="FP16">
					<dim>1</dim>
					<dim>256</dim>
					<dim>1104</dim>
				</port>
				<port id="1" precision="FP16">
					<dim>1</dim>
					<dim>256</dim>
					<dim>1104</dim>
				</port>
			</input>
			<output>
				<port id="2" names="269" precision="FP16">
					<dim>1</dim>
					<dim>256</dim>
					<dim>1104</dim>
				</port>
			</output>
		</layer>
		<layer id="94" name="Mul_121" type="Const" version="opset1">
			<data element_type="f16" offset="18796724" shape="256, 256, 1" size="131072"/>
			<output>
				<port id="0" names="272" precision="FP16">
					<dim>256</dim>
					<dim>256</dim>
					<dim>1</dim>
				</port>
			</output>
		</layer>
		<layer id="95" name="Conv_122/WithoutBiases" type="Convolution" version="opset1">
			<data auto_pad="explicit" dilations="1" pads_begin="0" pads_end="0" strides="1"/>
			<input>
				<port id="0" precision="FP16">
					<dim>1</dim>
					<dim>256</dim>
					<dim>1104</dim>
				</port>
				<port id="1" precision="FP16">
					<dim>256</dim>
					<dim>256</dim>
					<dim>1</dim>
				</port>
			</input>
			<output>
				<port id="2" precision="FP16">
					<dim>1</dim>
					<dim>256</dim>
					<dim>1104</dim>
				</port>
			</output>
		</layer>
		<layer id="96" name="Conv_122/Dims7545" type="Const" version="opset1">
			<data element_type="f16" offset="18927796" shape="1, 256, 1" size="512"/>
			<output>
				<port id="0" precision="FP16">
					<dim>1</dim>
					<dim>256</dim>
					<dim>1</dim>
				</port>
			</output>
		</layer>
		<layer id="97" name="Conv_122" type="Add" version="opset1">
			<data auto_broadcast="numpy"/>
			<input>
				<port id="0" precision="FP16">
					<dim>1</dim>
					<dim>256</dim>
					<dim>1104</dim>
				</port>
				<port id="1" precision="FP16">
					<dim>1</dim>
					<dim>256</dim>
					<dim>1</dim>
				</port>
			</input>
			<output>
				<port id="2" names="273" precision="FP16">
					<dim>1</dim>
					<dim>256</dim>
					<dim>1104</dim>
				</port>
			</output>
		</layer>
		<layer id="98" name="LeakyRelu_123/weights1967326207" type="Const" version="opset1">
			<data element_type="f32" offset="574544" shape="1" size="4"/>
			<output>
				<port id="0" precision="FP32">
					<dim>1</dim>
				</port>
			</output>
		</layer>
		<layer id="99" name="LeakyRelu_123" type="PReLU" version="opset1">
			<input>
				<port id="0" precision="FP16">
					<dim>1</dim>
					<dim>256</dim>
					<dim>1104</dim>
				</port>
				<port id="1" precision="FP32">
					<dim>1</dim>
				</port>
			</input>
			<output>
				<port id="2" names="274" precision="FP16">
					<dim>1</dim>
					<dim>256</dim>
					<dim>1104</dim>
				</port>
			</output>
		</layer>
		<layer id="100" name="936" type="Const" version="opset1">
			<data element_type="i64" offset="54" shape="3" size="24"/>
			<output>
				<port id="0" precision="I64">
					<dim>3</dim>
				</port>
			</output>
		</layer>
		<layer id="101" name="93625919" type="Const" version="opset1">
			<data element_type="i64" offset="54" shape="3" size="24"/>
			<output>
				<port id="0" precision="I64">
					<dim>3</dim>
				</port>
			</output>
		</layer>
		<layer id="102" name="Constant_217" type="Const" version="opset1">
			<data element_type="f16" offset="78" shape="" size="2"/>
			<output>
				<port id="0" precision="FP16"/>
			</output>
		</layer>
		<layer id="103" name="Pad_142" type="Pad" version="opset1">
			<data pad_mode="reflect"/>
			<input>
				<port id="0" precision="FP16">
					<dim>1</dim>
					<dim>256</dim>
					<dim>1104</dim>
				</port>
				<port id="1" precision="I64">
					<dim>3</dim>
				</port>
				<port id="2" precision="I64">
					<dim>3</dim>
				</port>
				<port id="3" precision="FP16"/>
			</input>
			<output>
				<port id="4" names="297" precision="FP16">
					<dim>1</dim>
					<dim>256</dim>
					<dim>1110</dim>
				</port>
			</output>
		</layer>
		<layer id="104" name="Mul_145" type="Const" version="opset1">
			<data element_type="f16" offset="18928308" shape="256, 256, 3" size="393216"/>
			<output>
				<port id="0" names="300" precision="FP16">
					<dim>256</dim>
					<dim>256</dim>
					<dim>3</dim>
				</port>
			</output>
		</layer>
		<layer id="105" name="Conv_146/WithoutBiases" type="Convolution" version="opset1">
			<data auto_pad="explicit" dilations="3" pads_begin="0" pads_end="0" strides="1"/>
			<input>
				<port id="0" precision="FP16">
					<dim>1</dim>
					<dim>256</dim>
					<dim>1110</dim>
				</port>
				<port id="1" precision="FP16">
					<dim>256</dim>
					<dim>256</dim>
					<dim>3</dim>
				</port>
			</input>
			<output>
				<port id="2" precision="FP16">
					<dim>1</dim>
					<dim>256</dim>
					<dim>1104</dim>
				</port>
			</output>
		</layer>
		<layer id="106" name="Conv_146/Dims7539" type="Const" version="opset1">
			<data element_type="f16" offset="19321524" shape="1, 256, 1" size="512"/>
			<output>
				<port id="0" precision="FP16">
					<dim>1</dim>
					<dim>256</dim>
					<dim>1</dim>
				</port>
			</output>
		</layer>
		<layer id="107" name="Conv_146" type="Add" version="opset1">
			<data auto_broadcast="numpy"/>
			<input>
				<port id="0" precision="FP16">
					<dim>1</dim>
					<dim>256</dim>
					<dim>1104</dim>
				</port>
				<port id="1" precision="FP16">
					<dim>1</dim>
					<dim>256</dim>
					<dim>1</dim>
				</port>
			</input>
			<output>
				<port id="2" names="301" precision="FP16">
					<dim>1</dim>
					<dim>256</dim>
					<dim>1104</dim>
				</port>
			</output>
		</layer>
		<layer id="108" name="LeakyRelu_147/weights1972525961" type="Const" version="opset1">
			<data element_type="f32" offset="574544" shape="1" size="4"/>
			<output>
				<port id="0" precision="FP32">
					<dim>1</dim>
				</port>
			</output>
		</layer>
		<layer id="109" name="LeakyRelu_147" type="PReLU" version="opset1">
			<input>
				<port id="0" precision="FP16">
					<dim>1</dim>
					<dim>256</dim>
					<dim>1104</dim>
				</port>
				<port id="1" precision="FP32">
					<dim>1</dim>
				</port>
			</input>
			<output>
				<port id="2" names="302" precision="FP16">
					<dim>1</dim>
					<dim>256</dim>
					<dim>1104</dim>
				</port>
			</output>
		</layer>
		<layer id="110" name="Mul_150" type="Const" version="opset1">
			<data element_type="f16" offset="19322036" shape="256, 256, 1" size="131072"/>
			<output>
				<port id="0" names="305" precision="FP16">
					<dim>256</dim>
					<dim>256</dim>
					<dim>1</dim>
				</port>
			</output>
		</layer>
		<layer id="111" name="Conv_151/WithoutBiases" type="Convolution" version="opset1">
			<data auto_pad="explicit" dilations="1" pads_begin="0" pads_end="0" strides="1"/>
			<input>
				<port id="0" precision="FP16">
					<dim>1</dim>
					<dim>256</dim>
					<dim>1104</dim>
				</port>
				<port id="1" precision="FP16">
					<dim>256</dim>
					<dim>256</dim>
					<dim>1</dim>
				</port>
			</input>
			<output>
				<port id="2" precision="FP16">
					<dim>1</dim>
					<dim>256</dim>
					<dim>1104</dim>
				</port>
			</output>
		</layer>
		<layer id="112" name="Conv_151/Dims7443" type="Const" version="opset1">
			<data element_type="f16" offset="19453108" shape="1, 256, 1" size="512"/>
			<output>
				<port id="0" precision="FP16">
					<dim>1</dim>
					<dim>256</dim>
					<dim>1</dim>
				</port>
			</output>
		</layer>
		<layer id="113" name="Conv_151" type="Add" version="opset1">
			<data auto_broadcast="numpy"/>
			<input>
				<port id="0" precision="FP16">
					<dim>1</dim>
					<dim>256</dim>
					<dim>1104</dim>
				</port>
				<port id="1" precision="FP16">
					<dim>1</dim>
					<dim>256</dim>
					<dim>1</dim>
				</port>
			</input>
			<output>
				<port id="2" names="306" precision="FP16">
					<dim>1</dim>
					<dim>256</dim>
					<dim>1104</dim>
				</port>
			</output>
		</layer>
		<layer id="114" name="Add_152" type="Add" version="opset1">
			<data auto_broadcast="numpy"/>
			<input>
				<port id="0" precision="FP16">
					<dim>1</dim>
					<dim>256</dim>
					<dim>1104</dim>
				</port>
				<port id="1" precision="FP16">
					<dim>1</dim>
					<dim>256</dim>
					<dim>1104</dim>
				</port>
			</input>
			<output>
				<port id="2" names="307" precision="FP16">
					<dim>1</dim>
					<dim>256</dim>
					<dim>1104</dim>
				</port>
			</output>
		</layer>
		<layer id="115" name="Mul_155" type="Const" version="opset1">
			<data element_type="f16" offset="19453620" shape="256, 256, 1" size="131072"/>
			<output>
				<port id="0" names="310" precision="FP16">
					<dim>256</dim>
					<dim>256</dim>
					<dim>1</dim>
				</port>
			</output>
		</layer>
		<layer id="116" name="Conv_156/WithoutBiases" type="Convolution" version="opset1">
			<data auto_pad="explicit" dilations="1" pads_begin="0" pads_end="0" strides="1"/>
			<input>
				<port id="0" precision="FP16">
					<dim>1</dim>
					<dim>256</dim>
					<dim>1104</dim>
				</port>
				<port id="1" precision="FP16">
					<dim>256</dim>
					<dim>256</dim>
					<dim>1</dim>
				</port>
			</input>
			<output>
				<port id="2" precision="FP16">
					<dim>1</dim>
					<dim>256</dim>
					<dim>1104</dim>
				</port>
			</output>
		</layer>
		<layer id="117" name="Conv_156/Dims7449" type="Const" version="opset1">
			<data element_type="f16" offset="19584692" shape="1, 256, 1" size="512"/>
			<output>
				<port id="0" precision="FP16">
					<dim>1</dim>
					<dim>256</dim>
					<dim>1</dim>
				</port>
			</output>
		</layer>
		<layer id="118" name="Conv_156" type="Add" version="opset1">
			<data auto_broadcast="numpy"/>
			<input>
				<port id="0" precision="FP16">
					<dim>1</dim>
					<dim>256</dim>
					<dim>1104</dim>
				</port>
				<port id="1" precision="FP16">
					<dim>1</dim>
					<dim>256</dim>
					<dim>1</dim>
				</port>
			</input>
			<output>
				<port id="2" names="311" precision="FP16">
					<dim>1</dim>
					<dim>256</dim>
					<dim>1104</dim>
				</port>
			</output>
		</layer>
		<layer id="119" name="LeakyRelu_157/weights1970925877" type="Const" version="opset1">
			<data element_type="f32" offset="574544" shape="1" size="4"/>
			<output>
				<port id="0" precision="FP32">
					<dim>1</dim>
				</port>
			</output>
		</layer>
		<layer id="120" name="LeakyRelu_157" type="PReLU" version="opset1">
			<input>
				<port id="0" precision="FP16">
					<dim>1</dim>
					<dim>256</dim>
					<dim>1104</dim>
				</port>
				<port id="1" precision="FP32">
					<dim>1</dim>
				</port>
			</input>
			<output>
				<port id="2" names="312" precision="FP16">
					<dim>1</dim>
					<dim>256</dim>
					<dim>1104</dim>
				</port>
			</output>
		</layer>
		<layer id="121" name="945" type="Const" version="opset1">
			<data element_type="i64" offset="19585204" shape="3" size="24"/>
			<output>
				<port id="0" precision="I64">
					<dim>3</dim>
				</port>
			</output>
		</layer>
		<layer id="122" name="94526027" type="Const" version="opset1">
			<data element_type="i64" offset="19585204" shape="3" size="24"/>
			<output>
				<port id="0" precision="I64">
					<dim>3</dim>
				</port>
			</output>
		</layer>
		<layer id="123" name="Constant_258" type="Const" version="opset1">
			<data element_type="f16" offset="78" shape="" size="2"/>
			<output>
				<port id="0" precision="FP16"/>
			</output>
		</layer>
		<layer id="124" name="Pad_176" type="Pad" version="opset1">
			<data pad_mode="reflect"/>
			<input>
				<port id="0" precision="FP16">
					<dim>1</dim>
					<dim>256</dim>
					<dim>1104</dim>
				</port>
				<port id="1" precision="I64">
					<dim>3</dim>
				</port>
				<port id="2" precision="I64">
					<dim>3</dim>
				</port>
				<port id="3" precision="FP16"/>
			</input>
			<output>
				<port id="4" names="335" precision="FP16">
					<dim>1</dim>
					<dim>256</dim>
					<dim>1122</dim>
				</port>
			</output>
		</layer>
		<layer id="125" name="Mul_179" type="Const" version="opset1">
			<data element_type="f16" offset="19585228" shape="256, 256, 3" size="393216"/>
			<output>
				<port id="0" names="338" precision="FP16">
					<dim>256</dim>
					<dim>256</dim>
					<dim>3</dim>
				</port>
			</output>
		</layer>
		<layer id="126" name="Conv_180/WithoutBiases" type="Convolution" version="opset1">
			<data auto_pad="explicit" dilations="9" pads_begin="0" pads_end="0" strides="1"/>
			<input>
				<port id="0" precision="FP16">
					<dim>1</dim>
					<dim>256</dim>
					<dim>1122</dim>
				</port>
				<port id="1" precision="FP16">
					<dim>256</dim>
					<dim>256</dim>
					<dim>3</dim>
				</port>
			</input>
			<output>
				<port id="2" precision="FP16">
					<dim>1</dim>
					<dim>256</dim>
					<dim>1104</dim>
				</port>
			</output>
		</layer>
		<layer id="127" name="Conv_180/Dims7479" type="Const" version="opset1">
			<data element_type="f16" offset="19978444" shape="1, 256, 1" size="512"/>
			<output>
				<port id="0" precision="FP16">
					<dim>1</dim>
					<dim>256</dim>
					<dim>1</dim>
				</port>
			</output>
		</layer>
		<layer id="128" name="Conv_180" type="Add" version="opset1">
			<data auto_broadcast="numpy"/>
			<input>
				<port id="0" precision="FP16">
					<dim>1</dim>
					<dim>256</dim>
					<dim>1104</dim>
				</port>
				<port id="1" precision="FP16">
					<dim>1</dim>
					<dim>256</dim>
					<dim>1</dim>
				</port>
			</input>
			<output>
				<port id="2" names="339" precision="FP16">
					<dim>1</dim>
					<dim>256</dim>
					<dim>1104</dim>
				</port>
			</output>
		</layer>
		<layer id="129" name="LeakyRelu_181/weights1971325646" type="Const" version="opset1">
			<data element_type="f32" offset="574544" shape="1" size="4"/>
			<output>
				<port id="0" precision="FP32">
					<dim>1</dim>
				</port>
			</output>
		</layer>
		<layer id="130" name="LeakyRelu_181" type="PReLU" version="opset1">
			<input>
				<port id="0" precision="FP16">
					<dim>1</dim>
					<dim>256</dim>
					<dim>1104</dim>
				</port>
				<port id="1" precision="FP32">
					<dim>1</dim>
				</port>
			</input>
			<output>
				<port id="2" names="340" precision="FP16">
					<dim>1</dim>
					<dim>256</dim>
					<dim>1104</dim>
				</port>
			</output>
		</layer>
		<layer id="131" name="Mul_184" type="Const" version="opset1">
			<data element_type="f16" offset="19978956" shape="256, 256, 1" size="131072"/>
			<output>
				<port id="0" names="343" precision="FP16">
					<dim>256</dim>
					<dim>256</dim>
					<dim>1</dim>
				</port>
			</output>
		</layer>
		<layer id="132" name="Conv_185/WithoutBiases" type="Convolution" version="opset1">
			<data auto_pad="explicit" dilations="1" pads_begin="0" pads_end="0" strides="1"/>
			<input>
				<port id="0" precision="FP16">
					<dim>1</dim>
					<dim>256</dim>
					<dim>1104</dim>
				</port>
				<port id="1" precision="FP16">
					<dim>256</dim>
					<dim>256</dim>
					<dim>1</dim>
				</port>
			</input>
			<output>
				<port id="2" precision="FP16">
					<dim>1</dim>
					<dim>256</dim>
					<dim>1104</dim>
				</port>
			</output>
		</layer>
		<layer id="133" name="Conv_185/Dims7533" type="Const" version="opset1">
			<data element_type="f16" offset="20110028" shape="1, 256, 1" size="512"/>
			<output>
				<port id="0" precision="FP16">
					<dim>1</dim>
					<dim>256</dim>
					<dim>1</dim>
				</port>
			</output>
		</layer>
		<layer id="134" name="Conv_185" type="Add" version="opset1">
			<data auto_broadcast="numpy"/>
			<input>
				<port id="0" precision="FP16">
					<dim>1</dim>
					<dim>256</dim>
					<dim>1104</dim>
				</port>
				<port id="1" precision="FP16">
					<dim>1</dim>
					<dim>256</dim>
					<dim>1</dim>
				</port>
			</input>
			<output>
				<port id="2" names="344" precision="FP16">
					<dim>1</dim>
					<dim>256</dim>
					<dim>1104</dim>
				</port>
			</output>
		</layer>
		<layer id="135" name="Add_186" type="Add" version="opset1">
			<data auto_broadcast="numpy"/>
			<input>
				<port id="0" precision="FP16">
					<dim>1</dim>
					<dim>256</dim>
					<dim>1104</dim>
				</port>
				<port id="1" precision="FP16">
					<dim>1</dim>
					<dim>256</dim>
					<dim>1104</dim>
				</port>
			</input>
			<output>
				<port id="2" names="345" precision="FP16">
					<dim>1</dim>
					<dim>256</dim>
					<dim>1104</dim>
				</port>
			</output>
		</layer>
		<layer id="136" name="LeakyRelu_187/weights1972126024" type="Const" version="opset1">
			<data element_type="f32" offset="574544" shape="1" size="4"/>
			<output>
				<port id="0" precision="FP32">
					<dim>1</dim>
				</port>
			</output>
		</layer>
		<layer id="137" name="LeakyRelu_187" type="PReLU" version="opset1">
			<input>
				<port id="0" precision="FP16">
					<dim>1</dim>
					<dim>256</dim>
					<dim>1104</dim>
				</port>
				<port id="1" precision="FP32">
					<dim>1</dim>
				</port>
			</input>
			<output>
				<port id="2" names="346" precision="FP16">
					<dim>1</dim>
					<dim>256</dim>
					<dim>1104</dim>
				</port>
			</output>
		</layer>
		<layer id="138" name="Mul_190" type="Const" version="opset1">
			<data element_type="f16" offset="20110540" shape="256, 256, 17" size="2228224"/>
			<output>
				<port id="0" names="349" precision="FP16">
					<dim>256</dim>
					<dim>256</dim>
					<dim>17</dim>
				</port>
			</output>
		</layer>
		<layer id="139" name="Conv_191/WithoutBiases" type="Convolution" version="opset1">
			<data auto_pad="explicit" dilations="1" pads_begin="8" pads_end="8" strides="1"/>
			<input>
				<port id="0" precision="FP16">
					<dim>1</dim>
					<dim>256</dim>
					<dim>1104</dim>
				</port>
				<port id="1" precision="FP16">
					<dim>256</dim>
					<dim>256</dim>
					<dim>17</dim>
				</port>
			</input>
			<output>
				<port id="2" precision="FP16">
					<dim>1</dim>
					<dim>256</dim>
					<dim>1104</dim>
				</port>
			</output>
		</layer>
		<layer id="140" name="Conv_191/Dims7611" type="Const" version="opset1">
			<data element_type="f16" offset="22338764" shape="1, 256, 1" size="512"/>
			<output>
				<port id="0" precision="FP16">
					<dim>1</dim>
					<dim>256</dim>
					<dim>1</dim>
				</port>
			</output>
		</layer>
		<layer id="141" name="Conv_191" type="Add" version="opset1">
			<data auto_broadcast="numpy"/>
			<input>
				<port id="0" precision="FP16">
					<dim>1</dim>
					<dim>256</dim>
					<dim>1104</dim>
				</port>
				<port id="1" precision="FP16">
					<dim>1</dim>
					<dim>256</dim>
					<dim>1</dim>
				</port>
			</input>
			<output>
				<port id="2" names="350" precision="FP16">
					<dim>1</dim>
					<dim>256</dim>
					<dim>1104</dim>
				</port>
			</output>
		</layer>
		<layer id="142" name="Unsqueeze_192/Dims" type="Const" version="opset1">
			<data element_type="i64" offset="9488468" shape="1" size="8"/>
			<output>
				<port id="0" precision="I64">
					<dim>1</dim>
				</port>
			</output>
		</layer>
		<layer id="143" name="Unsqueeze_192/Unsqueeze" type="Unsqueeze" version="opset1">
			<input>
				<port id="0" precision="FP16">
					<dim>1</dim>
					<dim>256</dim>
					<dim>1104</dim>
				</port>
				<port id="1" precision="I64">
					<dim>1</dim>
				</port>
			</input>
			<output>
				<port id="2" names="351" precision="FP16">
					<dim>1</dim>
					<dim>256</dim>
					<dim>1104</dim>
					<dim>1</dim>
				</port>
			</output>
		</layer>
		<layer id="144" name="Shape_211" type="ShapeOf" version="opset3">
			<data output_type="i64"/>
			<input>
				<port id="0" precision="FP16">
					<dim>1</dim>
					<dim>256</dim>
					<dim>1104</dim>
					<dim>1</dim>
				</port>
			</input>
			<output>
				<port id="1" names="370" precision="I64">
					<dim>4</dim>
				</port>
			</output>
		</layer>
		<layer id="145" name="Slice_215/Concat830326150" type="Const" version="opset1">
			<data element_type="i64" offset="9488476" shape="1" size="8"/>
			<output>
				<port id="0" precision="I64">
					<dim>1</dim>
				</port>
			</output>
		</layer>
		<layer id="146" name="Slice_215/Concat8293830425811" type="Const" version="opset1">
			<data element_type="i64" offset="9488484" shape="1" size="8"/>
			<output>
				<port id="0" precision="I64">
					<dim>1</dim>
				</port>
			</output>
		</layer>
		<layer id="147" name="Slice_215/Strides830525850" type="Const" version="opset1">
			<data element_type="i64" offset="9488492" shape="1" size="8"/>
			<output>
				<port id="0" precision="I64">
					<dim>1</dim>
				</port>
			</output>
		</layer>
		<layer id="148" name="Slice_215" type="StridedSlice" version="opset1">
			<data begin_mask="0" ellipsis_mask="0" end_mask="0" new_axis_mask="0" shrink_axis_mask="0"/>
			<input>
				<port id="0" precision="I64">
					<dim>4</dim>
				</port>
				<port id="1" precision="I64">
					<dim>1</dim>
				</port>
				<port id="2" precision="I64">
					<dim>1</dim>
				</port>
				<port id="3" precision="I64">
					<dim>1</dim>
				</port>
			</input>
			<output>
				<port id="4" names="374" precision="I64">
					<dim>2</dim>
				</port>
			</output>
		</layer>
		<layer id="149" name="Shape_193" type="ShapeOf" version="opset3">
			<data output_type="i64"/>
			<input>
				<port id="0" precision="FP16">
					<dim>1</dim>
					<dim>256</dim>
					<dim>1104</dim>
					<dim>1</dim>
				</port>
			</input>
			<output>
				<port id="1" names="352" precision="I64">
					<dim>4</dim>
				</port>
			</output>
		</layer>
		<layer id="150" name="Constant_194" type="Const" version="opset1">
			<data element_type="i32" offset="9488500" shape="" size="4"/>
			<output>
				<port id="0" names="353" precision="I32"/>
			</output>
		</layer>
		<layer id="151" name="Gather_195/axis" type="Const" version="opset1">
			<data element_type="i64" offset="9488476" shape="" size="8"/>
			<output>
				<port id="0" precision="I64"/>
			</output>
		</layer>
		<layer id="152" name="Gather_1951015" type="Gather" version="opset7">
			<data batch_dims="0"/>
			<input>
				<port id="0" precision="I64">
					<dim>4</dim>
				</port>
				<port id="1" precision="I32"/>
				<port id="2" precision="I64"/>
			</input>
			<output>
				<port id="3" names="354" precision="I64"/>
			</output>
		</layer>
		<layer id="153" name="Cast_196" type="Convert" version="opset1">
			<data destination_type="f32"/>
			<input>
				<port id="0" precision="I64"/>
			</input>
			<output>
				<port id="1" names="355" precision="FP32"/>
			</output>
		</layer>
		<layer id="154" name="Constant_197" type="Const" version="opset1">
			<data element_type="f32" offset="9488504" shape="" size="4"/>
			<output>
				<port id="0" names="356" precision="FP32"/>
			</output>
		</layer>
		<layer id="155" name="Mul_198" type="Multiply" version="opset1">
			<data auto_broadcast="numpy"/>
			<input>
				<port id="0" precision="FP32"/>
				<port id="1" precision="FP32"/>
			</input>
			<output>
				<port id="2" names="357,358" precision="FP32"/>
			</output>
		</layer>
		<layer id="156" name="Floor_200" type="Floor" version="opset1">
			<input>
				<port id="0" precision="FP32"/>
			</input>
			<output>
				<port id="1" names="359" precision="FP32"/>
			</output>
		</layer>
		<layer id="157" name="Unsqueeze_207/Dims" type="Const" version="opset1">
			<data element_type="i64" offset="9488476" shape="1" size="8"/>
			<output>
				<port id="0" precision="I64">
					<dim>1</dim>
				</port>
			</output>
		</layer>
		<layer id="158" name="Unsqueeze_207/Unsqueeze" type="Unsqueeze" version="opset1">
			<input>
				<port id="0" precision="FP32"/>
				<port id="1" precision="I64">
					<dim>1</dim>
				</port>
			</input>
			<output>
				<port id="2" names="366" precision="FP32">
					<dim>1</dim>
				</port>
			</output>
		</layer>
		<layer id="159" name="Shape_201" type="ShapeOf" version="opset3">
			<data output_type="i64"/>
			<input>
				<port id="0" precision="FP16">
					<dim>1</dim>
					<dim>256</dim>
					<dim>1104</dim>
					<dim>1</dim>
				</port>
			</input>
			<output>
				<port id="1" names="360" precision="I64">
					<dim>4</dim>
				</port>
			</output>
		</layer>
		<layer id="160" name="Constant_202" type="Const" version="opset1">
			<data element_type="i32" offset="9488508" shape="" size="4"/>
			<output>
				<port id="0" names="361" precision="I32"/>
			</output>
		</layer>
		<layer id="161" name="Gather_203/axis" type="Const" version="opset1">
			<data element_type="i64" offset="9488476" shape="" size="8"/>
			<output>
				<port id="0" precision="I64"/>
			</output>
		</layer>
		<layer id="162" name="Gather_203981" type="Gather" version="opset7">
			<data batch_dims="0"/>
			<input>
				<port id="0" precision="I64">
					<dim>4</dim>
				</port>
				<port id="1" precision="I32"/>
				<port id="2" precision="I64"/>
			</input>
			<output>
				<port id="3" names="362" precision="I64"/>
			</output>
		</layer>
		<layer id="163" name="Cast_204" type="Convert" version="opset1">
			<data destination_type="f32"/>
			<input>
				<port id="0" precision="I64"/>
			</input>
			<output>
				<port id="1" names="363,364" precision="FP32"/>
			</output>
		</layer>
		<layer id="164" name="Floor_206" type="Floor" version="opset1">
			<input>
				<port id="0" precision="FP32"/>
			</input>
			<output>
				<port id="1" names="365" precision="FP32"/>
			</output>
		</layer>
		<layer id="165" name="Unsqueeze_208/Dims" type="Const" version="opset1">
			<data element_type="i64" offset="9488476" shape="1" size="8"/>
			<output>
				<port id="0" precision="I64">
					<dim>1</dim>
				</port>
			</output>
		</layer>
		<layer id="166" name="Unsqueeze_208/Unsqueeze" type="Unsqueeze" version="opset1">
			<input>
				<port id="0" precision="FP32"/>
				<port id="1" precision="I64">
					<dim>1</dim>
				</port>
			</input>
			<output>
				<port id="2" names="367" precision="FP32">
					<dim>1</dim>
				</port>
			</output>
		</layer>
		<layer id="167" name="Concat_209" type="Concat" version="opset1">
			<data axis="0"/>
			<input>
				<port id="0" precision="FP32">
					<dim>1</dim>
				</port>
				<port id="1" precision="FP32">
					<dim>1</dim>
				</port>
			</input>
			<output>
				<port id="2" names="368" precision="FP32">
					<dim>2</dim>
				</port>
			</output>
		</layer>
		<layer id="168" name="Cast_216" type="Convert" version="opset1">
			<data destination_type="i64"/>
			<input>
				<port id="0" precision="FP32">
					<dim>2</dim>
				</port>
			</input>
			<output>
				<port id="1" names="375" precision="I64">
					<dim>2</dim>
				</port>
			</output>
		</layer>
		<layer id="169" name="Concat_217" type="Concat" version="opset1">
			<data axis="0"/>
			<input>
				<port id="0" precision="I64">
					<dim>2</dim>
				</port>
				<port id="1" precision="I64">
					<dim>2</dim>
				</port>
			</input>
			<output>
				<port id="2" names="376" precision="I64">
					<dim>4</dim>
				</port>
			</output>
		</layer>
		<layer id="170" name="Resize_219/StridedSlice_sizes_input_port_1/value609325925" type="Const" version="opset1">
			<data element_type="i64" offset="9488484" shape="1" size="8"/>
			<output>
				<port id="0" precision="I64">
					<dim>1</dim>
				</port>
			</output>
		</layer>
		<layer id="171" name="Resize_219/StridedSlice_sizes_input_port_2/value609525688" type="Const" version="opset1">
			<data element_type="i64" offset="9488512" shape="1" size="8"/>
			<output>
				<port id="0" precision="I64">
					<dim>1</dim>
				</port>
			</output>
		</layer>
		<layer id="172" name="Resize_219/StridedSlice_sizes_input_port_3/value609726231" type="Const" version="opset1">
			<data element_type="i64" offset="9488492" shape="1" size="8"/>
			<output>
				<port id="0" precision="I64">
					<dim>1</dim>
				</port>
			</output>
		</layer>
		<layer id="173" name="Resize_219/StridedSlice_sizes" type="StridedSlice" version="opset1">
			<data begin_mask="0" ellipsis_mask="0" end_mask="0" new_axis_mask="0" shrink_axis_mask="0"/>
			<input>
				<port id="0" precision="I64">
					<dim>4</dim>
				</port>
				<port id="1" precision="I64">
					<dim>1</dim>
				</port>
				<port id="2" precision="I64">
					<dim>1</dim>
				</port>
				<port id="3" precision="I64">
					<dim>1</dim>
				</port>
			</input>
			<output>
				<port id="4" precision="I64">
					<dim>2</dim>
				</port>
			</output>
		</layer>
		<layer id="174" name="6113" type="Convert" version="opset1">
			<data destination_type="f32"/>
			<input>
				<port id="0" precision="I64">
					<dim>4</dim>
				</port>
			</input>
			<output>
				<port id="1" precision="FP32">
					<dim>4</dim>
				</port>
			</output>
		</layer>
		<layer id="175" name="Resize_219/ShapeOf" type="ShapeOf" version="opset3">
			<data output_type="i64"/>
			<input>
				<port id="0" precision="FP16">
					<dim>1</dim>
					<dim>256</dim>
					<dim>1104</dim>
					<dim>1</dim>
				</port>
			</input>
			<output>
				<port id="1" precision="I64">
					<dim>4</dim>
				</port>
			</output>
		</layer>
		<layer id="176" name="6112" type="Convert" version="opset1">
			<data destination_type="f32"/>
			<input>
				<port id="0" precision="I64">
					<dim>4</dim>
				</port>
			</input>
			<output>
				<port id="1" precision="FP32">
					<dim>4</dim>
				</port>
			</output>
		</layer>
		<layer id="177" name="Resize_219/Div" type="Divide" version="opset1">
			<data auto_broadcast="numpy" m_pythondiv="true"/>
			<input>
				<port id="0" precision="FP32">
					<dim>4</dim>
				</port>
				<port id="1" precision="FP32">
					<dim>4</dim>
				</port>
			</input>
			<output>
				<port id="2" precision="FP32">
					<dim>4</dim>
				</port>
			</output>
		</layer>
		<layer id="178" name="Resize_219/Add_input_port_1/value611125562" type="Const" version="opset1">
			<data element_type="f32" offset="9488520" shape="1" size="4"/>
			<output>
				<port id="0" precision="FP32">
					<dim>1</dim>
				</port>
			</output>
		</layer>
		<layer id="179" name="Resize_219/Add" type="Add" version="opset1">
			<data auto_broadcast="numpy"/>
			<input>
				<port id="0" precision="FP32">
					<dim>4</dim>
				</port>
				<port id="1" precision="FP32">
					<dim>1</dim>
				</port>
			</input>
			<output>
				<port id="2" precision="FP32">
					<dim>4</dim>
				</port>
			</output>
		</layer>
		<layer id="180" name="Resize_219/StridedSlice_scales_input_port_1/value610025580" type="Const" version="opset1">
			<data element_type="i64" offset="9488484" shape="1" size="8"/>
			<output>
				<port id="0" precision="I64">
					<dim>1</dim>
				</port>
			</output>
		</layer>
		<layer id="181" name="Resize_219/StridedSlice_scales_input_port_2/value610226003" type="Const" version="opset1">
			<data element_type="i64" offset="9488512" shape="1" size="8"/>
			<output>
				<port id="0" precision="I64">
					<dim>1</dim>
				</port>
			</output>
		</layer>
		<layer id="182" name="Resize_219/StridedSlice_scales_input_port_3/value610426078" type="Const" version="opset1">
			<data element_type="i64" offset="9488492" shape="1" size="8"/>
			<output>
				<port id="0" precision="I64">
					<dim>1</dim>
				</port>
			</output>
		</layer>
		<layer id="183" name="Resize_219/StridedSlice_scales" type="StridedSlice" version="opset1">
			<data begin_mask="0" ellipsis_mask="0" end_mask="0" new_axis_mask="0" shrink_axis_mask="0"/>
			<input>
				<port id="0" precision="FP32">
					<dim>4</dim>
				</port>
				<port id="1" precision="I64">
					<dim>1</dim>
				</port>
				<port id="2" precision="I64">
					<dim>1</dim>
				</port>
				<port id="3" precision="I64">
					<dim>1</dim>
				</port>
			</input>
			<output>
				<port id="4" precision="FP32">
					<dim>2</dim>
				</port>
			</output>
		</layer>
		<layer id="184" name="Resize_219/axis610725718" type="Const" version="opset1">
			<data element_type="i64" offset="9488524" shape="2" size="16"/>
			<output>
				<port id="0" precision="I64">
					<dim>2</dim>
				</port>
			</output>
		</layer>
		<layer id="185" name="Resize_219" type="Interpolate" version="opset4">
			<data antialias="false" coordinate_transformation_mode="asymmetric" cube_coeff="-0.75" mode="nearest" nearest_mode="floor" pads_begin="0, 0, 0, 0" pads_end="0, 0, 0, 0" shape_calculation_mode="sizes"/>
			<input>
				<port id="0" precision="FP16">
					<dim>1</dim>
					<dim>256</dim>
					<dim>1104</dim>
					<dim>1</dim>
				</port>
				<port id="1" precision="I64">
					<dim>2</dim>
				</port>
				<port id="2" precision="FP32">
					<dim>2</dim>
				</port>
				<port id="3" precision="I64">
					<dim>2</dim>
				</port>
			</input>
			<output>
				<port id="4" names="378" precision="FP16">
					<dim>1</dim>
					<dim>256</dim>
					<dim>8832</dim>
					<dim>1</dim>
				</port>
			</output>
		</layer>
		<layer id="186" name="Squeeze_220/Dims" type="Const" version="opset1">
			<data element_type="i64" offset="9488468" shape="1" size="8"/>
			<output>
				<port id="0" precision="I64">
					<dim>1</dim>
				</port>
			</output>
		</layer>
		<layer id="187" name="Squeeze_220" type="Squeeze" version="opset1">
			<input>
				<port id="0" precision="FP16">
					<dim>1</dim>
					<dim>256</dim>
					<dim>8832</dim>
					<dim>1</dim>
				</port>
				<port id="1" precision="I64">
					<dim>1</dim>
				</port>
			</input>
			<output>
				<port id="2" names="379" precision="FP16">
					<dim>1</dim>
					<dim>256</dim>
					<dim>8832</dim>
				</port>
			</output>
		</layer>
		<layer id="188" name="Mul_223" type="Const" version="opset1">
			<data element_type="f16" offset="22339276" shape="128, 256, 33" size="2162688"/>
			<output>
				<port id="0" names="382" precision="FP16">
					<dim>128</dim>
					<dim>256</dim>
					<dim>33</dim>
				</port>
			</output>
		</layer>
		<layer id="189" name="Conv_224/WithoutBiases" type="Convolution" version="opset1">
			<data auto_pad="explicit" dilations="1" pads_begin="16" pads_end="16" strides="1"/>
			<input>
				<port id="0" precision="FP16">
					<dim>1</dim>
					<dim>256</dim>
					<dim>8832</dim>
				</port>
				<port id="1" precision="FP16">
					<dim>128</dim>
					<dim>256</dim>
					<dim>33</dim>
				</port>
			</input>
			<output>
				<port id="2" precision="FP16">
					<dim>1</dim>
					<dim>128</dim>
					<dim>8832</dim>
				</port>
			</output>
		</layer>
		<layer id="190" name="Conv_224/Dims7485" type="Const" version="opset1">
			<data element_type="f16" offset="24501964" shape="1, 128, 1" size="256"/>
			<output>
				<port id="0" precision="FP16">
					<dim>1</dim>
					<dim>128</dim>
					<dim>1</dim>
				</port>
			</output>
		</layer>
		<layer id="191" name="Conv_224" type="Add" version="opset1">
			<data auto_broadcast="numpy"/>
			<input>
				<port id="0" precision="FP16">
					<dim>1</dim>
					<dim>128</dim>
					<dim>8832</dim>
				</port>
				<port id="1" precision="FP16">
					<dim>1</dim>
					<dim>128</dim>
					<dim>1</dim>
				</port>
			</input>
			<output>
				<port id="2" names="383" precision="FP16">
					<dim>1</dim>
					<dim>128</dim>
					<dim>8832</dim>
				</port>
			</output>
		</layer>
		<layer id="192" name="Mul_227" type="Const" version="opset1">
			<data element_type="f16" offset="24502220" shape="128, 128, 1" size="32768"/>
			<output>
				<port id="0" names="386" precision="FP16">
					<dim>128</dim>
					<dim>128</dim>
					<dim>1</dim>
				</port>
			</output>
		</layer>
		<layer id="193" name="Conv_228/WithoutBiases" type="Convolution" version="opset1">
			<data auto_pad="explicit" dilations="1" pads_begin="0" pads_end="0" strides="1"/>
			<input>
				<port id="0" precision="FP16">
					<dim>1</dim>
					<dim>128</dim>
					<dim>8832</dim>
				</port>
				<port id="1" precision="FP16">
					<dim>128</dim>
					<dim>128</dim>
					<dim>1</dim>
				</port>
			</input>
			<output>
				<port id="2" precision="FP16">
					<dim>1</dim>
					<dim>128</dim>
					<dim>8832</dim>
				</port>
			</output>
		</layer>
		<layer id="194" name="Conv_228/Dims7581" type="Const" version="opset1">
			<data element_type="f16" offset="24534988" shape="1, 128, 1" size="256"/>
			<output>
				<port id="0" precision="FP16">
					<dim>1</dim>
					<dim>128</dim>
					<dim>1</dim>
				</port>
			</output>
		</layer>
		<layer id="195" name="Conv_228" type="Add" version="opset1">
			<data auto_broadcast="numpy"/>
			<input>
				<port id="0" precision="FP16">
					<dim>1</dim>
					<dim>128</dim>
					<dim>8832</dim>
				</port>
				<port id="1" precision="FP16">
					<dim>1</dim>
					<dim>128</dim>
					<dim>1</dim>
				</port>
			</input>
			<output>
				<port id="2" names="387" precision="FP16">
					<dim>1</dim>
					<dim>128</dim>
					<dim>8832</dim>
				</port>
			</output>
		</layer>
		<layer id="196" name="LeakyRelu_229/weights1967725889" type="Const" version="opset1">
			<data element_type="f32" offset="574544" shape="1" size="4"/>
			<output>
				<port id="0" precision="FP32">
					<dim>1</dim>
				</port>
			</output>
		</layer>
		<layer id="197" name="LeakyRelu_229" type="PReLU" version="opset1">
			<input>
				<port id="0" precision="FP16">
					<dim>1</dim>
					<dim>128</dim>
					<dim>8832</dim>
				</port>
				<port id="1" precision="FP32">
					<dim>1</dim>
				</port>
			</input>
			<output>
				<port id="2" names="388" precision="FP16">
					<dim>1</dim>
					<dim>128</dim>
					<dim>8832</dim>
				</port>
			</output>
		</layer>
		<layer id="198" name="93025826" type="Const" version="opset1">
			<data element_type="i64" offset="18271388" shape="3" size="24"/>
			<output>
				<port id="0" precision="I64">
					<dim>3</dim>
				</port>
			</output>
		</layer>
		<layer id="199" name="930" type="Const" version="opset1">
			<data element_type="i64" offset="18271388" shape="3" size="24"/>
			<output>
				<port id="0" precision="I64">
					<dim>3</dim>
				</port>
			</output>
		</layer>
		<layer id="200" name="Constant_425" type="Const" version="opset1">
			<data element_type="f16" offset="78" shape="" size="2"/>
			<output>
				<port id="0" precision="FP16"/>
			</output>
		</layer>
		<layer id="201" name="Pad_248" type="Pad" version="opset1">
			<data pad_mode="reflect"/>
			<input>
				<port id="0" precision="FP16">
					<dim>1</dim>
					<dim>128</dim>
					<dim>8832</dim>
				</port>
				<port id="1" precision="I64">
					<dim>3</dim>
				</port>
				<port id="2" precision="I64">
					<dim>3</dim>
				</port>
				<port id="3" precision="FP16"/>
			</input>
			<output>
				<port id="4" names="411" precision="FP16">
					<dim>1</dim>
					<dim>128</dim>
					<dim>8834</dim>
				</port>
			</output>
		</layer>
		<layer id="202" name="Mul_251" type="Const" version="opset1">
			<data element_type="f16" offset="24535244" shape="128, 128, 3" size="98304"/>
			<output>
				<port id="0" names="414" precision="FP16">
					<dim>128</dim>
					<dim>128</dim>
					<dim>3</dim>
				</port>
			</output>
		</layer>
		<layer id="203" name="Conv_252/WithoutBiases" type="Convolution" version="opset1">
			<data auto_pad="explicit" dilations="1" pads_begin="0" pads_end="0" strides="1"/>
			<input>
				<port id="0" precision="FP16">
					<dim>1</dim>
					<dim>128</dim>
					<dim>8834</dim>
				</port>
				<port id="1" precision="FP16">
					<dim>128</dim>
					<dim>128</dim>
					<dim>3</dim>
				</port>
			</input>
			<output>
				<port id="2" precision="FP16">
					<dim>1</dim>
					<dim>128</dim>
					<dim>8832</dim>
				</port>
			</output>
		</layer>
		<layer id="204" name="Conv_252/Dims7473" type="Const" version="opset1">
			<data element_type="f16" offset="24633548" shape="1, 128, 1" size="256"/>
			<output>
				<port id="0" precision="FP16">
					<dim>1</dim>
					<dim>128</dim>
					<dim>1</dim>
				</port>
			</output>
		</layer>
		<layer id="205" name="Conv_252" type="Add" version="opset1">
			<data auto_broadcast="numpy"/>
			<input>
				<port id="0" precision="FP16">
					<dim>1</dim>
					<dim>128</dim>
					<dim>8832</dim>
				</port>
				<port id="1" precision="FP16">
					<dim>1</dim>
					<dim>128</dim>
					<dim>1</dim>
				</port>
			</input>
			<output>
				<port id="2" names="415" precision="FP16">
					<dim>1</dim>
					<dim>128</dim>
					<dim>8832</dim>
				</port>
			</output>
		</layer>
		<layer id="206" name="LeakyRelu_253/weights1972925835" type="Const" version="opset1">
			<data element_type="f32" offset="574544" shape="1" size="4"/>
			<output>
				<port id="0" precision="FP32">
					<dim>1</dim>
				</port>
			</output>
		</layer>
		<layer id="207" name="LeakyRelu_253" type="PReLU" version="opset1">
			<input>
				<port id="0" precision="FP16">
					<dim>1</dim>
					<dim>128</dim>
					<dim>8832</dim>
				</port>
				<port id="1" precision="FP32">
					<dim>1</dim>
				</port>
			</input>
			<output>
				<port id="2" names="416" precision="FP16">
					<dim>1</dim>
					<dim>128</dim>
					<dim>8832</dim>
				</port>
			</output>
		</layer>
		<layer id="208" name="Mul_256" type="Const" version="opset1">
			<data element_type="f16" offset="24633804" shape="128, 128, 1" size="32768"/>
			<output>
				<port id="0" names="419" precision="FP16">
					<dim>128</dim>
					<dim>128</dim>
					<dim>1</dim>
				</port>
			</output>
		</layer>
		<layer id="209" name="Conv_257/WithoutBiases" type="Convolution" version="opset1">
			<data auto_pad="explicit" dilations="1" pads_begin="0" pads_end="0" strides="1"/>
			<input>
				<port id="0" precision="FP16">
					<dim>1</dim>
					<dim>128</dim>
					<dim>8832</dim>
				</port>
				<port id="1" precision="FP16">
					<dim>128</dim>
					<dim>128</dim>
					<dim>1</dim>
				</port>
			</input>
			<output>
				<port id="2" precision="FP16">
					<dim>1</dim>
					<dim>128</dim>
					<dim>8832</dim>
				</port>
			</output>
		</layer>
		<layer id="210" name="Conv_257/Dims7629" type="Const" version="opset1">
			<data element_type="f16" offset="24666572" shape="1, 128, 1" size="256"/>
			<output>
				<port id="0" precision="FP16">
					<dim>1</dim>
					<dim>128</dim>
					<dim>1</dim>
				</port>
			</output>
		</layer>
		<layer id="211" name="Conv_257" type="Add" version="opset1">
			<data auto_broadcast="numpy"/>
			<input>
				<port id="0" precision="FP16">
					<dim>1</dim>
					<dim>128</dim>
					<dim>8832</dim>
				</port>
				<port id="1" precision="FP16">
					<dim>1</dim>
					<dim>128</dim>
					<dim>1</dim>
				</port>
			</input>
			<output>
				<port id="2" names="420" precision="FP16">
					<dim>1</dim>
					<dim>128</dim>
					<dim>8832</dim>
				</port>
			</output>
		</layer>
		<layer id="212" name="Add_258" type="Add" version="opset1">
			<data auto_broadcast="numpy"/>
			<input>
				<port id="0" precision="FP16">
					<dim>1</dim>
					<dim>128</dim>
					<dim>8832</dim>
				</port>
				<port id="1" precision="FP16">
					<dim>1</dim>
					<dim>128</dim>
					<dim>8832</dim>
				</port>
			</input>
			<output>
				<port id="2" names="421" precision="FP16">
					<dim>1</dim>
					<dim>128</dim>
					<dim>8832</dim>
				</port>
			</output>
		</layer>
		<layer id="213" name="Mul_261" type="Const" version="opset1">
			<data element_type="f16" offset="24666828" shape="128, 128, 1" size="32768"/>
			<output>
				<port id="0" names="424" precision="FP16">
					<dim>128</dim>
					<dim>128</dim>
					<dim>1</dim>
				</port>
			</output>
		</layer>
		<layer id="214" name="Conv_262/WithoutBiases" type="Convolution" version="opset1">
			<data auto_pad="explicit" dilations="1" pads_begin="0" pads_end="0" strides="1"/>
			<input>
				<port id="0" precision="FP16">
					<dim>1</dim>
					<dim>128</dim>
					<dim>8832</dim>
				</port>
				<port id="1" precision="FP16">
					<dim>128</dim>
					<dim>128</dim>
					<dim>1</dim>
				</port>
			</input>
			<output>
				<port id="2" precision="FP16">
					<dim>1</dim>
					<dim>128</dim>
					<dim>8832</dim>
				</port>
			</output>
		</layer>
		<layer id="215" name="Conv_262/Dims7467" type="Const" version="opset1">
			<data element_type="f16" offset="24699596" shape="1, 128, 1" size="256"/>
			<output>
				<port id="0" precision="FP16">
					<dim>1</dim>
					<dim>128</dim>
					<dim>1</dim>
				</port>
			</output>
		</layer>
		<layer id="216" name="Conv_262" type="Add" version="opset1">
			<data auto_broadcast="numpy"/>
			<input>
				<port id="0" precision="FP16">
					<dim>1</dim>
					<dim>128</dim>
					<dim>8832</dim>
				</port>
				<port id="1" precision="FP16">
					<dim>1</dim>
					<dim>128</dim>
					<dim>1</dim>
				</port>
			</input>
			<output>
				<port id="2" names="425" precision="FP16">
					<dim>1</dim>
					<dim>128</dim>
					<dim>8832</dim>
				</port>
			</output>
		</layer>
		<layer id="217" name="LeakyRelu_263/weights1974125892" type="Const" version="opset1">
			<data element_type="f32" offset="574544" shape="1" size="4"/>
			<output>
				<port id="0" precision="FP32">
					<dim>1</dim>
				</port>
			</output>
		</layer>
		<layer id="218" name="LeakyRelu_263" type="PReLU" version="opset1">
			<input>
				<port id="0" precision="FP16">
					<dim>1</dim>
					<dim>128</dim>
					<dim>8832</dim>
				</port>
				<port id="1" precision="FP32">
					<dim>1</dim>
				</port>
			</input>
			<output>
				<port id="2" names="426" precision="FP16">
					<dim>1</dim>
					<dim>128</dim>
					<dim>8832</dim>
				</port>
			</output>
		</layer>
		<layer id="219" name="909" type="Const" version="opset1">
			<data element_type="i64" offset="54" shape="3" size="24"/>
			<output>
				<port id="0" precision="I64">
					<dim>3</dim>
				</port>
			</output>
		</layer>
		<layer id="220" name="90926159" type="Const" version="opset1">
			<data element_type="i64" offset="54" shape="3" size="24"/>
			<output>
				<port id="0" precision="I64">
					<dim>3</dim>
				</port>
			</output>
		</layer>
		<layer id="221" name="Constant_466" type="Const" version="opset1">
			<data element_type="f16" offset="78" shape="" size="2"/>
			<output>
				<port id="0" precision="FP16"/>
			</output>
		</layer>
		<layer id="222" name="Pad_282" type="Pad" version="opset1">
			<data pad_mode="reflect"/>
			<input>
				<port id="0" precision="FP16">
					<dim>1</dim>
					<dim>128</dim>
					<dim>8832</dim>
				</port>
				<port id="1" precision="I64">
					<dim>3</dim>
				</port>
				<port id="2" precision="I64">
					<dim>3</dim>
				</port>
				<port id="3" precision="FP16"/>
			</input>
			<output>
				<port id="4" names="449" precision="FP16">
					<dim>1</dim>
					<dim>128</dim>
					<dim>8838</dim>
				</port>
			</output>
		</layer>
		<layer id="223" name="Mul_285" type="Const" version="opset1">
			<data element_type="f16" offset="24699852" shape="128, 128, 3" size="98304"/>
			<output>
				<port id="0" names="452" precision="FP16">
					<dim>128</dim>
					<dim>128</dim>
					<dim>3</dim>
				</port>
			</output>
		</layer>
		<layer id="224" name="Conv_286/WithoutBiases" type="Convolution" version="opset1">
			<data auto_pad="explicit" dilations="3" pads_begin="0" pads_end="0" strides="1"/>
			<input>
				<port id="0" precision="FP16">
					<dim>1</dim>
					<dim>128</dim>
					<dim>8838</dim>
				</port>
				<port id="1" precision="FP16">
					<dim>128</dim>
					<dim>128</dim>
					<dim>3</dim>
				</port>
			</input>
			<output>
				<port id="2" precision="FP16">
					<dim>1</dim>
					<dim>128</dim>
					<dim>8832</dim>
				</port>
			</output>
		</layer>
		<layer id="225" name="Conv_286/Dims7401" type="Const" version="opset1">
			<data element_type="f16" offset="24798156" shape="1, 128, 1" size="256"/>
			<output>
				<port id="0" precision="FP16">
					<dim>1</dim>
					<dim>128</dim>
					<dim>1</dim>
				</port>
			</output>
		</layer>
		<layer id="226" name="Conv_286" type="Add" version="opset1">
			<data auto_broadcast="numpy"/>
			<input>
				<port id="0" precision="FP16">
					<dim>1</dim>
					<dim>128</dim>
					<dim>8832</dim>
				</port>
				<port id="1" precision="FP16">
					<dim>1</dim>
					<dim>128</dim>
					<dim>1</dim>
				</port>
			</input>
			<output>
				<port id="2" names="453" precision="FP16">
					<dim>1</dim>
					<dim>128</dim>
					<dim>8832</dim>
				</port>
			</output>
		</layer>
		<layer id="227" name="LeakyRelu_287/weights1974525973" type="Const" version="opset1">
			<data element_type="f32" offset="574544" shape="1" size="4"/>
			<output>
				<port id="0" precision="FP32">
					<dim>1</dim>
				</port>
			</output>
		</layer>
		<layer id="228" name="LeakyRelu_287" type="PReLU" version="opset1">
			<input>
				<port id="0" precision="FP16">
					<dim>1</dim>
					<dim>128</dim>
					<dim>8832</dim>
				</port>
				<port id="1" precision="FP32">
					<dim>1</dim>
				</port>
			</input>
			<output>
				<port id="2" names="454" precision="FP16">
					<dim>1</dim>
					<dim>128</dim>
					<dim>8832</dim>
				</port>
			</output>
		</layer>
		<layer id="229" name="Mul_290" type="Const" version="opset1">
			<data element_type="f16" offset="24798412" shape="128, 128, 1" size="32768"/>
			<output>
				<port id="0" names="457" precision="FP16">
					<dim>128</dim>
					<dim>128</dim>
					<dim>1</dim>
				</port>
			</output>
		</layer>
		<layer id="230" name="Conv_291/WithoutBiases" type="Convolution" version="opset1">
			<data auto_pad="explicit" dilations="1" pads_begin="0" pads_end="0" strides="1"/>
			<input>
				<port id="0" precision="FP16">
					<dim>1</dim>
					<dim>128</dim>
					<dim>8832</dim>
				</port>
				<port id="1" precision="FP16">
					<dim>128</dim>
					<dim>128</dim>
					<dim>1</dim>
				</port>
			</input>
			<output>
				<port id="2" precision="FP16">
					<dim>1</dim>
					<dim>128</dim>
					<dim>8832</dim>
				</port>
			</output>
		</layer>
		<layer id="231" name="Conv_291/Dims7617" type="Const" version="opset1">
			<data element_type="f16" offset="24831180" shape="1, 128, 1" size="256"/>
			<output>
				<port id="0" precision="FP16">
					<dim>1</dim>
					<dim>128</dim>
					<dim>1</dim>
				</port>
			</output>
		</layer>
		<layer id="232" name="Conv_291" type="Add" version="opset1">
			<data auto_broadcast="numpy"/>
			<input>
				<port id="0" precision="FP16">
					<dim>1</dim>
					<dim>128</dim>
					<dim>8832</dim>
				</port>
				<port id="1" precision="FP16">
					<dim>1</dim>
					<dim>128</dim>
					<dim>1</dim>
				</port>
			</input>
			<output>
				<port id="2" names="458" precision="FP16">
					<dim>1</dim>
					<dim>128</dim>
					<dim>8832</dim>
				</port>
			</output>
		</layer>
		<layer id="233" name="Add_292" type="Add" version="opset1">
			<data auto_broadcast="numpy"/>
			<input>
				<port id="0" precision="FP16">
					<dim>1</dim>
					<dim>128</dim>
					<dim>8832</dim>
				</port>
				<port id="1" precision="FP16">
					<dim>1</dim>
					<dim>128</dim>
					<dim>8832</dim>
				</port>
			</input>
			<output>
				<port id="2" names="459" precision="FP16">
					<dim>1</dim>
					<dim>128</dim>
					<dim>8832</dim>
				</port>
			</output>
		</layer>
		<layer id="234" name="Mul_295" type="Const" version="opset1">
			<data element_type="f16" offset="24831436" shape="128, 128, 1" size="32768"/>
			<output>
				<port id="0" names="462" precision="FP16">
					<dim>128</dim>
					<dim>128</dim>
					<dim>1</dim>
				</port>
			</output>
		</layer>
		<layer id="235" name="Conv_296/WithoutBiases" type="Convolution" version="opset1">
			<data auto_pad="explicit" dilations="1" pads_begin="0" pads_end="0" strides="1"/>
			<input>
				<port id="0" precision="FP16">
					<dim>1</dim>
					<dim>128</dim>
					<dim>8832</dim>
				</port>
				<port id="1" precision="FP16">
					<dim>128</dim>
					<dim>128</dim>
					<dim>1</dim>
				</port>
			</input>
			<output>
				<port id="2" precision="FP16">
					<dim>1</dim>
					<dim>128</dim>
					<dim>8832</dim>
				</port>
			</output>
		</layer>
		<layer id="236" name="Conv_296/Dims7425" type="Const" version="opset1">
			<data element_type="f16" offset="24864204" shape="1, 128, 1" size="256"/>
			<output>
				<port id="0" precision="FP16">
					<dim>1</dim>
					<dim>128</dim>
					<dim>1</dim>
				</port>
			</output>
		</layer>
		<layer id="237" name="Conv_296" type="Add" version="opset1">
			<data auto_broadcast="numpy"/>
			<input>
				<port id="0" precision="FP16">
					<dim>1</dim>
					<dim>128</dim>
					<dim>8832</dim>
				</port>
				<port id="1" precision="FP16">
					<dim>1</dim>
					<dim>128</dim>
					<dim>1</dim>
				</port>
			</input>
			<output>
				<port id="2" names="463" precision="FP16">
					<dim>1</dim>
					<dim>128</dim>
					<dim>8832</dim>
				</port>
			</output>
		</layer>
		<layer id="238" name="LeakyRelu_297/weights1969725697" type="Const" version="opset1">
			<data element_type="f32" offset="574544" shape="1" size="4"/>
			<output>
				<port id="0" precision="FP32">
					<dim>1</dim>
				</port>
			</output>
		</layer>
		<layer id="239" name="LeakyRelu_297" type="PReLU" version="opset1">
			<input>
				<port id="0" precision="FP16">
					<dim>1</dim>
					<dim>128</dim>
					<dim>8832</dim>
				</port>
				<port id="1" precision="FP32">
					<dim>1</dim>
				</port>
			</input>
			<output>
				<port id="2" names="464" precision="FP16">
					<dim>1</dim>
					<dim>128</dim>
					<dim>8832</dim>
				</port>
			</output>
		</layer>
		<layer id="240" name="939" type="Const" version="opset1">
			<data element_type="i64" offset="19585204" shape="3" size="24"/>
			<output>
				<port id="0" precision="I64">
					<dim>3</dim>
				</port>
			</output>
		</layer>
		<layer id="241" name="93926147" type="Const" version="opset1">
			<data element_type="i64" offset="19585204" shape="3" size="24"/>
			<output>
				<port id="0" precision="I64">
					<dim>3</dim>
				</port>
			</output>
		</layer>
		<layer id="242" name="Constant_507" type="Const" version="opset1">
			<data element_type="f16" offset="78" shape="" size="2"/>
			<output>
				<port id="0" precision="FP16"/>
			</output>
		</layer>
		<layer id="243" name="Pad_316" type="Pad" version="opset1">
			<data pad_mode="reflect"/>
			<input>
				<port id="0" precision="FP16">
					<dim>1</dim>
					<dim>128</dim>
					<dim>8832</dim>
				</port>
				<port id="1" precision="I64">
					<dim>3</dim>
				</port>
				<port id="2" precision="I64">
					<dim>3</dim>
				</port>
				<port id="3" precision="FP16"/>
			</input>
			<output>
				<port id="4" names="487" precision="FP16">
					<dim>1</dim>
					<dim>128</dim>
					<dim>8850</dim>
				</port>
			</output>
		</layer>
		<layer id="244" name="Mul_319" type="Const" version="opset1">
			<data element_type="f16" offset="24864460" shape="128, 128, 3" size="98304"/>
			<output>
				<port id="0" names="490" precision="FP16">
					<dim>128</dim>
					<dim>128</dim>
					<dim>3</dim>
				</port>
			</output>
		</layer>
		<layer id="245" name="Conv_320/WithoutBiases" type="Convolution" version="opset1">
			<data auto_pad="explicit" dilations="9" pads_begin="0" pads_end="0" strides="1"/>
			<input>
				<port id="0" precision="FP16">
					<dim>1</dim>
					<dim>128</dim>
					<dim>8850</dim>
				</port>
				<port id="1" precision="FP16">
					<dim>128</dim>
					<dim>128</dim>
					<dim>3</dim>
				</port>
			</input>
			<output>
				<port id="2" precision="FP16">
					<dim>1</dim>
					<dim>128</dim>
					<dim>8832</dim>
				</port>
			</output>
		</layer>
		<layer id="246" name="Conv_320/Dims7641" type="Const" version="opset1">
			<data element_type="f16" offset="24962764" shape="1, 128, 1" size="256"/>
			<output>
				<port id="0" precision="FP16">
					<dim>1</dim>
					<dim>128</dim>
					<dim>1</dim>
				</port>
			</output>
		</layer>
		<layer id="247" name="Conv_320" type="Add" version="opset1">
			<data auto_broadcast="numpy"/>
			<input>
				<port id="0" precision="FP16">
					<dim>1</dim>
					<dim>128</dim>
					<dim>8832</dim>
				</port>
				<port id="1" precision="FP16">
					<dim>1</dim>
					<dim>128</dim>
					<dim>1</dim>
				</port>
			</input>
			<output>
				<port id="2" names="491" precision="FP16">
					<dim>1</dim>
					<dim>128</dim>
					<dim>8832</dim>
				</port>
			</output>
		</layer>
		<layer id="248" name="LeakyRelu_321/weights1976525745" type="Const" version="opset1">
			<data element_type="f32" offset="574544" shape="1" size="4"/>
			<output>
				<port id="0" precision="FP32">
					<dim>1</dim>
				</port>
			</output>
		</layer>
		<layer id="249" name="LeakyRelu_321" type="PReLU" version="opset1">
			<input>
				<port id="0" precision="FP16">
					<dim>1</dim>
					<dim>128</dim>
					<dim>8832</dim>
				</port>
				<port id="1" precision="FP32">
					<dim>1</dim>
				</port>
			</input>
			<output>
				<port id="2" names="492" precision="FP16">
					<dim>1</dim>
					<dim>128</dim>
					<dim>8832</dim>
				</port>
			</output>
		</layer>
		<layer id="250" name="Mul_324" type="Const" version="opset1">
			<data element_type="f16" offset="24963020" shape="128, 128, 1" size="32768"/>
			<output>
				<port id="0" names="495" precision="FP16">
					<dim>128</dim>
					<dim>128</dim>
					<dim>1</dim>
				</port>
			</output>
		</layer>
		<layer id="251" name="Conv_325/WithoutBiases" type="Convolution" version="opset1">
			<data auto_pad="explicit" dilations="1" pads_begin="0" pads_end="0" strides="1"/>
			<input>
				<port id="0" precision="FP16">
					<dim>1</dim>
					<dim>128</dim>
					<dim>8832</dim>
				</port>
				<port id="1" precision="FP16">
					<dim>128</dim>
					<dim>128</dim>
					<dim>1</dim>
				</port>
			</input>
			<output>
				<port id="2" precision="FP16">
					<dim>1</dim>
					<dim>128</dim>
					<dim>8832</dim>
				</port>
			</output>
		</layer>
		<layer id="252" name="Conv_325/Dims7563" type="Const" version="opset1">
			<data element_type="f16" offset="24995788" shape="1, 128, 1" size="256"/>
			<output>
				<port id="0" precision="FP16">
					<dim>1</dim>
					<dim>128</dim>
					<dim>1</dim>
				</port>
			</output>
		</layer>
		<layer id="253" name="Conv_325" type="Add" version="opset1">
			<data auto_broadcast="numpy"/>
			<input>
				<port id="0" precision="FP16">
					<dim>1</dim>
					<dim>128</dim>
					<dim>8832</dim>
				</port>
				<port id="1" precision="FP16">
					<dim>1</dim>
					<dim>128</dim>
					<dim>1</dim>
				</port>
			</input>
			<output>
				<port id="2" names="496" precision="FP16">
					<dim>1</dim>
					<dim>128</dim>
					<dim>8832</dim>
				</port>
			</output>
		</layer>
		<layer id="254" name="Add_326" type="Add" version="opset1">
			<data auto_broadcast="numpy"/>
			<input>
				<port id="0" precision="FP16">
					<dim>1</dim>
					<dim>128</dim>
					<dim>8832</dim>
				</port>
				<port id="1" precision="FP16">
					<dim>1</dim>
					<dim>128</dim>
					<dim>8832</dim>
				</port>
			</input>
			<output>
				<port id="2" names="497" precision="FP16">
					<dim>1</dim>
					<dim>128</dim>
					<dim>8832</dim>
				</port>
			</output>
		</layer>
		<layer id="255" name="LeakyRelu_327/weights1974925724" type="Const" version="opset1">
			<data element_type="f32" offset="574544" shape="1" size="4"/>
			<output>
				<port id="0" precision="FP32">
					<dim>1</dim>
				</port>
			</output>
		</layer>
		<layer id="256" name="LeakyRelu_327" type="PReLU" version="opset1">
			<input>
				<port id="0" precision="FP16">
					<dim>1</dim>
					<dim>128</dim>
					<dim>8832</dim>
				</port>
				<port id="1" precision="FP32">
					<dim>1</dim>
				</port>
			</input>
			<output>
				<port id="2" names="498" precision="FP16">
					<dim>1</dim>
					<dim>128</dim>
					<dim>8832</dim>
				</port>
			</output>
		</layer>
		<layer id="257" name="Mul_330" type="Const" version="opset1">
			<data element_type="f16" offset="24996044" shape="128, 128, 5" size="163840"/>
			<output>
				<port id="0" names="501" precision="FP16">
					<dim>128</dim>
					<dim>128</dim>
					<dim>5</dim>
				</port>
			</output>
		</layer>
		<layer id="258" name="Conv_331/WithoutBiases" type="Convolution" version="opset1">
			<data auto_pad="explicit" dilations="1" pads_begin="2" pads_end="2" strides="1"/>
			<input>
				<port id="0" precision="FP16">
					<dim>1</dim>
					<dim>128</dim>
					<dim>8832</dim>
				</port>
				<port id="1" precision="FP16">
					<dim>128</dim>
					<dim>128</dim>
					<dim>5</dim>
				</port>
			</input>
			<output>
				<port id="2" precision="FP16">
					<dim>1</dim>
					<dim>128</dim>
					<dim>8832</dim>
				</port>
			</output>
		</layer>
		<layer id="259" name="Conv_331/Dims7623" type="Const" version="opset1">
			<data element_type="f16" offset="25159884" shape="1, 128, 1" size="256"/>
			<output>
				<port id="0" precision="FP16">
					<dim>1</dim>
					<dim>128</dim>
					<dim>1</dim>
				</port>
			</output>
		</layer>
		<layer id="260" name="Conv_331" type="Add" version="opset1">
			<data auto_broadcast="numpy"/>
			<input>
				<port id="0" precision="FP16">
					<dim>1</dim>
					<dim>128</dim>
					<dim>8832</dim>
				</port>
				<port id="1" precision="FP16">
					<dim>1</dim>
					<dim>128</dim>
					<dim>1</dim>
				</port>
			</input>
			<output>
				<port id="2" names="502" precision="FP16">
					<dim>1</dim>
					<dim>128</dim>
					<dim>8832</dim>
				</port>
			</output>
		</layer>
		<layer id="261" name="Unsqueeze_332/Dims" type="Const" version="opset1">
			<data element_type="i64" offset="9488468" shape="1" size="8"/>
			<output>
				<port id="0" precision="I64">
					<dim>1</dim>
				</port>
			</output>
		</layer>
		<layer id="262" name="Unsqueeze_332/Unsqueeze" type="Unsqueeze" version="opset1">
			<input>
				<port id="0" precision="FP16">
					<dim>1</dim>
					<dim>128</dim>
					<dim>8832</dim>
				</port>
				<port id="1" precision="I64">
					<dim>1</dim>
				</port>
			</input>
			<output>
				<port id="2" names="503" precision="FP16">
					<dim>1</dim>
					<dim>128</dim>
					<dim>8832</dim>
					<dim>1</dim>
				</port>
			</output>
		</layer>
		<layer id="263" name="Shape_351" type="ShapeOf" version="opset3">
			<data output_type="i64"/>
			<input>
				<port id="0" precision="FP16">
					<dim>1</dim>
					<dim>128</dim>
					<dim>8832</dim>
					<dim>1</dim>
				</port>
			</input>
			<output>
				<port id="1" names="522" precision="I64">
					<dim>4</dim>
				</port>
			</output>
		</layer>
		<layer id="264" name="Slice_355/Concat845926141" type="Const" version="opset1">
			<data element_type="i64" offset="9488476" shape="1" size="8"/>
			<output>
				<port id="0" precision="I64">
					<dim>1</dim>
				</port>
			</output>
		</layer>
		<layer id="265" name="Slice_355/Concat8449846025748" type="Const" version="opset1">
			<data element_type="i64" offset="9488484" shape="1" size="8"/>
			<output>
				<port id="0" precision="I64">
					<dim>1</dim>
				</port>
			</output>
		</layer>
		<layer id="266" name="Slice_355/Strides846126129" type="Const" version="opset1">
			<data element_type="i64" offset="9488492" shape="1" size="8"/>
			<output>
				<port id="0" precision="I64">
					<dim>1</dim>
				</port>
			</output>
		</layer>
		<layer id="267" name="Slice_355" type="StridedSlice" version="opset1">
			<data begin_mask="0" ellipsis_mask="0" end_mask="0" new_axis_mask="0" shrink_axis_mask="0"/>
			<input>
				<port id="0" precision="I64">
					<dim>4</dim>
				</port>
				<port id="1" precision="I64">
					<dim>1</dim>
				</port>
				<port id="2" precision="I64">
					<dim>1</dim>
				</port>
				<port id="3" precision="I64">
					<dim>1</dim>
				</port>
			</input>
			<output>
				<port id="4" names="526" precision="I64">
					<dim>2</dim>
				</port>
			</output>
		</layer>
		<layer id="268" name="Shape_333" type="ShapeOf" version="opset3">
			<data output_type="i64"/>
			<input>
				<port id="0" precision="FP16">
					<dim>1</dim>
					<dim>128</dim>
					<dim>8832</dim>
					<dim>1</dim>
				</port>
			</input>
			<output>
				<port id="1" names="504" precision="I64">
					<dim>4</dim>
				</port>
			</output>
		</layer>
		<layer id="269" name="Constant_334" type="Const" version="opset1">
			<data element_type="i32" offset="9488500" shape="" size="4"/>
			<output>
				<port id="0" names="505" precision="I32"/>
			</output>
		</layer>
		<layer id="270" name="Gather_335/axis" type="Const" version="opset1">
			<data element_type="i64" offset="9488476" shape="" size="8"/>
			<output>
				<port id="0" precision="I64"/>
			</output>
		</layer>
		<layer id="271" name="Gather_3351001" type="Gather" version="opset7">
			<data batch_dims="0"/>
			<input>
				<port id="0" precision="I64">
					<dim>4</dim>
				</port>
				<port id="1" precision="I32"/>
				<port id="2" precision="I64"/>
			</input>
			<output>
				<port id="3" names="506" precision="I64"/>
			</output>
		</layer>
		<layer id="272" name="Cast_336" type="Convert" version="opset1">
			<data destination_type="f32"/>
			<input>
				<port id="0" precision="I64"/>
			</input>
			<output>
				<port id="1" names="507" precision="FP32"/>
			</output>
		</layer>
		<layer id="273" name="Constant_337" type="Const" version="opset1">
			<data element_type="f32" offset="25160140" shape="" size="4"/>
			<output>
				<port id="0" names="508" precision="FP32"/>
			</output>
		</layer>
		<layer id="274" name="Mul_338" type="Multiply" version="opset1">
			<data auto_broadcast="numpy"/>
			<input>
				<port id="0" precision="FP32"/>
				<port id="1" precision="FP32"/>
			</input>
			<output>
				<port id="2" names="509,510" precision="FP32"/>
			</output>
		</layer>
		<layer id="275" name="Floor_340" type="Floor" version="opset1">
			<input>
				<port id="0" precision="FP32"/>
			</input>
			<output>
				<port id="1" names="511" precision="FP32"/>
			</output>
		</layer>
		<layer id="276" name="Unsqueeze_347/Dims" type="Const" version="opset1">
			<data element_type="i64" offset="9488476" shape="1" size="8"/>
			<output>
				<port id="0" precision="I64">
					<dim>1</dim>
				</port>
			</output>
		</layer>
		<layer id="277" name="Unsqueeze_347/Unsqueeze" type="Unsqueeze" version="opset1">
			<input>
				<port id="0" precision="FP32"/>
				<port id="1" precision="I64">
					<dim>1</dim>
				</port>
			</input>
			<output>
				<port id="2" names="518" precision="FP32">
					<dim>1</dim>
				</port>
			</output>
		</layer>
		<layer id="278" name="Shape_341" type="ShapeOf" version="opset3">
			<data output_type="i64"/>
			<input>
				<port id="0" precision="FP16">
					<dim>1</dim>
					<dim>128</dim>
					<dim>8832</dim>
					<dim>1</dim>
				</port>
			</input>
			<output>
				<port id="1" names="512" precision="I64">
					<dim>4</dim>
				</port>
			</output>
		</layer>
		<layer id="279" name="Constant_342" type="Const" version="opset1">
			<data element_type="i32" offset="9488508" shape="" size="4"/>
			<output>
				<port id="0" names="513" precision="I32"/>
			</output>
		</layer>
		<layer id="280" name="Gather_343/axis" type="Const" version="opset1">
			<data element_type="i64" offset="9488476" shape="" size="8"/>
			<output>
				<port id="0" precision="I64"/>
			</output>
		</layer>
		<layer id="281" name="Gather_343991" type="Gather" version="opset7">
			<data batch_dims="0"/>
			<input>
				<port id="0" precision="I64">
					<dim>4</dim>
				</port>
				<port id="1" precision="I32"/>
				<port id="2" precision="I64"/>
			</input>
			<output>
				<port id="3" names="514" precision="I64"/>
			</output>
		</layer>
		<layer id="282" name="Cast_344" type="Convert" version="opset1">
			<data destination_type="f32"/>
			<input>
				<port id="0" precision="I64"/>
			</input>
			<output>
				<port id="1" names="515,516" precision="FP32"/>
			</output>
		</layer>
		<layer id="283" name="Floor_346" type="Floor" version="opset1">
			<input>
				<port id="0" precision="FP32"/>
			</input>
			<output>
				<port id="1" names="517" precision="FP32"/>
			</output>
		</layer>
		<layer id="284" name="Unsqueeze_348/Dims" type="Const" version="opset1">
			<data element_type="i64" offset="9488476" shape="1" size="8"/>
			<output>
				<port id="0" precision="I64">
					<dim>1</dim>
				</port>
			</output>
		</layer>
		<layer id="285" name="Unsqueeze_348/Unsqueeze" type="Unsqueeze" version="opset1">
			<input>
				<port id="0" precision="FP32"/>
				<port id="1" precision="I64">
					<dim>1</dim>
				</port>
			</input>
			<output>
				<port id="2" names="519" precision="FP32">
					<dim>1</dim>
				</port>
			</output>
		</layer>
		<layer id="286" name="Concat_349" type="Concat" version="opset1">
			<data axis="0"/>
			<input>
				<port id="0" precision="FP32">
					<dim>1</dim>
				</port>
				<port id="1" precision="FP32">
					<dim>1</dim>
				</port>
			</input>
			<output>
				<port id="2" names="520" precision="FP32">
					<dim>2</dim>
				</port>
			</output>
		</layer>
		<layer id="287" name="Cast_356" type="Convert" version="opset1">
			<data destination_type="i64"/>
			<input>
				<port id="0" precision="FP32">
					<dim>2</dim>
				</port>
			</input>
			<output>
				<port id="1" names="527" precision="I64">
					<dim>2</dim>
				</port>
			</output>
		</layer>
		<layer id="288" name="Concat_357" type="Concat" version="opset1">
			<data axis="0"/>
			<input>
				<port id="0" precision="I64">
					<dim>2</dim>
				</port>
				<port id="1" precision="I64">
					<dim>2</dim>
				</port>
			</input>
			<output>
				<port id="2" names="528" precision="I64">
					<dim>4</dim>
				</port>
			</output>
		</layer>
		<layer id="289" name="Resize_359/StridedSlice_sizes_input_port_1/value612525652" type="Const" version="opset1">
			<data element_type="i64" offset="9488484" shape="1" size="8"/>
			<output>
				<port id="0" precision="I64">
					<dim>1</dim>
				</port>
			</output>
		</layer>
		<layer id="290" name="Resize_359/StridedSlice_sizes_input_port_2/value612725787" type="Const" version="opset1">
			<data element_type="i64" offset="9488512" shape="1" size="8"/>
			<output>
				<port id="0" precision="I64">
					<dim>1</dim>
				</port>
			</output>
		</layer>
		<layer id="291" name="Resize_359/StridedSlice_sizes_input_port_3/value612926180" type="Const" version="opset1">
			<data element_type="i64" offset="9488492" shape="1" size="8"/>
			<output>
				<port id="0" precision="I64">
					<dim>1</dim>
				</port>
			</output>
		</layer>
		<layer id="292" name="Resize_359/StridedSlice_sizes" type="StridedSlice" version="opset1">
			<data begin_mask="0" ellipsis_mask="0" end_mask="0" new_axis_mask="0" shrink_axis_mask="0"/>
			<input>
				<port id="0" precision="I64">
					<dim>4</dim>
				</port>
				<port id="1" precision="I64">
					<dim>1</dim>
				</port>
				<port id="2" precision="I64">
					<dim>1</dim>
				</port>
				<port id="3" precision="I64">
					<dim>1</dim>
				</port>
			</input>
			<output>
				<port id="4" precision="I64">
					<dim>2</dim>
				</port>
			</output>
		</layer>
		<layer id="293" name="6145" type="Convert" version="opset1">
			<data destination_type="f32"/>
			<input>
				<port id="0" precision="I64">
					<dim>4</dim>
				</port>
			</input>
			<output>
				<port id="1" precision="FP32">
					<dim>4</dim>
				</port>
			</output>
		</layer>
		<layer id="294" name="Resize_359/ShapeOf" type="ShapeOf" version="opset3">
			<data output_type="i64"/>
			<input>
				<port id="0" precision="FP16">
					<dim>1</dim>
					<dim>128</dim>
					<dim>8832</dim>
					<dim>1</dim>
				</port>
			</input>
			<output>
				<port id="1" precision="I64">
					<dim>4</dim>
				</port>
			</output>
		</layer>
		<layer id="295" name="6144" type="Convert" version="opset1">
			<data destination_type="f32"/>
			<input>
				<port id="0" precision="I64">
					<dim>4</dim>
				</port>
			</input>
			<output>
				<port id="1" precision="FP32">
					<dim>4</dim>
				</port>
			</output>
		</layer>
		<layer id="296" name="Resize_359/Div" type="Divide" version="opset1">
			<data auto_broadcast="numpy" m_pythondiv="true"/>
			<input>
				<port id="0" precision="FP32">
					<dim>4</dim>
				</port>
				<port id="1" precision="FP32">
					<dim>4</dim>
				</port>
			</input>
			<output>
				<port id="2" precision="FP32">
					<dim>4</dim>
				</port>
			</output>
		</layer>
		<layer id="297" name="Resize_359/Add_input_port_1/value614326222" type="Const" version="opset1">
			<data element_type="f32" offset="9488520" shape="1" size="4"/>
			<output>
				<port id="0" precision="FP32">
					<dim>1</dim>
				</port>
			</output>
		</layer>
		<layer id="298" name="Resize_359/Add" type="Add" version="opset1">
			<data auto_broadcast="numpy"/>
			<input>
				<port id="0" precision="FP32">
					<dim>4</dim>
				</port>
				<port id="1" precision="FP32">
					<dim>1</dim>
				</port>
			</input>
			<output>
				<port id="2" precision="FP32">
					<dim>4</dim>
				</port>
			</output>
		</layer>
		<layer id="299" name="Resize_359/StridedSlice_scales_input_port_1/value613225862" type="Const" version="opset1">
			<data element_type="i64" offset="9488484" shape="1" size="8"/>
			<output>
				<port id="0" precision="I64">
					<dim>1</dim>
				</port>
			</output>
		</layer>
		<layer id="300" name="Resize_359/StridedSlice_scales_input_port_2/value613425634" type="Const" version="opset1">
			<data element_type="i64" offset="9488512" shape="1" size="8"/>
			<output>
				<port id="0" precision="I64">
					<dim>1</dim>
				</port>
			</output>
		</layer>
		<layer id="301" name="Resize_359/StridedSlice_scales_input_port_3/value613626240" type="Const" version="opset1">
			<data element_type="i64" offset="9488492" shape="1" size="8"/>
			<output>
				<port id="0" precision="I64">
					<dim>1</dim>
				</port>
			</output>
		</layer>
		<layer id="302" name="Resize_359/StridedSlice_scales" type="StridedSlice" version="opset1">
			<data begin_mask="0" ellipsis_mask="0" end_mask="0" new_axis_mask="0" shrink_axis_mask="0"/>
			<input>
				<port id="0" precision="FP32">
					<dim>4</dim>
				</port>
				<port id="1" precision="I64">
					<dim>1</dim>
				</port>
				<port id="2" precision="I64">
					<dim>1</dim>
				</port>
				<port id="3" precision="I64">
					<dim>1</dim>
				</port>
			</input>
			<output>
				<port id="4" precision="FP32">
					<dim>2</dim>
				</port>
			</output>
		</layer>
		<layer id="303" name="Resize_359/axis613925640" type="Const" version="opset1">
			<data element_type="i64" offset="9488524" shape="2" size="16"/>
			<output>
				<port id="0" precision="I64">
					<dim>2</dim>
				</port>
			</output>
		</layer>
		<layer id="304" name="Resize_359" type="Interpolate" version="opset4">
			<data antialias="false" coordinate_transformation_mode="asymmetric" cube_coeff="-0.75" mode="nearest" nearest_mode="floor" pads_begin="0, 0, 0, 0" pads_end="0, 0, 0, 0" shape_calculation_mode="sizes"/>
			<input>
				<port id="0" precision="FP16">
					<dim>1</dim>
					<dim>128</dim>
					<dim>8832</dim>
					<dim>1</dim>
				</port>
				<port id="1" precision="I64">
					<dim>2</dim>
				</port>
				<port id="2" precision="FP32">
					<dim>2</dim>
				</port>
				<port id="3" precision="I64">
					<dim>2</dim>
				</port>
			</input>
			<output>
				<port id="4" names="530" precision="FP16">
					<dim>1</dim>
					<dim>128</dim>
					<dim>17664</dim>
					<dim>1</dim>
				</port>
			</output>
		</layer>
		<layer id="305" name="Squeeze_360/Dims" type="Const" version="opset1">
			<data element_type="i64" offset="9488468" shape="1" size="8"/>
			<output>
				<port id="0" precision="I64">
					<dim>1</dim>
				</port>
			</output>
		</layer>
		<layer id="306" name="Squeeze_360" type="Squeeze" version="opset1">
			<input>
				<port id="0" precision="FP16">
					<dim>1</dim>
					<dim>128</dim>
					<dim>17664</dim>
					<dim>1</dim>
				</port>
				<port id="1" precision="I64">
					<dim>1</dim>
				</port>
			</input>
			<output>
				<port id="2" names="531" precision="FP16">
					<dim>1</dim>
					<dim>128</dim>
					<dim>17664</dim>
				</port>
			</output>
		</layer>
		<layer id="307" name="Mul_363" type="Const" version="opset1">
			<data element_type="f16" offset="25160144" shape="64, 128, 9" size="147456"/>
			<output>
				<port id="0" names="534" precision="FP16">
					<dim>64</dim>
					<dim>128</dim>
					<dim>9</dim>
				</port>
			</output>
		</layer>
		<layer id="308" name="Conv_364/WithoutBiases" type="Convolution" version="opset1">
			<data auto_pad="explicit" dilations="1" pads_begin="4" pads_end="4" strides="1"/>
			<input>
				<port id="0" precision="FP16">
					<dim>1</dim>
					<dim>128</dim>
					<dim>17664</dim>
				</port>
				<port id="1" precision="FP16">
					<dim>64</dim>
					<dim>128</dim>
					<dim>9</dim>
				</port>
			</input>
			<output>
				<port id="2" precision="FP16">
					<dim>1</dim>
					<dim>64</dim>
					<dim>17664</dim>
				</port>
			</output>
		</layer>
		<layer id="309" name="Conv_364/Dims7419" type="Const" version="opset1">
			<data element_type="f16" offset="25307600" shape="1, 64, 1" size="128"/>
			<output>
				<port id="0" precision="FP16">
					<dim>1</dim>
					<dim>64</dim>
					<dim>1</dim>
				</port>
			</output>
		</layer>
		<layer id="310" name="Conv_364" type="Add" version="opset1">
			<data auto_broadcast="numpy"/>
			<input>
				<port id="0" precision="FP16">
					<dim>1</dim>
					<dim>64</dim>
					<dim>17664</dim>
				</port>
				<port id="1" precision="FP16">
					<dim>1</dim>
					<dim>64</dim>
					<dim>1</dim>
				</port>
			</input>
			<output>
				<port id="2" names="535" precision="FP16">
					<dim>1</dim>
					<dim>64</dim>
					<dim>17664</dim>
				</port>
			</output>
		</layer>
		<layer id="311" name="Mul_367" type="Const" version="opset1">
			<data element_type="f16" offset="25307728" shape="64, 64, 1" size="8192"/>
			<output>
				<port id="0" names="538" precision="FP16">
					<dim>64</dim>
					<dim>64</dim>
					<dim>1</dim>
				</port>
			</output>
		</layer>
		<layer id="312" name="Conv_368/WithoutBiases" type="Convolution" version="opset1">
			<data auto_pad="explicit" dilations="1" pads_begin="0" pads_end="0" strides="1"/>
			<input>
				<port id="0" precision="FP16">
					<dim>1</dim>
					<dim>64</dim>
					<dim>17664</dim>
				</port>
				<port id="1" precision="FP16">
					<dim>64</dim>
					<dim>64</dim>
					<dim>1</dim>
				</port>
			</input>
			<output>
				<port id="2" precision="FP16">
					<dim>1</dim>
					<dim>64</dim>
					<dim>17664</dim>
				</port>
			</output>
		</layer>
		<layer id="313" name="Conv_368/Dims7395" type="Const" version="opset1">
			<data element_type="f16" offset="25315920" shape="1, 64, 1" size="128"/>
			<output>
				<port id="0" precision="FP16">
					<dim>1</dim>
					<dim>64</dim>
					<dim>1</dim>
				</port>
			</output>
		</layer>
		<layer id="314" name="Conv_368" type="Add" version="opset1">
			<data auto_broadcast="numpy"/>
			<input>
				<port id="0" precision="FP16">
					<dim>1</dim>
					<dim>64</dim>
					<dim>17664</dim>
				</port>
				<port id="1" precision="FP16">
					<dim>1</dim>
					<dim>64</dim>
					<dim>1</dim>
				</port>
			</input>
			<output>
				<port id="2" names="539" precision="FP16">
					<dim>1</dim>
					<dim>64</dim>
					<dim>17664</dim>
				</port>
			</output>
		</layer>
		<layer id="315" name="LeakyRelu_369/weights1977326039" type="Const" version="opset1">
			<data element_type="f32" offset="574544" shape="1" size="4"/>
			<output>
				<port id="0" precision="FP32">
					<dim>1</dim>
				</port>
			</output>
		</layer>
		<layer id="316" name="LeakyRelu_369" type="PReLU" version="opset1">
			<input>
				<port id="0" precision="FP16">
					<dim>1</dim>
					<dim>64</dim>
					<dim>17664</dim>
				</port>
				<port id="1" precision="FP32">
					<dim>1</dim>
				</port>
			</input>
			<output>
				<port id="2" names="540" precision="FP16">
					<dim>1</dim>
					<dim>64</dim>
					<dim>17664</dim>
				</port>
			</output>
		</layer>
		<layer id="317" name="91226111" type="Const" version="opset1">
			<data element_type="i64" offset="18271388" shape="3" size="24"/>
			<output>
				<port id="0" precision="I64">
					<dim>3</dim>
				</port>
			</output>
		</layer>
		<layer id="318" name="912" type="Const" version="opset1">
			<data element_type="i64" offset="18271388" shape="3" size="24"/>
			<output>
				<port id="0" precision="I64">
					<dim>3</dim>
				</port>
			</output>
		</layer>
		<layer id="319" name="Constant_674" type="Const" version="opset1">
			<data element_type="f16" offset="78" shape="" size="2"/>
			<output>
				<port id="0" precision="FP16"/>
			</output>
		</layer>
		<layer id="320" name="Pad_388" type="Pad" version="opset1">
			<data pad_mode="reflect"/>
			<input>
				<port id="0" precision="FP16">
					<dim>1</dim>
					<dim>64</dim>
					<dim>17664</dim>
				</port>
				<port id="1" precision="I64">
					<dim>3</dim>
				</port>
				<port id="2" precision="I64">
					<dim>3</dim>
				</port>
				<port id="3" precision="FP16"/>
			</input>
			<output>
				<port id="4" names="563" precision="FP16">
					<dim>1</dim>
					<dim>64</dim>
					<dim>17666</dim>
				</port>
			</output>
		</layer>
		<layer id="321" name="Mul_391" type="Const" version="opset1">
			<data element_type="f16" offset="25316048" shape="64, 64, 3" size="24576"/>
			<output>
				<port id="0" names="566" precision="FP16">
					<dim>64</dim>
					<dim>64</dim>
					<dim>3</dim>
				</port>
			</output>
		</layer>
		<layer id="322" name="Conv_392/WithoutBiases" type="Convolution" version="opset1">
			<data auto_pad="explicit" dilations="1" pads_begin="0" pads_end="0" strides="1"/>
			<input>
				<port id="0" precision="FP16">
					<dim>1</dim>
					<dim>64</dim>
					<dim>17666</dim>
				</port>
				<port id="1" precision="FP16">
					<dim>64</dim>
					<dim>64</dim>
					<dim>3</dim>
				</port>
			</input>
			<output>
				<port id="2" precision="FP16">
					<dim>1</dim>
					<dim>64</dim>
					<dim>17664</dim>
				</port>
			</output>
		</layer>
		<layer id="323" name="Conv_392/Dims7413" type="Const" version="opset1">
			<data element_type="f16" offset="25340624" shape="1, 64, 1" size="128"/>
			<output>
				<port id="0" precision="FP16">
					<dim>1</dim>
					<dim>64</dim>
					<dim>1</dim>
				</port>
			</output>
		</layer>
		<layer id="324" name="Conv_392" type="Add" version="opset1">
			<data auto_broadcast="numpy"/>
			<input>
				<port id="0" precision="FP16">
					<dim>1</dim>
					<dim>64</dim>
					<dim>17664</dim>
				</port>
				<port id="1" precision="FP16">
					<dim>1</dim>
					<dim>64</dim>
					<dim>1</dim>
				</port>
			</input>
			<output>
				<port id="2" names="567" precision="FP16">
					<dim>1</dim>
					<dim>64</dim>
					<dim>17664</dim>
				</port>
			</output>
		</layer>
		<layer id="325" name="LeakyRelu_393/weights1970525910" type="Const" version="opset1">
			<data element_type="f32" offset="574544" shape="1" size="4"/>
			<output>
				<port id="0" precision="FP32">
					<dim>1</dim>
				</port>
			</output>
		</layer>
		<layer id="326" name="LeakyRelu_393" type="PReLU" version="opset1">
			<input>
				<port id="0" precision="FP16">
					<dim>1</dim>
					<dim>64</dim>
					<dim>17664</dim>
				</port>
				<port id="1" precision="FP32">
					<dim>1</dim>
				</port>
			</input>
			<output>
				<port id="2" names="568" precision="FP16">
					<dim>1</dim>
					<dim>64</dim>
					<dim>17664</dim>
				</port>
			</output>
		</layer>
		<layer id="327" name="Mul_396" type="Const" version="opset1">
			<data element_type="f16" offset="25340752" shape="64, 64, 1" size="8192"/>
			<output>
				<port id="0" names="571" precision="FP16">
					<dim>64</dim>
					<dim>64</dim>
					<dim>1</dim>
				</port>
			</output>
		</layer>
		<layer id="328" name="Conv_397/WithoutBiases" type="Convolution" version="opset1">
			<data auto_pad="explicit" dilations="1" pads_begin="0" pads_end="0" strides="1"/>
			<input>
				<port id="0" precision="FP16">
					<dim>1</dim>
					<dim>64</dim>
					<dim>17664</dim>
				</port>
				<port id="1" precision="FP16">
					<dim>64</dim>
					<dim>64</dim>
					<dim>1</dim>
				</port>
			</input>
			<output>
				<port id="2" precision="FP16">
					<dim>1</dim>
					<dim>64</dim>
					<dim>17664</dim>
				</port>
			</output>
		</layer>
		<layer id="329" name="Conv_397/Dims7587" type="Const" version="opset1">
			<data element_type="f16" offset="25348944" shape="1, 64, 1" size="128"/>
			<output>
				<port id="0" precision="FP16">
					<dim>1</dim>
					<dim>64</dim>
					<dim>1</dim>
				</port>
			</output>
		</layer>
		<layer id="330" name="Conv_397" type="Add" version="opset1">
			<data auto_broadcast="numpy"/>
			<input>
				<port id="0" precision="FP16">
					<dim>1</dim>
					<dim>64</dim>
					<dim>17664</dim>
				</port>
				<port id="1" precision="FP16">
					<dim>1</dim>
					<dim>64</dim>
					<dim>1</dim>
				</port>
			</input>
			<output>
				<port id="2" names="572" precision="FP16">
					<dim>1</dim>
					<dim>64</dim>
					<dim>17664</dim>
				</port>
			</output>
		</layer>
		<layer id="331" name="Add_398" type="Add" version="opset1">
			<data auto_broadcast="numpy"/>
			<input>
				<port id="0" precision="FP16">
					<dim>1</dim>
					<dim>64</dim>
					<dim>17664</dim>
				</port>
				<port id="1" precision="FP16">
					<dim>1</dim>
					<dim>64</dim>
					<dim>17664</dim>
				</port>
			</input>
			<output>
				<port id="2" names="573" precision="FP16">
					<dim>1</dim>
					<dim>64</dim>
					<dim>17664</dim>
				</port>
			</output>
		</layer>
		<layer id="332" name="Mul_401" type="Const" version="opset1">
			<data element_type="f16" offset="25349072" shape="64, 64, 1" size="8192"/>
			<output>
				<port id="0" names="576" precision="FP16">
					<dim>64</dim>
					<dim>64</dim>
					<dim>1</dim>
				</port>
			</output>
		</layer>
		<layer id="333" name="Conv_402/WithoutBiases" type="Convolution" version="opset1">
			<data auto_pad="explicit" dilations="1" pads_begin="0" pads_end="0" strides="1"/>
			<input>
				<port id="0" precision="FP16">
					<dim>1</dim>
					<dim>64</dim>
					<dim>17664</dim>
				</port>
				<port id="1" precision="FP16">
					<dim>64</dim>
					<dim>64</dim>
					<dim>1</dim>
				</port>
			</input>
			<output>
				<port id="2" precision="FP16">
					<dim>1</dim>
					<dim>64</dim>
					<dim>17664</dim>
				</port>
			</output>
		</layer>
		<layer id="334" name="Conv_402/Dims7371" type="Const" version="opset1">
			<data element_type="f16" offset="25357264" shape="1, 64, 1" size="128"/>
			<output>
				<port id="0" precision="FP16">
					<dim>1</dim>
					<dim>64</dim>
					<dim>1</dim>
				</port>
			</output>
		</layer>
		<layer id="335" name="Conv_402" type="Add" version="opset1">
			<data auto_broadcast="numpy"/>
			<input>
				<port id="0" precision="FP16">
					<dim>1</dim>
					<dim>64</dim>
					<dim>17664</dim>
				</port>
				<port id="1" precision="FP16">
					<dim>1</dim>
					<dim>64</dim>
					<dim>1</dim>
				</port>
			</input>
			<output>
				<port id="2" names="577" precision="FP16">
					<dim>1</dim>
					<dim>64</dim>
					<dim>17664</dim>
				</port>
			</output>
		</layer>
		<layer id="336" name="LeakyRelu_403/weights1968926087" type="Const" version="opset1">
			<data element_type="f32" offset="574544" shape="1" size="4"/>
			<output>
				<port id="0" precision="FP32">
					<dim>1</dim>
				</port>
			</output>
		</layer>
		<layer id="337" name="LeakyRelu_403" type="PReLU" version="opset1">
			<input>
				<port id="0" precision="FP16">
					<dim>1</dim>
					<dim>64</dim>
					<dim>17664</dim>
				</port>
				<port id="1" precision="FP32">
					<dim>1</dim>
				</port>
			</input>
			<output>
				<port id="2" names="578" precision="FP16">
					<dim>1</dim>
					<dim>64</dim>
					<dim>17664</dim>
				</port>
			</output>
		</layer>
		<layer id="338" name="918" type="Const" version="opset1">
			<data element_type="i64" offset="54" shape="3" size="24"/>
			<output>
				<port id="0" precision="I64">
					<dim>3</dim>
				</port>
			</output>
		</layer>
		<layer id="339" name="91825922" type="Const" version="opset1">
			<data element_type="i64" offset="54" shape="3" size="24"/>
			<output>
				<port id="0" precision="I64">
					<dim>3</dim>
				</port>
			</output>
		</layer>
		<layer id="340" name="Constant_715" type="Const" version="opset1">
			<data element_type="f16" offset="78" shape="" size="2"/>
			<output>
				<port id="0" precision="FP16"/>
			</output>
		</layer>
		<layer id="341" name="Pad_422" type="Pad" version="opset1">
			<data pad_mode="reflect"/>
			<input>
				<port id="0" precision="FP16">
					<dim>1</dim>
					<dim>64</dim>
					<dim>17664</dim>
				</port>
				<port id="1" precision="I64">
					<dim>3</dim>
				</port>
				<port id="2" precision="I64">
					<dim>3</dim>
				</port>
				<port id="3" precision="FP16"/>
			</input>
			<output>
				<port id="4" names="601" precision="FP16">
					<dim>1</dim>
					<dim>64</dim>
					<dim>17670</dim>
				</port>
			</output>
		</layer>
		<layer id="342" name="Mul_425" type="Const" version="opset1">
			<data element_type="f16" offset="25357392" shape="64, 64, 3" size="24576"/>
			<output>
				<port id="0" names="604" precision="FP16">
					<dim>64</dim>
					<dim>64</dim>
					<dim>3</dim>
				</port>
			</output>
		</layer>
		<layer id="343" name="Conv_426/WithoutBiases" type="Convolution" version="opset1">
			<data auto_pad="explicit" dilations="3" pads_begin="0" pads_end="0" strides="1"/>
			<input>
				<port id="0" precision="FP16">
					<dim>1</dim>
					<dim>64</dim>
					<dim>17670</dim>
				</port>
				<port id="1" precision="FP16">
					<dim>64</dim>
					<dim>64</dim>
					<dim>3</dim>
				</port>
			</input>
			<output>
				<port id="2" precision="FP16">
					<dim>1</dim>
					<dim>64</dim>
					<dim>17664</dim>
				</port>
			</output>
		</layer>
		<layer id="344" name="Conv_426/Dims7569" type="Const" version="opset1">
			<data element_type="f16" offset="25381968" shape="1, 64, 1" size="128"/>
			<output>
				<port id="0" precision="FP16">
					<dim>1</dim>
					<dim>64</dim>
					<dim>1</dim>
				</port>
			</output>
		</layer>
		<layer id="345" name="Conv_426" type="Add" version="opset1">
			<data auto_broadcast="numpy"/>
			<input>
				<port id="0" precision="FP16">
					<dim>1</dim>
					<dim>64</dim>
					<dim>17664</dim>
				</port>
				<port id="1" precision="FP16">
					<dim>1</dim>
					<dim>64</dim>
					<dim>1</dim>
				</port>
			</input>
			<output>
				<port id="2" names="605" precision="FP16">
					<dim>1</dim>
					<dim>64</dim>
					<dim>17664</dim>
				</port>
			</output>
		</layer>
		<layer id="346" name="LeakyRelu_427/weights1969325721" type="Const" version="opset1">
			<data element_type="f32" offset="574544" shape="1" size="4"/>
			<output>
				<port id="0" precision="FP32">
					<dim>1</dim>
				</port>
			</output>
		</layer>
		<layer id="347" name="LeakyRelu_427" type="PReLU" version="opset1">
			<input>
				<port id="0" precision="FP16">
					<dim>1</dim>
					<dim>64</dim>
					<dim>17664</dim>
				</port>
				<port id="1" precision="FP32">
					<dim>1</dim>
				</port>
			</input>
			<output>
				<port id="2" names="606" precision="FP16">
					<dim>1</dim>
					<dim>64</dim>
					<dim>17664</dim>
				</port>
			</output>
		</layer>
		<layer id="348" name="Mul_430" type="Const" version="opset1">
			<data element_type="f16" offset="25382096" shape="64, 64, 1" size="8192"/>
			<output>
				<port id="0" names="609" precision="FP16">
					<dim>64</dim>
					<dim>64</dim>
					<dim>1</dim>
				</port>
			</output>
		</layer>
		<layer id="349" name="Conv_431/WithoutBiases" type="Convolution" version="opset1">
			<data auto_pad="explicit" dilations="1" pads_begin="0" pads_end="0" strides="1"/>
			<input>
				<port id="0" precision="FP16">
					<dim>1</dim>
					<dim>64</dim>
					<dim>17664</dim>
				</port>
				<port id="1" precision="FP16">
					<dim>64</dim>
					<dim>64</dim>
					<dim>1</dim>
				</port>
			</input>
			<output>
				<port id="2" precision="FP16">
					<dim>1</dim>
					<dim>64</dim>
					<dim>17664</dim>
				</port>
			</output>
		</layer>
		<layer id="350" name="Conv_431/Dims7593" type="Const" version="opset1">
			<data element_type="f16" offset="25390288" shape="1, 64, 1" size="128"/>
			<output>
				<port id="0" precision="FP16">
					<dim>1</dim>
					<dim>64</dim>
					<dim>1</dim>
				</port>
			</output>
		</layer>
		<layer id="351" name="Conv_431" type="Add" version="opset1">
			<data auto_broadcast="numpy"/>
			<input>
				<port id="0" precision="FP16">
					<dim>1</dim>
					<dim>64</dim>
					<dim>17664</dim>
				</port>
				<port id="1" precision="FP16">
					<dim>1</dim>
					<dim>64</dim>
					<dim>1</dim>
				</port>
			</input>
			<output>
				<port id="2" names="610" precision="FP16">
					<dim>1</dim>
					<dim>64</dim>
					<dim>17664</dim>
				</port>
			</output>
		</layer>
		<layer id="352" name="Add_432" type="Add" version="opset1">
			<data auto_broadcast="numpy"/>
			<input>
				<port id="0" precision="FP16">
					<dim>1</dim>
					<dim>64</dim>
					<dim>17664</dim>
				</port>
				<port id="1" precision="FP16">
					<dim>1</dim>
					<dim>64</dim>
					<dim>17664</dim>
				</port>
			</input>
			<output>
				<port id="2" names="611" precision="FP16">
					<dim>1</dim>
					<dim>64</dim>
					<dim>17664</dim>
				</port>
			</output>
		</layer>
		<layer id="353" name="Mul_435" type="Const" version="opset1">
			<data element_type="f16" offset="25390416" shape="64, 64, 1" size="8192"/>
			<output>
				<port id="0" names="614" precision="FP16">
					<dim>64</dim>
					<dim>64</dim>
					<dim>1</dim>
				</port>
			</output>
		</layer>
		<layer id="354" name="Conv_436/WithoutBiases" type="Convolution" version="opset1">
			<data auto_pad="explicit" dilations="1" pads_begin="0" pads_end="0" strides="1"/>
			<input>
				<port id="0" precision="FP16">
					<dim>1</dim>
					<dim>64</dim>
					<dim>17664</dim>
				</port>
				<port id="1" precision="FP16">
					<dim>64</dim>
					<dim>64</dim>
					<dim>1</dim>
				</port>
			</input>
			<output>
				<port id="2" precision="FP16">
					<dim>1</dim>
					<dim>64</dim>
					<dim>17664</dim>
				</port>
			</output>
		</layer>
		<layer id="355" name="Conv_436/Dims7557" type="Const" version="opset1">
			<data element_type="f16" offset="25398608" shape="1, 64, 1" size="128"/>
			<output>
				<port id="0" precision="FP16">
					<dim>1</dim>
					<dim>64</dim>
					<dim>1</dim>
				</port>
			</output>
		</layer>
		<layer id="356" name="Conv_436" type="Add" version="opset1">
			<data auto_broadcast="numpy"/>
			<input>
				<port id="0" precision="FP16">
					<dim>1</dim>
					<dim>64</dim>
					<dim>17664</dim>
				</port>
				<port id="1" precision="FP16">
					<dim>1</dim>
					<dim>64</dim>
					<dim>1</dim>
				</port>
			</input>
			<output>
				<port id="2" names="615" precision="FP16">
					<dim>1</dim>
					<dim>64</dim>
					<dim>17664</dim>
				</port>
			</output>
		</layer>
		<layer id="357" name="LeakyRelu_437/weights1975325769" type="Const" version="opset1">
			<data element_type="f32" offset="574544" shape="1" size="4"/>
			<output>
				<port id="0" precision="FP32">
					<dim>1</dim>
				</port>
			</output>
		</layer>
		<layer id="358" name="LeakyRelu_437" type="PReLU" version="opset1">
			<input>
				<port id="0" precision="FP16">
					<dim>1</dim>
					<dim>64</dim>
					<dim>17664</dim>
				</port>
				<port id="1" precision="FP32">
					<dim>1</dim>
				</port>
			</input>
			<output>
				<port id="2" names="616" precision="FP16">
					<dim>1</dim>
					<dim>64</dim>
					<dim>17664</dim>
				</port>
			</output>
		</layer>
		<layer id="359" name="948" type="Const" version="opset1">
			<data element_type="i64" offset="19585204" shape="3" size="24"/>
			<output>
				<port id="0" precision="I64">
					<dim>3</dim>
				</port>
			</output>
		</layer>
		<layer id="360" name="94826114" type="Const" version="opset1">
			<data element_type="i64" offset="19585204" shape="3" size="24"/>
			<output>
				<port id="0" precision="I64">
					<dim>3</dim>
				</port>
			</output>
		</layer>
		<layer id="361" name="Constant_756" type="Const" version="opset1">
			<data element_type="f16" offset="78" shape="" size="2"/>
			<output>
				<port id="0" precision="FP16"/>
			</output>
		</layer>
		<layer id="362" name="Pad_456" type="Pad" version="opset1">
			<data pad_mode="reflect"/>
			<input>
				<port id="0" precision="FP16">
					<dim>1</dim>
					<dim>64</dim>
					<dim>17664</dim>
				</port>
				<port id="1" precision="I64">
					<dim>3</dim>
				</port>
				<port id="2" precision="I64">
					<dim>3</dim>
				</port>
				<port id="3" precision="FP16"/>
			</input>
			<output>
				<port id="4" names="639" precision="FP16">
					<dim>1</dim>
					<dim>64</dim>
					<dim>17682</dim>
				</port>
			</output>
		</layer>
		<layer id="363" name="Mul_459" type="Const" version="opset1">
			<data element_type="f16" offset="25398736" shape="64, 64, 3" size="24576"/>
			<output>
				<port id="0" names="642" precision="FP16">
					<dim>64</dim>
					<dim>64</dim>
					<dim>3</dim>
				</port>
			</output>
		</layer>
		<layer id="364" name="Conv_460/WithoutBiases" type="Convolution" version="opset1">
			<data auto_pad="explicit" dilations="9" pads_begin="0" pads_end="0" strides="1"/>
			<input>
				<port id="0" precision="FP16">
					<dim>1</dim>
					<dim>64</dim>
					<dim>17682</dim>
				</port>
				<port id="1" precision="FP16">
					<dim>64</dim>
					<dim>64</dim>
					<dim>3</dim>
				</port>
			</input>
			<output>
				<port id="2" precision="FP16">
					<dim>1</dim>
					<dim>64</dim>
					<dim>17664</dim>
				</port>
			</output>
		</layer>
		<layer id="365" name="Conv_460/Dims7515" type="Const" version="opset1">
			<data element_type="f16" offset="25423312" shape="1, 64, 1" size="128"/>
			<output>
				<port id="0" precision="FP16">
					<dim>1</dim>
					<dim>64</dim>
					<dim>1</dim>
				</port>
			</output>
		</layer>
		<layer id="366" name="Conv_460" type="Add" version="opset1">
			<data auto_broadcast="numpy"/>
			<input>
				<port id="0" precision="FP16">
					<dim>1</dim>
					<dim>64</dim>
					<dim>17664</dim>
				</port>
				<port id="1" precision="FP16">
					<dim>1</dim>
					<dim>64</dim>
					<dim>1</dim>
				</port>
			</input>
			<output>
				<port id="2" names="643" precision="FP16">
					<dim>1</dim>
					<dim>64</dim>
					<dim>17664</dim>
				</port>
			</output>
		</layer>
		<layer id="367" name="LeakyRelu_461/weights1968525703" type="Const" version="opset1">
			<data element_type="f32" offset="574544" shape="1" size="4"/>
			<output>
				<port id="0" precision="FP32">
					<dim>1</dim>
				</port>
			</output>
		</layer>
		<layer id="368" name="LeakyRelu_461" type="PReLU" version="opset1">
			<input>
				<port id="0" precision="FP16">
					<dim>1</dim>
					<dim>64</dim>
					<dim>17664</dim>
				</port>
				<port id="1" precision="FP32">
					<dim>1</dim>
				</port>
			</input>
			<output>
				<port id="2" names="644" precision="FP16">
					<dim>1</dim>
					<dim>64</dim>
					<dim>17664</dim>
				</port>
			</output>
		</layer>
		<layer id="369" name="Mul_464" type="Const" version="opset1">
			<data element_type="f16" offset="25423440" shape="64, 64, 1" size="8192"/>
			<output>
				<port id="0" names="647" precision="FP16">
					<dim>64</dim>
					<dim>64</dim>
					<dim>1</dim>
				</port>
			</output>
		</layer>
		<layer id="370" name="Conv_465/WithoutBiases" type="Convolution" version="opset1">
			<data auto_pad="explicit" dilations="1" pads_begin="0" pads_end="0" strides="1"/>
			<input>
				<port id="0" precision="FP16">
					<dim>1</dim>
					<dim>64</dim>
					<dim>17664</dim>
				</port>
				<port id="1" precision="FP16">
					<dim>64</dim>
					<dim>64</dim>
					<dim>1</dim>
				</port>
			</input>
			<output>
				<port id="2" precision="FP16">
					<dim>1</dim>
					<dim>64</dim>
					<dim>17664</dim>
				</port>
			</output>
		</layer>
		<layer id="371" name="Conv_465/Dims7599" type="Const" version="opset1">
			<data element_type="f16" offset="25431632" shape="1, 64, 1" size="128"/>
			<output>
				<port id="0" precision="FP16">
					<dim>1</dim>
					<dim>64</dim>
					<dim>1</dim>
				</port>
			</output>
		</layer>
		<layer id="372" name="Conv_465" type="Add" version="opset1">
			<data auto_broadcast="numpy"/>
			<input>
				<port id="0" precision="FP16">
					<dim>1</dim>
					<dim>64</dim>
					<dim>17664</dim>
				</port>
				<port id="1" precision="FP16">
					<dim>1</dim>
					<dim>64</dim>
					<dim>1</dim>
				</port>
			</input>
			<output>
				<port id="2" names="648" precision="FP16">
					<dim>1</dim>
					<dim>64</dim>
					<dim>17664</dim>
				</port>
			</output>
		</layer>
		<layer id="373" name="Add_466" type="Add" version="opset1">
			<data auto_broadcast="numpy"/>
			<input>
				<port id="0" precision="FP16">
					<dim>1</dim>
					<dim>64</dim>
					<dim>17664</dim>
				</port>
				<port id="1" precision="FP16">
					<dim>1</dim>
					<dim>64</dim>
					<dim>17664</dim>
				</port>
			</input>
			<output>
				<port id="2" names="649" precision="FP16">
					<dim>1</dim>
					<dim>64</dim>
					<dim>17664</dim>
				</port>
			</output>
		</layer>
		<layer id="374" name="LeakyRelu_467/weights1968126000" type="Const" version="opset1">
			<data element_type="f32" offset="574544" shape="1" size="4"/>
			<output>
				<port id="0" precision="FP32">
					<dim>1</dim>
				</port>
			</output>
		</layer>
		<layer id="375" name="LeakyRelu_467" type="PReLU" version="opset1">
			<input>
				<port id="0" precision="FP16">
					<dim>1</dim>
					<dim>64</dim>
					<dim>17664</dim>
				</port>
				<port id="1" precision="FP32">
					<dim>1</dim>
				</port>
			</input>
			<output>
				<port id="2" names="650" precision="FP16">
					<dim>1</dim>
					<dim>64</dim>
					<dim>17664</dim>
				</port>
			</output>
		</layer>
		<layer id="376" name="Mul_470" type="Const" version="opset1">
			<data element_type="f16" offset="25431760" shape="64, 64, 5" size="40960"/>
			<output>
				<port id="0" names="653" precision="FP16">
					<dim>64</dim>
					<dim>64</dim>
					<dim>5</dim>
				</port>
			</output>
		</layer>
		<layer id="377" name="Conv_471/WithoutBiases" type="Convolution" version="opset1">
			<data auto_pad="explicit" dilations="1" pads_begin="2" pads_end="2" strides="1"/>
			<input>
				<port id="0" precision="FP16">
					<dim>1</dim>
					<dim>64</dim>
					<dim>17664</dim>
				</port>
				<port id="1" precision="FP16">
					<dim>64</dim>
					<dim>64</dim>
					<dim>5</dim>
				</port>
			</input>
			<output>
				<port id="2" precision="FP16">
					<dim>1</dim>
					<dim>64</dim>
					<dim>17664</dim>
				</port>
			</output>
		</layer>
		<layer id="378" name="Conv_471/Dims7383" type="Const" version="opset1">
			<data element_type="f16" offset="25472720" shape="1, 64, 1" size="128"/>
			<output>
				<port id="0" precision="FP16">
					<dim>1</dim>
					<dim>64</dim>
					<dim>1</dim>
				</port>
			</output>
		</layer>
		<layer id="379" name="Conv_471" type="Add" version="opset1">
			<data auto_broadcast="numpy"/>
			<input>
				<port id="0" precision="FP16">
					<dim>1</dim>
					<dim>64</dim>
					<dim>17664</dim>
				</port>
				<port id="1" precision="FP16">
					<dim>1</dim>
					<dim>64</dim>
					<dim>1</dim>
				</port>
			</input>
			<output>
				<port id="2" names="654" precision="FP16">
					<dim>1</dim>
					<dim>64</dim>
					<dim>17664</dim>
				</port>
			</output>
		</layer>
		<layer id="380" name="Unsqueeze_472/Dims" type="Const" version="opset1">
			<data element_type="i64" offset="9488468" shape="1" size="8"/>
			<output>
				<port id="0" precision="I64">
					<dim>1</dim>
				</port>
			</output>
		</layer>
		<layer id="381" name="Unsqueeze_472/Unsqueeze" type="Unsqueeze" version="opset1">
			<input>
				<port id="0" precision="FP16">
					<dim>1</dim>
					<dim>64</dim>
					<dim>17664</dim>
				</port>
				<port id="1" precision="I64">
					<dim>1</dim>
				</port>
			</input>
			<output>
				<port id="2" names="655" precision="FP16">
					<dim>1</dim>
					<dim>64</dim>
					<dim>17664</dim>
					<dim>1</dim>
				</port>
			</output>
		</layer>
		<layer id="382" name="Shape_491" type="ShapeOf" version="opset3">
			<data output_type="i64"/>
			<input>
				<port id="0" precision="FP16">
					<dim>1</dim>
					<dim>64</dim>
					<dim>17664</dim>
					<dim>1</dim>
				</port>
			</input>
			<output>
				<port id="1" names="674" precision="I64">
					<dim>4</dim>
				</port>
			</output>
		</layer>
		<layer id="383" name="Slice_495/Concat861525733" type="Const" version="opset1">
			<data element_type="i64" offset="9488476" shape="1" size="8"/>
			<output>
				<port id="0" precision="I64">
					<dim>1</dim>
				</port>
			</output>
		</layer>
		<layer id="384" name="Slice_495/Concat8605861625901" type="Const" version="opset1">
			<data element_type="i64" offset="9488484" shape="1" size="8"/>
			<output>
				<port id="0" precision="I64">
					<dim>1</dim>
				</port>
			</output>
		</layer>
		<layer id="385" name="Slice_495/Strides861726033" type="Const" version="opset1">
			<data element_type="i64" offset="9488492" shape="1" size="8"/>
			<output>
				<port id="0" precision="I64">
					<dim>1</dim>
				</port>
			</output>
		</layer>
		<layer id="386" name="Slice_495" type="StridedSlice" version="opset1">
			<data begin_mask="0" ellipsis_mask="0" end_mask="0" new_axis_mask="0" shrink_axis_mask="0"/>
			<input>
				<port id="0" precision="I64">
					<dim>4</dim>
				</port>
				<port id="1" precision="I64">
					<dim>1</dim>
				</port>
				<port id="2" precision="I64">
					<dim>1</dim>
				</port>
				<port id="3" precision="I64">
					<dim>1</dim>
				</port>
			</input>
			<output>
				<port id="4" names="678" precision="I64">
					<dim>2</dim>
				</port>
			</output>
		</layer>
		<layer id="387" name="Shape_473" type="ShapeOf" version="opset3">
			<data output_type="i64"/>
			<input>
				<port id="0" precision="FP16">
					<dim>1</dim>
					<dim>64</dim>
					<dim>17664</dim>
					<dim>1</dim>
				</port>
			</input>
			<output>
				<port id="1" names="656" precision="I64">
					<dim>4</dim>
				</port>
			</output>
		</layer>
		<layer id="388" name="Constant_474" type="Const" version="opset1">
			<data element_type="i32" offset="9488500" shape="" size="4"/>
			<output>
				<port id="0" names="657" precision="I32"/>
			</output>
		</layer>
		<layer id="389" name="Gather_475/axis" type="Const" version="opset1">
			<data element_type="i64" offset="9488476" shape="" size="8"/>
			<output>
				<port id="0" precision="I64"/>
			</output>
		</layer>
		<layer id="390" name="Gather_4751009" type="Gather" version="opset7">
			<data batch_dims="0"/>
			<input>
				<port id="0" precision="I64">
					<dim>4</dim>
				</port>
				<port id="1" precision="I32"/>
				<port id="2" precision="I64"/>
			</input>
			<output>
				<port id="3" names="658" precision="I64"/>
			</output>
		</layer>
		<layer id="391" name="Cast_476" type="Convert" version="opset1">
			<data destination_type="f32"/>
			<input>
				<port id="0" precision="I64"/>
			</input>
			<output>
				<port id="1" names="659" precision="FP32"/>
			</output>
		</layer>
		<layer id="392" name="Constant_477" type="Const" version="opset1">
			<data element_type="f32" offset="25160140" shape="" size="4"/>
			<output>
				<port id="0" names="660" precision="FP32"/>
			</output>
		</layer>
		<layer id="393" name="Mul_478" type="Multiply" version="opset1">
			<data auto_broadcast="numpy"/>
			<input>
				<port id="0" precision="FP32"/>
				<port id="1" precision="FP32"/>
			</input>
			<output>
				<port id="2" names="661,662" precision="FP32"/>
			</output>
		</layer>
		<layer id="394" name="Floor_480" type="Floor" version="opset1">
			<input>
				<port id="0" precision="FP32"/>
			</input>
			<output>
				<port id="1" names="663" precision="FP32"/>
			</output>
		</layer>
		<layer id="395" name="Unsqueeze_487/Dims" type="Const" version="opset1">
			<data element_type="i64" offset="9488476" shape="1" size="8"/>
			<output>
				<port id="0" precision="I64">
					<dim>1</dim>
				</port>
			</output>
		</layer>
		<layer id="396" name="Unsqueeze_487/Unsqueeze" type="Unsqueeze" version="opset1">
			<input>
				<port id="0" precision="FP32"/>
				<port id="1" precision="I64">
					<dim>1</dim>
				</port>
			</input>
			<output>
				<port id="2" names="670" precision="FP32">
					<dim>1</dim>
				</port>
			</output>
		</layer>
		<layer id="397" name="Shape_481" type="ShapeOf" version="opset3">
			<data output_type="i64"/>
			<input>
				<port id="0" precision="FP16">
					<dim>1</dim>
					<dim>64</dim>
					<dim>17664</dim>
					<dim>1</dim>
				</port>
			</input>
			<output>
				<port id="1" names="664" precision="I64">
					<dim>4</dim>
				</port>
			</output>
		</layer>
		<layer id="398" name="Constant_482" type="Const" version="opset1">
			<data element_type="i32" offset="9488508" shape="" size="4"/>
			<output>
				<port id="0" names="665" precision="I32"/>
			</output>
		</layer>
		<layer id="399" name="Gather_483/axis" type="Const" version="opset1">
			<data element_type="i64" offset="9488476" shape="" size="8"/>
			<output>
				<port id="0" precision="I64"/>
			</output>
		</layer>
		<layer id="400" name="Gather_483997" type="Gather" version="opset7">
			<data batch_dims="0"/>
			<input>
				<port id="0" precision="I64">
					<dim>4</dim>
				</port>
				<port id="1" precision="I32"/>
				<port id="2" precision="I64"/>
			</input>
			<output>
				<port id="3" names="666" precision="I64"/>
			</output>
		</layer>
		<layer id="401" name="Cast_484" type="Convert" version="opset1">
			<data destination_type="f32"/>
			<input>
				<port id="0" precision="I64"/>
			</input>
			<output>
				<port id="1" names="667,668" precision="FP32"/>
			</output>
		</layer>
		<layer id="402" name="Floor_486" type="Floor" version="opset1">
			<input>
				<port id="0" precision="FP32"/>
			</input>
			<output>
				<port id="1" names="669" precision="FP32"/>
			</output>
		</layer>
		<layer id="403" name="Unsqueeze_488/Dims" type="Const" version="opset1">
			<data element_type="i64" offset="9488476" shape="1" size="8"/>
			<output>
				<port id="0" precision="I64">
					<dim>1</dim>
				</port>
			</output>
		</layer>
		<layer id="404" name="Unsqueeze_488/Unsqueeze" type="Unsqueeze" version="opset1">
			<input>
				<port id="0" precision="FP32"/>
				<port id="1" precision="I64">
					<dim>1</dim>
				</port>
			</input>
			<output>
				<port id="2" names="671" precision="FP32">
					<dim>1</dim>
				</port>
			</output>
		</layer>
		<layer id="405" name="Concat_489" type="Concat" version="opset1">
			<data axis="0"/>
			<input>
				<port id="0" precision="FP32">
					<dim>1</dim>
				</port>
				<port id="1" precision="FP32">
					<dim>1</dim>
				</port>
			</input>
			<output>
				<port id="2" names="672" precision="FP32">
					<dim>2</dim>
				</port>
			</output>
		</layer>
		<layer id="406" name="Cast_496" type="Convert" version="opset1">
			<data destination_type="i64"/>
			<input>
				<port id="0" precision="FP32">
					<dim>2</dim>
				</port>
			</input>
			<output>
				<port id="1" names="679" precision="I64">
					<dim>2</dim>
				</port>
			</output>
		</layer>
		<layer id="407" name="Concat_497" type="Concat" version="opset1">
			<data axis="0"/>
			<input>
				<port id="0" precision="I64">
					<dim>2</dim>
				</port>
				<port id="1" precision="I64">
					<dim>2</dim>
				</port>
			</input>
			<output>
				<port id="2" names="680" precision="I64">
					<dim>4</dim>
				</port>
			</output>
		</layer>
		<layer id="408" name="Resize_499/StridedSlice_sizes_input_port_1/value615725937" type="Const" version="opset1">
			<data element_type="i64" offset="9488484" shape="1" size="8"/>
			<output>
				<port id="0" precision="I64">
					<dim>1</dim>
				</port>
			</output>
		</layer>
		<layer id="409" name="Resize_499/StridedSlice_sizes_input_port_2/value615925832" type="Const" version="opset1">
			<data element_type="i64" offset="9488512" shape="1" size="8"/>
			<output>
				<port id="0" precision="I64">
					<dim>1</dim>
				</port>
			</output>
		</layer>
		<layer id="410" name="Resize_499/StridedSlice_sizes_input_port_3/value616126192" type="Const" version="opset1">
			<data element_type="i64" offset="9488492" shape="1" size="8"/>
			<output>
				<port id="0" precision="I64">
					<dim>1</dim>
				</port>
			</output>
		</layer>
		<layer id="411" name="Resize_499/StridedSlice_sizes" type="StridedSlice" version="opset1">
			<data begin_mask="0" ellipsis_mask="0" end_mask="0" new_axis_mask="0" shrink_axis_mask="0"/>
			<input>
				<port id="0" precision="I64">
					<dim>4</dim>
				</port>
				<port id="1" precision="I64">
					<dim>1</dim>
				</port>
				<port id="2" precision="I64">
					<dim>1</dim>
				</port>
				<port id="3" precision="I64">
					<dim>1</dim>
				</port>
			</input>
			<output>
				<port id="4" precision="I64">
					<dim>2</dim>
				</port>
			</output>
		</layer>
		<layer id="412" name="6177" type="Convert" version="opset1">
			<data destination_type="f32"/>
			<input>
				<port id="0" precision="I64">
					<dim>4</dim>
				</port>
			</input>
			<output>
				<port id="1" precision="FP32">
					<dim>4</dim>
				</port>
			</output>
		</layer>
		<layer id="413" name="Resize_499/ShapeOf" type="ShapeOf" version="opset3">
			<data output_type="i64"/>
			<input>
				<port id="0" precision="FP16">
					<dim>1</dim>
					<dim>64</dim>
					<dim>17664</dim>
					<dim>1</dim>
				</port>
			</input>
			<output>
				<port id="1" precision="I64">
					<dim>4</dim>
				</port>
			</output>
		</layer>
		<layer id="414" name="6176" type="Convert" version="opset1">
			<data destination_type="f32"/>
			<input>
				<port id="0" precision="I64">
					<dim>4</dim>
				</port>
			</input>
			<output>
				<port id="1" precision="FP32">
					<dim>4</dim>
				</port>
			</output>
		</layer>
		<layer id="415" name="Resize_499/Div" type="Divide" version="opset1">
			<data auto_broadcast="numpy" m_pythondiv="true"/>
			<input>
				<port id="0" precision="FP32">
					<dim>4</dim>
				</port>
				<port id="1" precision="FP32">
					<dim>4</dim>
				</port>
			</input>
			<output>
				<port id="2" precision="FP32">
					<dim>4</dim>
				</port>
			</output>
		</layer>
		<layer id="416" name="Resize_499/Add_input_port_1/value617526048" type="Const" version="opset1">
			<data element_type="f32" offset="9488520" shape="1" size="4"/>
			<output>
				<port id="0" precision="FP32">
					<dim>1</dim>
				</port>
			</output>
		</layer>
		<layer id="417" name="Resize_499/Add" type="Add" version="opset1">
			<data auto_broadcast="numpy"/>
			<input>
				<port id="0" precision="FP32">
					<dim>4</dim>
				</port>
				<port id="1" precision="FP32">
					<dim>1</dim>
				</port>
			</input>
			<output>
				<port id="2" precision="FP32">
					<dim>4</dim>
				</port>
			</output>
		</layer>
		<layer id="418" name="Resize_499/StridedSlice_scales_input_port_1/value616425853" type="Const" version="opset1">
			<data element_type="i64" offset="9488484" shape="1" size="8"/>
			<output>
				<port id="0" precision="I64">
					<dim>1</dim>
				</port>
			</output>
		</layer>
		<layer id="419" name="Resize_499/StridedSlice_scales_input_port_2/value616625610" type="Const" version="opset1">
			<data element_type="i64" offset="9488512" shape="1" size="8"/>
			<output>
				<port id="0" precision="I64">
					<dim>1</dim>
				</port>
			</output>
		</layer>
		<layer id="420" name="Resize_499/StridedSlice_scales_input_port_3/value616826261" type="Const" version="opset1">
			<data element_type="i64" offset="9488492" shape="1" size="8"/>
			<output>
				<port id="0" precision="I64">
					<dim>1</dim>
				</port>
			</output>
		</layer>
		<layer id="421" name="Resize_499/StridedSlice_scales" type="StridedSlice" version="opset1">
			<data begin_mask="0" ellipsis_mask="0" end_mask="0" new_axis_mask="0" shrink_axis_mask="0"/>
			<input>
				<port id="0" precision="FP32">
					<dim>4</dim>
				</port>
				<port id="1" precision="I64">
					<dim>1</dim>
				</port>
				<port id="2" precision="I64">
					<dim>1</dim>
				</port>
				<port id="3" precision="I64">
					<dim>1</dim>
				</port>
			</input>
			<output>
				<port id="4" precision="FP32">
					<dim>2</dim>
				</port>
			</output>
		</layer>
		<layer id="422" name="Resize_499/axis617126123" type="Const" version="opset1">
			<data element_type="i64" offset="9488524" shape="2" size="16"/>
			<output>
				<port id="0" precision="I64">
					<dim>2</dim>
				</port>
			</output>
		</layer>
		<layer id="423" name="Resize_499" type="Interpolate" version="opset4">
			<data antialias="false" coordinate_transformation_mode="asymmetric" cube_coeff="-0.75" mode="nearest" nearest_mode="floor" pads_begin="0, 0, 0, 0" pads_end="0, 0, 0, 0" shape_calculation_mode="sizes"/>
			<input>
				<port id="0" precision="FP16">
					<dim>1</dim>
					<dim>64</dim>
					<dim>17664</dim>
					<dim>1</dim>
				</port>
				<port id="1" precision="I64">
					<dim>2</dim>
				</port>
				<port id="2" precision="FP32">
					<dim>2</dim>
				</port>
				<port id="3" precision="I64">
					<dim>2</dim>
				</port>
			</input>
			<output>
				<port id="4" names="682" precision="FP16">
					<dim>1</dim>
					<dim>64</dim>
					<dim>35328</dim>
					<dim>1</dim>
				</port>
			</output>
		</layer>
		<layer id="424" name="Squeeze_500/Dims" type="Const" version="opset1">
			<data element_type="i64" offset="9488468" shape="1" size="8"/>
			<output>
				<port id="0" precision="I64">
					<dim>1</dim>
				</port>
			</output>
		</layer>
		<layer id="425" name="Squeeze_500" type="Squeeze" version="opset1">
			<input>
				<port id="0" precision="FP16">
					<dim>1</dim>
					<dim>64</dim>
					<dim>35328</dim>
					<dim>1</dim>
				</port>
				<port id="1" precision="I64">
					<dim>1</dim>
				</port>
			</input>
			<output>
				<port id="2" names="683" precision="FP16">
					<dim>1</dim>
					<dim>64</dim>
					<dim>35328</dim>
				</port>
			</output>
		</layer>
		<layer id="426" name="Mul_503" type="Const" version="opset1">
			<data element_type="f16" offset="25472848" shape="32, 64, 9" size="36864"/>
			<output>
				<port id="0" names="686" precision="FP16">
					<dim>32</dim>
					<dim>64</dim>
					<dim>9</dim>
				</port>
			</output>
		</layer>
		<layer id="427" name="Conv_504/WithoutBiases" type="Convolution" version="opset1">
			<data auto_pad="explicit" dilations="1" pads_begin="4" pads_end="4" strides="1"/>
			<input>
				<port id="0" precision="FP16">
					<dim>1</dim>
					<dim>64</dim>
					<dim>35328</dim>
				</port>
				<port id="1" precision="FP16">
					<dim>32</dim>
					<dim>64</dim>
					<dim>9</dim>
				</port>
			</input>
			<output>
				<port id="2" precision="FP16">
					<dim>1</dim>
					<dim>32</dim>
					<dim>35328</dim>
				</port>
			</output>
		</layer>
		<layer id="428" name="Conv_504/Dims7509" type="Const" version="opset1">
			<data element_type="f16" offset="25509712" shape="1, 32, 1" size="64"/>
			<output>
				<port id="0" precision="FP16">
					<dim>1</dim>
					<dim>32</dim>
					<dim>1</dim>
				</port>
			</output>
		</layer>
…
					<dim>32</dim>
					<dim>3</dim>
				</port>
			</output>
		</layer>
		<layer id="483" name="Conv_600/WithoutBiases" type="Convolution" version="opset1">
			<data auto_pad="explicit" dilations="9" pads_begin="0" pads_end="0" strides="1"/>
			<input>
				<port id="0" precision="FP16">
					<dim>1</dim>
					<dim>32</dim>
					<dim>35346</dim>
				</port>
				<port id="1" precision="FP16">
					<dim>32</dim>
					<dim>32</dim>
					<dim>3</dim>
				</port>
			</input>
			<output>
				<port id="2" precision="FP16">
					<dim>1</dim>
					<dim>32</dim>
					<dim>35328</dim>
				</port>
			</output>
		</layer>
		<layer id="484" name="Conv_600/Dims7635" type="Const" version="opset1">
			<data element_type="f16" offset="25538896" shape="1, 32, 1" size="64"/>
			<output>
				<port id="0" precision="FP16">
					<dim>1</dim>
					<dim>32</dim>
					<dim>1</dim>
				</port>
			</output>
		</layer>
		<layer id="485" name="Conv_600" type="Add" version="opset1">
			<data auto_broadcast="numpy"/>
			<input>
				<port id="0" precision="FP16">
					<dim>1</dim>
					<dim>32</dim>
					<dim>35328</dim>
				</port>
				<port id="1" precision="FP16">
					<dim>1</dim>
					<dim>32</dim>
					<dim>1</dim>
				</port>
			</input>
			<output>
				<port id="2" names="795" precision="FP16">
					<dim>1</dim>
					<dim>32</dim>
					<dim>35328</dim>
				</port>
			</output>
		</layer>
		<layer id="486" name="LeakyRelu_601/weights1973725736" type="Const" version="opset1">
			<data element_type="f32" offset="574544" shape="1" size="4"/>
			<output>
				<port id="0" precision="FP32">
					<dim>1</dim>
				</port>
			</output>
		</layer>
		<layer id="487" name="LeakyRelu_601" type="PReLU" version="opset1">
			<input>
				<port id="0" precision="FP16">
					<dim>1</dim>
					<dim>32</dim>
					<dim>35328</dim>
				</port>
				<port id="1" precision="FP32">
					<dim>1</dim>
				</port>
			</input>
			<output>
				<port id="2" names="796" precision="FP16">
					<dim>1</dim>
					<dim>32</dim>
					<dim>35328</dim>
				</port>
			</output>
		</layer>
		<layer id="488" name="Mul_604" type="Const" version="opset1">
			<data element_type="f16" offset="25538960" shape="32, 32, 1" size="2048"/>
			<output>
				<port id="0" names="799" precision="FP16">
					<dim>32</dim>
					<dim>32</dim>
					<dim>1</dim>
				</port>
			</output>
		</layer>
		<layer id="489" name="Conv_605/WithoutBiases" type="Convolution" version="opset1">
			<data auto_pad="explicit" dilations="1" pads_begin="0" pads_end="0" strides="1"/>
			<input>
				<port id="0" precision="FP16">
					<dim>1</dim>
					<dim>32</dim>
					<dim>35328</dim>
				</port>
				<port id="1" precision="FP16">
					<dim>32</dim>
					<dim>32</dim>
					<dim>1</dim>
				</port>
			</input>
			<output>
				<port id="2" precision="FP16">
					<dim>1</dim>
					<dim>32</dim>
					<dim>35328</dim>
				</port>
			</output>
		</layer>
		<layer id="490" name="Conv_605/Dims7527" type="Const" version="opset1">
			<data element_type="f16" offset="25541008" shape="1, 32, 1" size="64"/>
			<output>
				<port id="0" precision="FP16">
					<dim>1</dim>
					<dim>32</dim>
					<dim>1</dim>
				</port>
			</output>
		</layer>
		<layer id="491" name="Conv_605" type="Add" version="opset1">
			<data auto_broadcast="numpy"/>
			<input>
				<port id="0" precision="FP16">
					<dim>1</dim>
					<dim>32</dim>
					<dim>35328</dim>
				</port>
				<port id="1" precision="FP16">
					<dim>1</dim>
					<dim>32</dim>
					<dim>1</dim>
				</port>
			</input>
			<output>
				<port id="2" names="800" precision="FP16">
					<dim>1</dim>
					<dim>32</dim>
					<dim>35328</dim>
				</port>
			</output>
		</layer>
		<layer id="492" name="Add_606" type="Add" version="opset1">
			<data auto_broadcast="numpy"/>
			<input>
				<port id="0" precision="FP16">
					<dim>1</dim>
					<dim>32</dim>
					<dim>35328</dim>
				</port>
				<port id="1" precision="FP16">
					<dim>1</dim>
					<dim>32</dim>
					<dim>35328</dim>
				</port>
			</input>
			<output>
				<port id="2" names="801" precision="FP16">
					<dim>1</dim>
					<dim>32</dim>
					<dim>35328</dim>
				</port>
			</output>
		</layer>
		<layer id="493" name="LeakyRelu_607/weights1976126219" type="Const" version="opset1">
			<data element_type="f32" offset="574544" shape="1" size="4"/>
			<output>
				<port id="0" precision="FP32">
					<dim>1</dim>
				</port>
			</output>
		</layer>
		<layer id="494" name="LeakyRelu_607" type="PReLU" version="opset1">
			<input>
				<port id="0" precision="FP16">
					<dim>1</dim>
					<dim>32</dim>
					<dim>35328</dim>
				</port>
				<port id="1" precision="FP32">
					<dim>1</dim>
				</port>
			</input>
			<output>
				<port id="2" names="802" precision="FP16">
					<dim>1</dim>
					<dim>32</dim>
					<dim>35328</dim>
				</port>
			</output>
		</layer>
		<layer id="495" name="92426174" type="Const" version="opset1">
			<data element_type="i64" offset="54" shape="3" size="24"/>
			<output>
				<port id="0" precision="I64">
					<dim>3</dim>
				</port>
			</output>
		</layer>
		<layer id="496" name="924" type="Const" version="opset1">
			<data element_type="i64" offset="54" shape="3" size="24"/>
			<output>
				<port id="0" precision="I64">
					<dim>3</dim>
				</port>
			</output>
		</layer>
		<layer id="497" name="Constant_1038" type="Const" version="opset1">
			<data element_type="f16" offset="78" shape="" size="2"/>
			<output>
				<port id="0" precision="FP16"/>
			</output>
		</layer>
		<layer id="498" name="Pad_626" type="Pad" version="opset1">
			<data pad_mode="reflect"/>
			<input>
				<port id="0" precision="FP16">
					<dim>1</dim>
					<dim>32</dim>
					<dim>35328</dim>
				</port>
				<port id="1" precision="I64">
					<dim>3</dim>
				</port>
				<port id="2" precision="I64">
					<dim>3</dim>
				</port>
				<port id="3" precision="FP16"/>
			</input>
			<output>
				<port id="4" names="825" precision="FP16">
					<dim>1</dim>
					<dim>32</dim>
					<dim>35334</dim>
				</port>
			</output>
		</layer>
		<layer id="499" name="Mul_629" type="Const" version="opset1">
			<data element_type="f16" offset="25541072" shape="1, 32, 7" size="448"/>
			<output>
				<port id="0" names="828" precision="FP16">
					<dim>1</dim>
					<dim>32</dim>
					<dim>7</dim>
				</port>
			</output>
		</layer>
		<layer id="500" name="Conv_630/WithoutBiases" type="Convolution" version="opset1">
			<data auto_pad="explicit" dilations="1" pads_begin="0" pads_end="0" strides="1"/>
			<input>
				<port id="0" precision="FP16">
					<dim>1</dim>
					<dim>32</dim>
					<dim>35334</dim>
				</port>
				<port id="1" precision="FP16">
					<dim>1</dim>
					<dim>32</dim>
					<dim>7</dim>
				</port>
			</input>
			<output>
				<port id="2" precision="FP16">
					<dim>1</dim>
					<dim>1</dim>
					<dim>35328</dim>
				</port>
			</output>
		</layer>
		<layer id="501" name="Conv_630/Dims7491" type="Const" version="opset1">
			<data element_type="f16" offset="25541520" shape="1, 1, 1" size="2"/>
			<output>
				<port id="0" precision="FP16">
					<dim>1</dim>
					<dim>1</dim>
					<dim>1</dim>
				</port>
			</output>
		</layer>
		<layer id="502" name="Conv_630" type="Add" version="opset1">
			<data auto_broadcast="numpy"/>
			<input>
				<port id="0" precision="FP16">
					<dim>1</dim>
					<dim>1</dim>
					<dim>35328</dim>
				</port>
				<port id="1" precision="FP16">
					<dim>1</dim>
					<dim>1</dim>
					<dim>1</dim>
				</port>
			</input>
			<output>
				<port id="2" names="829" precision="FP16">
					<dim>1</dim>
					<dim>1</dim>
					<dim>35328</dim>
				</port>
			</output>
		</layer>
		<layer id="503" name="Tanh_631" type="Tanh" version="opset1">
			<input>
				<port id="0" precision="FP16">
					<dim>1</dim>
					<dim>1</dim>
					<dim>35328</dim>
				</port>
			</input>
			<output>
				<port id="1" names="830" precision="FP16">
					<dim>1</dim>
					<dim>1</dim>
					<dim>35328</dim>
				</port>
			</output>
		</layer>
		<layer id="504" name="Squeeze_632/Dims" type="Const" version="opset1">
			<data element_type="i64" offset="25541522" shape="2" size="16"/>
			<output>
				<port id="0" precision="I64">
					<dim>2</dim>
				</port>
			</output>
		</layer>
		<layer id="505" name="Squeeze_632" type="Squeeze" version="opset1">
			<input>
				<port id="0" precision="FP16">
					<dim>1</dim>
					<dim>1</dim>
					<dim>35328</dim>
				</port>
				<port id="1" precision="I64">
					<dim>2</dim>
				</port>
			</input>
			<output>
				<port id="2" names="831" precision="FP16">
					<dim>35328</dim>
				</port>
			</output>
		</layer>
		<layer id="506" name="Slice_637/Concat881126198" type="Const" version="opset1">
			<data element_type="i64" offset="9488476" shape="1" size="8"/>
			<output>
				<port id="0" precision="I64">
					<dim>1</dim>
				</port>
			</output>
		</layer>
		<layer id="507" name="Slice_637/Concat8801881225757" type="Const" version="opset1">
			<data element_type="i64" offset="25541538" shape="1" size="8"/>
			<output>
				<port id="0" precision="I64">
					<dim>1</dim>
				</port>
			</output>
		</layer>
		<layer id="508" name="Slice_637/Strides881325550" type="Const" version="opset1">
			<data element_type="i64" offset="9488492" shape="1" size="8"/>
			<output>
				<port id="0" precision="I64">
					<dim>1</dim>
				</port>
			</output>
		</layer>
		<layer id="509" name="Slice_637" type="StridedSlice" version="opset1">
			<data begin_mask="0" ellipsis_mask="0" end_mask="0" new_axis_mask="0" shrink_axis_mask="0"/>
			<input>
				<port id="0" precision="FP16">
					<dim>35328</dim>
				</port>
				<port id="1" precision="I64">
					<dim>1</dim>
				</port>
				<port id="2" precision="I64">
					<dim>1</dim>
				</port>
				<port id="3" precision="I64">
					<dim>1</dim>
				</port>
			</input>
			<output>
				<port id="4" names="836" precision="FP16">
					<dim>32768</dim>
				</port>
			</output>
		</layer>
		<layer id="510" name="Constant_638" type="Const" version="opset1">
			<data element_type="f16" offset="25541546" shape="1" size="2"/>
			<output>
				<port id="0" names="837" precision="FP16">
					<dim>1</dim>
				</port>
			</output>
		</layer>
		<layer id="511" name="Mul_639" type="Multiply" version="opset1">
			<data auto_broadcast="numpy"/>
			<input>
				<port id="0" precision="FP16">
					<dim>32768</dim>
				</port>
				<port id="1" precision="FP16">
					<dim>1</dim>
				</port>
			</input>
			<output>
				<port id="2" names="838" precision="FP16">
					<dim>32768</dim>
				</port>
			</output>
		</layer>
		<layer id="512" name="audio" type="Clamp" version="opset1">
			<data max="32767" min="-32768"/>
			<input>
				<port id="0" precision="FP16">
					<dim>32768</dim>
				</port>
			</input>
			<output>
				<port id="1" names="audio" precision="FP16">
					<dim>32768</dim>
				</port>
			</output>
		</layer>
		<layer id="513" name="audio/sink_port_0" type="Result" version="opset1">
			<input>
				<port id="0" precision="FP16">
					<dim>32768</dim>
				</port>
			</input>
		</layer>
	</layers>
	<edges>
		<edge from-layer="0" from-port="0" to-layer="4" to-port="0"/>
		<edge from-layer="1" from-port="0" to-layer="4" to-port="1"/>
		<edge from-layer="2" from-port="0" to-layer="4" to-port="2"/>
		<edge from-layer="3" from-port="0" to-layer="4" to-port="3"/>
		<edge from-layer="4" from-port="4" to-layer="6" to-port="0"/>
		<edge from-layer="5" from-port="0" to-layer="6" to-port="1"/>
		<edge from-layer="6" from-port="2" to-layer="8" to-port="0"/>
		<edge from-layer="7" from-port="0" to-layer="8" to-port="1"/>
		<edge from-layer="8" from-port="2" to-layer="12" to-port="0"/>
		<edge from-layer="9" from-port="0" to-layer="12" to-port="1"/>
		<edge from-layer="10" from-port="0" to-layer="12" to-port="2"/>
		<edge from-layer="11" from-port="0" to-layer="12" to-port="3"/>
		<edge from-layer="12" from-port="4" to-layer="14" to-port="0"/>
		<edge from-layer="13" from-port="0" to-layer="14" to-port="1"/>
		<edge from-layer="14" from-port="2" to-layer="16" to-port="0"/>
		<edge from-layer="15" from-port="0" to-layer="16" to-port="1"/>
		<edge from-layer="16" from-port="2" to-layer="18" to-port="0"/>
		<edge from-layer="17" from-port="0" to-layer="18" to-port="1"/>
		<edge from-layer="18" from-port="2" to-layer="20" to-port="0"/>
		<edge from-layer="19" from-port="0" to-layer="20" to-port="1"/>
		<edge from-layer="20" from-port="2" to-layer="22" to-port="0"/>
		<edge from-layer="21" from-port="0" to-layer="22" to-port="1"/>
		<edge from-layer="22" from-port="2" to-layer="24" to-port="0"/>
		<edge from-layer="23" from-port="0" to-layer="24" to-port="1"/>
		<edge from-layer="24" from-port="2" to-layer="30" to-port="0"/>
		<edge from-layer="24" from-port="2" to-layer="25" to-port="0"/>
		<edge from-layer="24" from-port="2" to-layer="56" to-port="0"/>
		<edge from-layer="24" from-port="2" to-layer="40" to-port="0"/>
		<edge from-layer="24" from-port="2" to-layer="66" to-port="0"/>
		<edge from-layer="25" from-port="1" to-layer="29" to-port="0"/>
		<edge from-layer="26" from-port="0" to-layer="29" to-port="1"/>
		<edge from-layer="27" from-port="0" to-layer="29" to-port="2"/>
		<edge from-layer="28" from-port="0" to-layer="29" to-port="3"/>
		<edge from-layer="29" from-port="4" to-layer="50" to-port="0"/>
		<edge from-layer="30" from-port="1" to-layer="33" to-port="0"/>
		<edge from-layer="31" from-port="0" to-layer="33" to-port="1"/>
		<edge from-layer="32" from-port="0" to-layer="33" to-port="2"/>
		<edge from-layer="33" from-port="3" to-layer="34" to-port="0"/>
		<edge from-layer="34" from-port="1" to-layer="36" to-port="0"/>
		<edge from-layer="35" from-port="0" to-layer="36" to-port="1"/>
		<edge from-layer="36" from-port="2" to-layer="37" to-port="0"/>
		<edge from-layer="37" from-port="1" to-layer="39" to-port="0"/>
		<edge from-layer="38" from-port="0" to-layer="39" to-port="1"/>
		<edge from-layer="39" from-port="2" to-layer="48" to-port="0"/>
		<edge from-layer="40" from-port="1" to-layer="43" to-port="0"/>
		<edge from-layer="41" from-port="0" to-layer="43" to-port="1"/>
		<edge from-layer="42" from-port="0" to-layer="43" to-port="2"/>
		<edge from-layer="43" from-port="3" to-layer="44" to-port="0"/>
		<edge from-layer="44" from-port="1" to-layer="45" to-port="0"/>
		<edge from-layer="45" from-port="1" to-layer="47" to-port="0"/>
		<edge from-layer="46" from-port="0" to-layer="47" to-port="1"/>
		<edge from-layer="47" from-port="2" to-layer="48" to-port="1"/>
		<edge from-layer="48" from-port="2" to-layer="49" to-port="0"/>
		<edge from-layer="49" from-port="1" to-layer="50" to-port="1"/>
		<edge from-layer="50" from-port="2" to-layer="55" to-port="0"/>
		<edge from-layer="50" from-port="2" to-layer="54" to-port="0"/>
		<edge from-layer="51" from-port="0" to-layer="54" to-port="1"/>
		<edge from-layer="52" from-port="0" to-layer="54" to-port="2"/>
		<edge from-layer="53" from-port="0" to-layer="54" to-port="3"/>
		<edge from-layer="54" from-port="4" to-layer="66" to-port="1"/>
		<edge from-layer="55" from-port="1" to-layer="58" to-port="0"/>
		<edge from-layer="56" from-port="1" to-layer="57" to-port="0"/>
		<edge from-layer="57" from-port="1" to-layer="58" to-port="1"/>
		<edge from-layer="58" from-port="2" to-layer="60" to-port="0"/>
		<edge from-layer="59" from-port="0" to-layer="60" to-port="1"/>
		<edge from-layer="60" from-port="2" to-layer="64" to-port="0"/>
		<edge from-layer="61" from-port="0" to-layer="64" to-port="1"/>
		<edge from-layer="62" from-port="0" to-layer="64" to-port="2"/>
		<edge from-layer="63" from-port="0" to-layer="64" to-port="3"/>
		<edge from-layer="64" from-port="4" to-layer="66" to-port="2"/>
		<edge from-layer="65" from-port="0" to-layer="66" to-port="3"/>
		<edge from-layer="66" from-port="4" to-layer="68" to-port="0"/>
		<edge from-layer="67" from-port="0" to-layer="68" to-port="1"/>
		<edge from-layer="68" from-port="2" to-layer="70" to-port="0"/>
		<edge from-layer="69" from-port="0" to-layer="70" to-port="1"/>
		<edge from-layer="70" from-port="2" to-layer="72" to-port="0"/>
		<edge from-layer="71" from-port="0" to-layer="72" to-port="1"/>
		<edge from-layer="72" from-port="2" to-layer="78" to-port="0"/>
		<edge from-layer="72" from-port="2" to-layer="74" to-port="0"/>
		<edge from-layer="73" from-port="0" to-layer="74" to-port="1"/>
		<edge from-layer="74" from-port="2" to-layer="76" to-port="0"/>
		<edge from-layer="75" from-port="0" to-layer="76" to-port="1"/>
		<edge from-layer="76" from-port="2" to-layer="93" to-port="0"/>
		<edge from-layer="77" from-port="0" to-layer="78" to-port="1"/>
		<edge from-layer="78" from-port="2" to-layer="82" to-port="0"/>
		<edge from-layer="79" from-port="0" to-layer="82" to-port="1"/>
		<edge from-layer="80" from-port="0" to-layer="82" to-port="2"/>
		<edge from-layer="81" from-port="0" to-layer="82" to-port="3"/>
		<edge from-layer="82" from-port="4" to-layer="84" to-port="0"/>
		<edge from-layer="83" from-port="0" to-layer="84" to-port="1"/>
		<edge from-layer="84" from-port="2" to-layer="86" to-port="0"/>
		<edge from-layer="85" from-port="0" to-layer="86" to-port="1"/>
		<edge from-layer="86" from-port="2" to-layer="88" to-port="0"/>
		<edge from-layer="87" from-port="0" to-layer="88" to-port="1"/>
		<edge from-layer="88" from-port="2" to-layer="90" to-port="0"/>
		<edge from-layer="89" from-port="0" to-layer="90" to-port="1"/>
		<edge from-layer="90" from-port="2" to-layer="92" to-port="0"/>
		<edge from-layer="91" from-port="0" to-layer="92" to-port="1"/>
		<edge from-layer="92" from-port="2" to-layer="93" to-port="1"/>
		<edge from-layer="93" from-port="2" to-layer="95" to-port="0"/>
		<edge from-layer="93" from-port="2" to-layer="99" to-port="0"/>
		<edge from-layer="94" from-port="0" to-layer="95" to-port="1"/>
		<edge from-layer="95" from-port="2" to-layer="97" to-port="0"/>
		<edge from-layer="96" from-port="0" to-layer="97" to-port="1"/>
		<edge from-layer="97" from-port="2" to-layer="114" to-port="0"/>
		<edge from-layer="98" from-port="0" to-layer="99" to-port="1"/>
		<edge from-layer="99" from-port="2" to-layer="103" to-port="0"/>
		<edge from-layer="100" from-port="0" to-layer="103" to-port="1"/>
		<edge from-layer="101" from-port="0" to-layer="103" to-port="2"/>
		<edge from-layer="102" from-port="0" to-layer="103" to-port="3"/>
		<edge from-layer="103" from-port="4" to-layer="105" to-port="0"/>
		<edge from-layer="104" from-port="0" to-layer="105" to-port="1"/>
		<edge from-layer="105" from-port="2" to-layer="107" to-port="0"/>
		<edge from-layer="106" from-port="0" to-layer="107" to-port="1"/>
		<edge from-layer="107" from-port="2" to-layer="109" to-port="0"/>
		<edge from-layer="108" from-port="0" to-layer="109" to-port="1"/>
		<edge from-layer="109" from-port="2" to-layer="111" to-port="0"/>
		<edge from-layer="110" from-port="0" to-layer="111" to-port="1"/>
		<edge from-layer="111" from-port="2" to-layer="113" to-port="0"/>
		<edge from-layer="112" from-port="0" to-layer="113" to-port="1"/>
		<edge from-layer="113" from-port="2" to-layer="114" to-port="1"/>
		<edge from-layer="114" from-port="2" to-layer="116" to-port="0"/>
		<edge from-layer="114" from-port="2" to-layer="120" to-port="0"/>
		<edge from-layer="115" from-port="0" to-layer="116" to-port="1"/>
		<edge from-layer="116" from-port="2" to-layer="118" to-port="0"/>
		<edge from-layer="117" from-port="0" to-layer="118" to-port="1"/>
		<edge from-layer="118" from-port="2" to-layer="135" to-port="0"/>
		<edge from-layer="119" from-port="0" to-layer="120" to-port="1"/>
		<edge from-layer="120" from-port="2" to-layer="124" to-port="0"/>
		<edge from-layer="121" from-port="0" to-layer="124" to-port="1"/>
		<edge from-layer="122" from-port="0" to-layer="124" to-port="2"/>
		<edge from-layer="123" from-port="0" to-layer="124" to-port="3"/>
		<edge from-layer="124" from-port="4" to-layer="126" to-port="0"/>
		<edge from-layer="125" from-port="0" to-layer="126" to-port="1"/>
		<edge from-layer="126" from-port="2" to-layer="128" to-port="0"/>
		<edge from-layer="127" from-port="0" to-layer="128" to-port="1"/>
		<edge from-layer="128" from-port="2" to-layer="130" to-port="0"/>
		<edge from-layer="129" from-port="0" to-layer="130" to-port="1"/>
		<edge from-layer="130" from-port="2" to-layer="132" to-port="0"/>
		<edge from-layer="131" from-port="0" to-layer="132" to-port="1"/>
		<edge from-layer="132" from-port="2" to-layer="134" to-port="0"/>
		<edge from-layer="133" from-port="0" to-layer="134" to-port="1"/>
		<edge from-layer="134" from-port="2" to-layer="135" to-port="1"/>
		<edge from-layer="135" from-port="2" to-layer="137" to-port="0"/>
		<edge from-layer="136" from-port="0" to-layer="137" to-port="1"/>
		<edge from-layer="137" from-port="2" to-layer="139" to-port="0"/>
		<edge from-layer="138" from-port="0" to-layer="139" to-port="1"/>
		<edge from-layer="139" from-port="2" to-layer="141" to-port="0"/>
		<edge from-layer="140" from-port="0" to-layer="141" to-port="1"/>
		<edge from-layer="141" from-port="2" to-layer="143" to-port="0"/>
		<edge from-layer="142" from-port="0" to-layer="143" to-port="1"/>
		<edge from-layer="143" from-port="2" to-layer="144" to-port="0"/>
		<edge from-layer="143" from-port="2" to-layer="149" to-port="0"/>
		<edge from-layer="143" from-port="2" to-layer="175" to-port="0"/>
		<edge from-layer="143" from-port="2" to-layer="185" to-port="0"/>
		<edge from-layer="143" from-port="2" to-layer="159" to-port="0"/>
		<edge from-layer="144" from-port="1" to-layer="148" to-port="0"/>
		<edge from-layer="145" from-port="0" to-layer="148" to-port="1"/>
		<edge from-layer="146" from-port="0" to-layer="148" to-port="2"/>
		<edge from-layer="147" from-port="0" to-layer="148" to-port="3"/>
		<edge from-layer="148" from-port="4" to-layer="169" to-port="0"/>
		<edge from-layer="149" from-port="1" to-layer="152" to-port="0"/>
		<edge from-layer="150" from-port="0" to-layer="152" to-port="1"/>
		<edge from-layer="151" from-port="0" to-layer="152" to-port="2"/>
		<edge from-layer="152" from-port="3" to-layer="153" to-port="0"/>
		<edge from-layer="153" from-port="1" to-layer="155" to-port="0"/>
		<edge from-layer="154" from-port="0" to-layer="155" to-port="1"/>
		<edge from-layer="155" from-port="2" to-layer="156" to-port="0"/>
		<edge from-layer="156" from-port="1" to-layer="158" to-port="0"/>
		<edge from-layer="157" from-port="0" to-layer="158" to-port="1"/>
		<edge from-layer="158" from-port="2" to-layer="167" to-port="0"/>
		<edge from-layer="159" from-port="1" to-layer="162" to-port="0"/>
		<edge from-layer="160" from-port="0" to-layer="162" to-port="1"/>
		<edge from-layer="161" from-port="0" to-layer="162" to-port="2"/>
		<edge from-layer="162" from-port="3" to-layer="163" to-port="0"/>
		<edge from-layer="163" from-port="1" to-layer="164" to-port="0"/>
		<edge from-layer="164" from-port="1" to-layer="166" to-port="0"/>
		<edge from-layer="165" from-port="0" to-layer="166" to-port="1"/>
		<edge from-layer="166" from-port="2" to-layer="167" to-port="1"/>
		<edge from-layer="167" from-port="2" to-layer="168" to-port="0"/>
		<edge from-layer="168" from-port="1" to-layer="169" to-port="1"/>
		<edge from-layer="169" from-port="2" to-layer="173" to-port="0"/>
		<edge from-layer="169" from-port="2" to-layer="174" to-port="0"/>
		<edge from-layer="170" from-port="0" to-layer="173" to-port="1"/>
		<edge from-layer="171" from-port="0" to-layer="173" to-port="2"/>
		<edge from-layer="172" from-port="0" to-layer="173" to-port="3"/>
		<edge from-layer="173" from-port="4" to-layer="185" to-port="1"/>
		<edge from-layer="174" from-port="1" to-layer="177" to-port="0"/>
		<edge from-layer="175" from-port="1" to-layer="176" to-port="0"/>
		<edge from-layer="176" from-port="1" to-layer="177" to-port="1"/>
		<edge from-layer="177" from-port="2" to-layer="179" to-port="0"/>
		<edge from-layer="178" from-port="0" to-layer="179" to-port="1"/>
		<edge from-layer="179" from-port="2" to-layer="183" to-port="0"/>
		<edge from-layer="180" from-port="0" to-layer="183" to-port="1"/>
		<edge from-layer="181" from-port="0" to-layer="183" to-port="2"/>
		<edge from-layer="182" from-port="0" to-layer="183" to-port="3"/>
		<edge from-layer="183" from-port="4" to-layer="185" to-port="2"/>
		<edge from-layer="184" from-port="0" to-layer="185" to-port="3"/>
		<edge from-layer="185" from-port="4" to-layer="187" to-port="0"/>
		<edge from-layer="186" from-port="0" to-layer="187" to-port="1"/>
		<edge from-layer="187" from-port="2" to-layer="189" to-port="0"/>
		<edge from-layer="188" from-port="0" to-layer="189" to-port="1"/>
		<edge from-layer="189" from-port="2" to-layer="191" to-port="0"/>
		<edge from-layer="190" from-port="0" to-layer="191" to-port="1"/>
		<edge from-layer="191" from-port="2" to-layer="193" to-port="0"/>
		<edge from-layer="191" from-port="2" to-layer="197" to-port="0"/>
		<edge from-layer="192" from-port="0" to-layer="193" to-port="1"/>
		<edge from-layer="193" from-port="2" to-layer="195" to-port="0"/>
		<edge from-layer="194" from-port="0" to-layer="195" to-port="1"/>
		<edge from-layer="195" from-port="2" to-layer="212" to-port="0"/>
		<edge from-layer="196" from-port="0" to-layer="197" to-port="1"/>
		<edge from-layer="197" from-port="2" to-layer="201" to-port="0"/>
		<edge from-layer="198" from-port="0" to-layer="201" to-port="1"/>
		<edge from-layer="199" from-port="0" to-layer="201" to-port="2"/>
		<edge from-layer="200" from-port="0" to-layer="201" to-port="3"/>
		<edge from-layer="201" from-port="4" to-layer="203" to-port="0"/>
		<edge from-layer="202" from-port="0" to-layer="203" to-port="1"/>
		<edge from-layer="203" from-port="2" to-layer="205" to-port="0"/>
		<edge from-layer="204" from-port="0" to-layer="205" to-port="1"/>
		<edge from-layer="205" from-port="2" to-layer="207" to-port="0"/>
		<edge from-layer="206" from-port="0" to-layer="207" to-port="1"/>
		<edge from-layer="207" from-port="2" to-layer="209" to-port="0"/>
		<edge from-layer="208" from-port="0" to-layer="209" to-port="1"/>
		<edge from-layer="209" from-port="2" to-layer="211" to-port="0"/>
		<edge from-layer="210" from-port="0" to-layer="211" to-port="1"/>
		<edge from-layer="211" from-port="2" to-layer="212" to-port="1"/>
		<edge from-layer="212" from-port="2" to-layer="214" to-port="0"/>
		<edge from-layer="212" from-port="2" to-layer="218" to-port="0"/>
		<edge from-layer="213" from-port="0" to-layer="214" to-port="1"/>
		<edge from-layer="214" from-port="2" to-layer="216" to-port="0"/>
		<edge from-layer="215" from-port="0" to-layer="216" to-port="1"/>
		<edge from-layer="216" from-port="2" to-layer="233" to-port="0"/>
		<edge from-layer="217" from-port="0" to-layer="218" to-port="1"/>
		<edge from-layer="218" from-port="2" to-layer="222" to-port="0"/>
		<edge from-layer="219" from-port="0" to-layer="222" to-port="1"/>
		<edge from-layer="220" from-port="0" to-layer="222" to-port="2"/>
		<edge from-layer="221" from-port="0" to-layer="222" to-port="3"/>
		<edge from-layer="222" from-port="4" to-layer="224" to-port="0"/>
		<edge from-layer="223" from-port="0" to-layer="224" to-port="1"/>
		<edge from-layer="224" from-port="2" to-layer="226" to-port="0"/>
		<edge from-layer="225" from-port="0" to-layer="226" to-port="1"/>
		<edge from-layer="226" from-port="2" to-layer="228" to-port="0"/>
		<edge from-layer="227" from-port="0" to-layer="228" to-port="1"/>
		<edge from-layer="228" from-port="2" to-layer="230" to-port="0"/>
		<edge from-layer="229" from-port="0" to-layer="230" to-port="1"/>
		<edge from-layer="230" from-port="2" to-layer="232" to-port="0"/>
		<edge from-layer="231" from-port="0" to-layer="232" to-port="1"/>
		<edge from-layer="232" from-port="2" to-layer="233" to-port="1"/>
		<edge from-layer="233" from-port="2" to-layer="235" to-port="0"/>
		<edge from-layer="233" from-port="2" to-layer="239" to-port="0"/>
		<edge from-layer="234" from-port="0" to-layer="235" to-port="1"/>
		<edge from-layer="235" from-port="2" to-layer="237" to-port="0"/>
		<edge from-layer="236" from-port="0" to-layer="237" to-port="1"/>
		<edge from-layer="237" from-port="2" to-layer="254" to-port="0"/>
		<edge from-layer="238" from-port="0" to-layer="239" to-port="1"/>
		<edge from-layer="239" from-port="2" to-layer="243" to-port="0"/>
		<edge from-layer="240" from-port="0" to-layer="243" to-port="1"/>
		<edge from-layer="241" from-port="0" to-layer="243" to-port="2"/>
		<edge from-layer="242" from-port="0" to-layer="243" to-port="3"/>
		<edge from-layer="243" from-port="4" to-layer="245" to-port="0"/>
		<edge from-layer="244" from-port="0" to-layer="245" to-port="1"/>
		<edge from-layer="245" from-port="2" to-layer="247" to-port="0"/>
		<edge from-layer="246" from-port="0" to-layer="247" to-port="1"/>
		<edge from-layer="247" from-port="2" to-layer="249" to-port="0"/>
		<edge from-layer="248" from-port="0" to-layer="249" to-port="1"/>
		<edge from-layer="249" from-port="2" to-layer="251" to-port="0"/>
		<edge from-layer="250" from-port="0" to-layer="251" to-port="1"/>
		<edge from-layer="251" from-port="2" to-layer="253" to-port="0"/>
		<edge from-layer="252" from-port="0" to-layer="253" to-port="1"/>
		<edge from-layer="253" from-port="2" to-layer="254" to-port="1"/>
		<edge from-layer="254" from-port="2" to-layer="256" to-port="0"/>
		<edge from-layer="255" from-port="0" to-layer="256" to-port="1"/>
		<edge from-layer="256" from-port="2" to-layer="258" to-port="0"/>
		<edge from-layer="257" from-port="0" to-layer="258" to-port="1"/>
		<edge from-layer="258" from-port="2" to-layer="260" to-port="0"/>
		<edge from-layer="259" from-port="0" to-layer="260" to-port="1"/>
		<edge from-layer="260" from-port="2" to-layer="262" to-port="0"/>
		<edge from-layer="261" from-port="0" to-layer="262" to-port="1"/>
		<edge from-layer="262" from-port="2" to-layer="304" to-port="0"/>
		<edge from-layer="262" from-port="2" to-layer="294" to-port="0"/>
		<edge from-layer="262" from-port="2" to-layer="278" to-port="0"/>
		<edge from-layer="262" from-port="2" to-layer="268" to-port="0"/>
		<edge from-layer="262" from-port="2" to-layer="263" to-port="0"/>
		<edge from-layer="263" from-port="1" to-layer="267" to-port="0"/>
		<edge from-layer="264" from-port="0" to-layer="267" to-port="1"/>
		<edge from-layer="265" from-port="0" to-layer="267" to-port="2"/>
		<edge from-layer="266" from-port="0" to-layer="267" to-port="3"/>
		<edge from-layer="267" from-port="4" to-layer="288" to-port="0"/>
		<edge from-layer="268" from-port="1" to-layer="271" to-port="0"/>
		<edge from-layer="269" from-port="0" to-layer="271" to-port="1"/>
		<edge from-layer="270" from-port="0" to-layer="271" to-port="2"/>
		<edge from-layer="271" from-port="3" to-layer="272" to-port="0"/>
		<edge from-layer="272" from-port="1" to-layer="274" to-port="0"/>
		<edge from-layer="273" from-port="0" to-layer="274" to-port="1"/>
		<edge from-layer="274" from-port="2" to-layer="275" to-port="0"/>
		<edge from-layer="275" from-port="1" to-layer="277" to-port="0"/>
		<edge from-layer="276" from-port="0" to-layer="277" to-port="1"/>
		<edge from-layer="277" from-port="2" to-layer="286" to-port="0"/>
		<edge from-layer="278" from-port="1" to-layer="281" to-port="0"/>
		<edge from-layer="279" from-port="0" to-layer="281" to-port="1"/>
		<edge from-layer="280" from-port="0" to-layer="281" to-port="2"/>
		<edge from-layer="281" from-port="3" to-layer="282" to-port="0"/>
		<edge from-layer="282" from-port="1" to-layer="283" to-port="0"/>
		<edge from-layer="283" from-port="1" to-layer="285" to-port="0"/>
		<edge from-layer="284" from-port="0" to-layer="285" to-port="1"/>
		<edge from-layer="285" from-port="2" to-layer="286" to-port="1"/>
		<edge from-layer="286" from-port="2" to-layer="287" to-port="0"/>
		<edge from-layer="287" from-port="1" to-layer="288" to-port="1"/>
		<edge from-layer="288" from-port="2" to-layer="292" to-port="0"/>
		<edge from-layer="288" from-port="2" to-layer="293" to-port="0"/>
		<edge from-layer="289" from-port="0" to-layer="292" to-port="1"/>
		<edge from-layer="290" from-port="0" to-layer="292" to-port="2"/>
		<edge from-layer="291" from-port="0" to-layer="292" to-port="3"/>
		<edge from-layer="292" from-port="4" to-layer="304" to-port="1"/>
		<edge from-layer="293" from-port="1" to-layer="296" to-port="0"/>
		<edge from-layer="294" from-port="1" to-layer="295" to-port="0"/>
		<edge from-layer="295" from-port="1" to-layer="296" to-port="1"/>
		<edge from-layer="296" from-port="2" to-layer="298" to-port="0"/>
		<edge from-layer="297" from-port="0" to-layer="298" to-port="1"/>
		<edge from-layer="298" from-port="2" to-layer="302" to-port="0"/>
		<edge from-layer="299" from-port="0" to-layer="302" to-port="1"/>
		<edge from-layer="300" from-port="0" to-layer="302" to-port="2"/>
		<edge from-layer="301" from-port="0" to-layer="302" to-port="3"/>
		<edge from-layer="302" from-port="4" to-layer="304" to-port="2"/>
		<edge from-layer="303" from-port="0" to-layer="304" to-port="3"/>
		<edge from-layer="304" from-port="4" to-layer="306" to-port="0"/>
		<edge from-layer="305" from-port="0" to-layer="306" to-port="1"/>
		<edge from-layer="306" from-port="2" to-layer="308" to-port="0"/>
		<edge from-layer="307" from-port="0" to-layer="308" to-port="1"/>
		<edge from-layer="308" from-port="2" to-layer="310" to-port="0"/>
		<edge from-layer="309" from-port="0" to-layer="310" to-port="1"/>
		<edge from-layer="310" from-port="2" to-layer="312" to-port="0"/>
		<edge from-layer="310" from-port="2" to-layer="316" to-port="0"/>
		<edge from-layer="311" from-port="0" to-layer="312" to-port="1"/>
		<edge from-layer="312" from-port="2" to-layer="314" to-port="0"/>
		<edge from-layer="313" from-port="0" to-layer="314" to-port="1"/>
		<edge from-layer="314" from-port="2" to-layer="331" to-port="0"/>
		<edge from-layer="315" from-port="0" to-layer="316" to-port="1"/>
		<edge from-layer="316" from-port="2" to-layer="320" to-port="0"/>
		<edge from-layer="317" from-port="0" to-layer="320" to-port="1"/>
		<edge from-layer="318" from-port="0" to-layer="320" to-port="2"/>
		<edge from-layer="319" from-port="0" to-layer="320" to-port="3"/>
		<edge from-layer="320" from-port="4" to-layer="322" to-port="0"/>
		<edge from-layer="321" from-port="0" to-layer="322" to-port="1"/>
		<edge from-layer="322" from-port="2" to-layer="324" to-port="0"/>
		<edge from-layer="323" from-port="0" to-layer="324" to-port="1"/>
		<edge from-layer="324" from-port="2" to-layer="326" to-port="0"/>
		<edge from-layer="325" from-port="0" to-layer="326" to-port="1"/>
		<edge from-layer="326" from-port="2" to-layer="328" to-port="0"/>
		<edge from-layer="327" from-port="0" to-layer="328" to-port="1"/>
		<edge from-layer="328" from-port="2" to-layer="330" to-port="0"/>
		<edge from-layer="329" from-port="0" to-layer="330" to-port="1"/>
		<edge from-layer="330" from-port="2" to-layer="331" to-port="1"/>
		<edge from-layer="331" from-port="2" to-layer="333" to-port="0"/>
		<edge from-layer="331" from-port="2" to-layer="337" to-port="0"/>
		<edge from-layer="332" from-port="0" to-layer="333" to-port="1"/>
		<edge from-layer="333" from-port="2" to-layer="335" to-port="0"/>
		<edge from-layer="334" from-port="0" to-layer="335" to-port="1"/>
		<edge from-layer="335" from-port="2" to-layer="352" to-port="0"/>
		<edge from-layer="336" from-port="0" to-layer="337" to-port="1"/>
		<edge from-layer="337" from-port="2" to-layer="341" to-port="0"/>
		<edge from-layer="338" from-port="0" to-layer="341" to-port="1"/>
		<edge from-layer="339" from-port="0" to-layer="341" to-port="2"/>
		<edge from-layer="340" from-port="0" to-layer="341" to-port="3"/>
		<edge from-layer="341" from-port="4" to-layer="343" to-port="0"/>
		<edge from-layer="342" from-port="0" to-layer="343" to-port="1"/>
		<edge from-layer="343" from-port="2" to-layer="345" to-port="0"/>
		<edge from-layer="344" from-port="0" to-layer="345" to-port="1"/>
		<edge from-layer="345" from-port="2" to-layer="347" to-port="0"/>
		<edge from-layer="346" from-port="0" to-layer="347" to-port="1"/>
		<edge from-layer="347" from-port="2" to-layer="349" to-port="0"/>
		<edge from-layer="348" from-port="0" to-layer="349" to-port="1"/>
		<edge from-layer="349" from-port="2" to-layer="351" to-port="0"/>
		<edge from-layer="350" from-port="0" to-layer="351" to-port="1"/>
		<edge from-layer="351" from-port="2" to-layer="352" to-port="1"/>
		<edge from-layer="352" from-port="2" to-layer="358" to-port="0"/>
		<edge from-layer="352" from-port="2" to-layer="354" to-port="0"/>
		<edge from-layer="353" from-port="0" to-layer="354" to-port="1"/>
		<edge from-layer="354" from-port="2" to-layer="356" to-port="0"/>
		<edge from-layer="355" from-port="0" to-layer="356" to-port="1"/>
		<edge from-layer="356" from-port="2" to-layer="373" to-port="0"/>
		<edge from-layer="357" from-port="0" to-layer="358" to-port="1"/>
		<edge from-layer="358" from-port="2" to-layer="362" to-port="0"/>
		<edge from-layer="359" from-port="0" to-layer="362" to-port="1"/>
		<edge from-layer="360" from-port="0" to-layer="362" to-port="2"/>
		<edge from-layer="361" from-port="0" to-layer="362" to-port="3"/>
		<edge from-layer="362" from-port="4" to-layer="364" to-port="0"/>
		<edge from-layer="363" from-port="0" to-layer="364" to-port="1"/>
		<edge from-layer="364" from-port="2" to-layer="366" to-port="0"/>
		<edge from-layer="365" from-port="0" to-layer="366" to-port="1"/>
		<edge from-layer="366" from-port="2" to-layer="368" to-port="0"/>
		<edge from-layer="367" from-port="0" to-layer="368" to-port="1"/>
		<edge from-layer="368" from-port="2" to-layer="370" to-port="0"/>
		<edge from-layer="369" from-port="0" to-layer="370" to-port="1"/>
		<edge from-layer="370" from-port="2" to-layer="372" to-port="0"/>
		<edge from-layer="371" from-port="0" to-layer="372" to-port="1"/>
		<edge from-layer="372" from-port="2" to-layer="373" to-port="1"/>
		<edge from-layer="373" from-port="2" to-layer="375" to-port="0"/>
		<edge from-layer="374" from-port="0" to-layer="375" to-port="1"/>
		<edge from-layer="375" from-port="2" to-layer="377" to-port="0"/>
		<edge from-layer="376" from-port="0" to-layer="377" to-port="1"/>
		<edge from-layer="377" from-port="2" to-layer="379" to-port="0"/>
		<edge from-layer="378" from-port="0" to-layer="379" to-port="1"/>
		<edge from-layer="379" from-port="2" to-layer="381" to-port="0"/>
		<edge from-layer="380" from-port="0" to-layer="381" to-port="1"/>
		<edge from-layer="381" from-port="2" to-layer="382" to-port="0"/>
		<edge from-layer="381" from-port="2" to-layer="387" to-port="0"/>
		<edge from-layer="381" from-port="2" to-layer="423" to-port="0"/>
		<edge from-layer="381" from-port="2" to-layer="413" to-port="0"/>
		<edge from-layer="381" from-port="2" to-layer="397" to-port="0"/>
		<edge from-layer="382" from-port="1" to-layer="386" to-port="0"/>
		<edge from-layer="383" from-port="0" to-layer="386" to-port="1"/>
		<edge from-layer="384" from-port="0" to-layer="386" to-port="2"/>
		<edge from-layer="385" from-port="0" to-layer="386" to-port="3"/>
		<edge from-layer="386" from-port="4" to-layer="407" to-port="0"/>
		<edge from-layer="387" from-port="1" to-layer="390" to-port="0"/>
		<edge from-layer="388" from-port="0" to-layer="390" to-port="1"/>
		<edge from-layer="389" from-port="0" to-layer="390" to-port="2"/>
		<edge from-layer="390" from-port="3" to-layer="391" to-port="0"/>
		<edge from-layer="391" from-port="1" to-layer="393" to-port="0"/>
		<edge from-layer="392" from-port="0" to-layer="393" to-port="1"/>
		<edge from-layer="393" from-port="2" to-layer="394" to-port="0"/>
		<edge from-layer="394" from-port="1" to-layer="396" to-port="0"/>
		<edge from-layer="395" from-port="0" to-layer="396" to-port="1"/>
		<edge from-layer="396" from-port="2" to-layer="405" to-port="0"/>
		<edge from-layer="397" from-port="1" to-layer="400" to-port="0"/>
		<edge from-layer="398" from-port="0" to-layer="400" to-port="1"/>
		<edge from-layer="399" from-port="0" to-layer="400" to-port="2"/>
		<edge from-layer="400" from-port="3" to-layer="401" to-port="0"/>
		<edge from-layer="401" from-port="1" to-layer="402" to-port="0"/>
		<edge from-layer="402" from-port="1" to-layer="404" to-port="0"/>
		<edge from-layer="403" from-port="0" to-layer="404" to-port="1"/>
		<edge from-layer="404" from-port="2" to-layer="405" to-port="1"/>
		<edge from-layer="405" from-port="2" to-layer="406" to-port="0"/>
		<edge from-layer="406" from-port="1" to-layer="407" to-port="1"/>
		<edge from-layer="407" from-port="2" to-layer="411" to-port="0"/>
		<edge from-layer="407" from-port="2" to-layer="412" to-port="0"/>
		<edge from-layer="408" from-port="0" to-layer="411" to-port="1"/>
		<edge from-layer="409" from-port="0" to-layer="411" to-port="2"/>
		<edge from-layer="410" from-port="0" to-layer="411" to-port="3"/>
		<edge from-layer="411" from-port="4" to-layer="423" to-port="1"/>
		<edge from-layer="412" from-port="1" to-layer="415" to-port="0"/>
		<edge from-layer="413" from-port="1" to-layer="414" to-port="0"/>
		<edge from-layer="414" from-port="1" to-layer="415" to-port="1"/>
		<edge from-layer="415" from-port="2" to-layer="417" to-port="0"/>
		<edge from-layer="416" from-port="0" to-layer="417" to-port="1"/>
		<edge from-layer="417" from-port="2" to-layer="421" to-port="0"/>
		<edge from-layer="418" from-port="0" to-layer="421" to-port="1"/>
		<edge from-layer="419" from-port="0" to-layer="421" to-port="2"/>
		<edge from-layer="420" from-port="0" to-layer="421" to-port="3"/>
		<edge from-layer="421" from-port="4" to-layer="423" to-port="2"/>
		<edge from-layer="422" from-port="0" to-layer="423" to-port="3"/>
		<edge from-layer="423" from-port="4" to-layer="425" to-port="0"/>
		<edge from-layer="424" from-port="0" to-layer="425" to-port="1"/>
		<edge from-layer="425" from-port="2" to-layer="427" to-port="0"/>
		<edge from-layer="426" from-port="0" to-layer="427" to-port="1"/>
		<edge from-layer="427" from-port="2" to-layer="429" to-port="0"/>
		<edge from-layer="428" from-port="0" to-layer="429" to-port="1"/>
		<edge from-layer="429" from-port="2" to-layer="431" to-port="0"/>
		<edge from-layer="429" from-port="2" to-layer="435" to-port="0"/>
		<edge from-layer="430" from-port="0" to-layer="431" to-port="1"/>
		<edge from-layer="431" from-port="2" to-layer="433" to-port="0"/>
		<edge from-layer="432" from-port="0" to-layer="433" to-port="1"/>
		<edge from-layer="433" from-port="2" to-layer="450" to-port="0"/>
		<edge from-layer="434" from-port="0" to-layer="435" to-port="1"/>
		<edge from-layer="435" from-port="2" to-layer="439" to-port="0"/>
		<edge from-layer="436" from-port="0" to-layer="439" to-port="1"/>
		<edge from-layer="437" from-port="0" to-layer="439" to-port="2"/>
		<edge from-layer="438" from-port="0" to-layer="439" to-port="3"/>
		<edge from-layer="439" from-port="4" to-layer="441" to-port="0"/>
		<edge from-layer="440" from-port="0" to-layer="441" to-port="1"/>
		<edge from-layer="441" from-port="2" to-layer="443" to-port="0"/>
		<edge from-layer="442" from-port="0" to-layer="443" to-port="1"/>
		<edge from-layer="443" from-port="2" to-layer="445" to-port="0"/>
		<edge from-layer="444" from-port="0" to-layer="445" to-port="1"/>
		<edge from-layer="445" from-port="2" to-layer="447" to-port="0"/>
		<edge from-layer="446" from-port="0" to-layer="447" to-port="1"/>
		<edge from-layer="447" from-port="2" to-layer="449" to-port="0"/>
		<edge from-layer="448" from-port="0" to-layer="449" to-port="1"/>
		<edge from-layer="449" from-port="2" to-layer="450" to-port="1"/>
		<edge from-layer="450" from-port="2" to-layer="456" to-port="0"/>
		<edge from-layer="450" from-port="2" to-layer="452" to-port="0"/>
		<edge from-layer="451" from-port="0" to-layer="452" to-port="1"/>
		<edge from-layer="452" from-port="2" to-layer="454" to-port="0"/>
		<edge from-layer="453" from-port="0" to-layer="454" to-port="1"/>
		<edge from-layer="454" from-port="2" to-layer="471" to-port="0"/>
		<edge from-layer="455" from-port="0" to-layer="456" to-port="1"/>
		<edge from-layer="456" from-port="2" to-layer="460" to-port="0"/>
		<edge from-layer="457" from-port="0" to-layer="460" to-port="1"/>
		<edge from-layer="458" from-port="0" to-layer="460" to-port="2"/>
		<edge from-layer="459" from-port="0" to-layer="460" to-port="3"/>
		<edge from-layer="460" from-port="4" to-layer="462" to-port="0"/>
		<edge from-layer="461" from-port="0" to-layer="462" to-port="1"/>
		<edge from-layer="462" from-port="2" to-layer="464" to-port="0"/>
		<edge from-layer="463" from-port="0" to-layer="464" to-port="1"/>
		<edge from-layer="464" from-port="2" to-layer="466" to-port="0"/>
		<edge from-layer="465" from-port="0" to-layer="466" to-port="1"/>
		<edge from-layer="466" from-port="2" to-layer="468" to-port="0"/>
		<edge from-layer="467" from-port="0" to-layer="468" to-port="1"/>
		<edge from-layer="468" from-port="2" to-layer="470" to-port="0"/>
		<edge from-layer="469" from-port="0" to-layer="470" to-port="1"/>
		<edge from-layer="470" from-port="2" to-layer="471" to-port="1"/>
		<edge from-layer="471" from-port="2" to-layer="473" to-port="0"/>
		<edge from-layer="471" from-port="2" to-layer="477" to-port="0"/>
		<edge from-layer="472" from-port="0" to-layer="473" to-port="1"/>
		<edge from-layer="473" from-port="2" to-layer="475" to-port="0"/>
		<edge from-layer="474" from-port="0" to-layer="475" to-port="1"/>
		<edge from-layer="475" from-port="2" to-layer="492" to-port="0"/>
		<edge from-layer="476" from-port="0" to-layer="477" to-port="1"/>
		<edge from-layer="477" from-port="2" to-layer="481" to-port="0"/>
		<edge from-layer="478" from-port="0" to-layer="481" to-port="1"/>
		<edge from-layer="479" from-port="0" to-layer="481" to-port="2"/>
		<edge from-layer="480" from-port="0" to-layer="481" to-port="3"/>
		<edge from-layer="481" from-port="4" to-layer="483" to-port="0"/>
		<edge from-layer="482" from-port="0" to-layer="483" to-port="1"/>
		<edge from-layer="483" from-port="2" to-layer="485" to-port="0"/>
		<edge from-layer="484" from-port="0" to-layer="485" to-port="1"/>
		<edge from-layer="485" from-port="2" to-layer="487" to-port="0"/>
		<edge from-layer="486" from-port="0" to-layer="487" to-port="1"/>
		<edge from-layer="487" from-port="2" to-layer="489" to-port="0"/>
		<edge from-layer="488" from-port="0" to-layer="489" to-port="1"/>
		<edge from-layer="489" from-port="2" to-layer="491" to-port="0"/>
		<edge from-layer="490" from-port="0" to-layer="491" to-port="1"/>
		<edge from-layer="491" from-port="2" to-layer="492" to-port="1"/>
		<edge from-layer="492" from-port="2" to-layer="494" to-port="0"/>
		<edge from-layer="493" from-port="0" to-layer="494" to-port="1"/>
		<edge from-layer="494" from-port="2" to-layer="498" to-port="0"/>
		<edge from-layer="495" from-port="0" to-layer="498" to-port="1"/>
		<edge from-layer="496" from-port="0" to-layer="498" to-port="2"/>
		<edge from-layer="497" from-port="0" to-layer="498" to-port="3"/>
		<edge from-layer="498" from-port="4" to-layer="500" to-port="0"/>
		<edge from-layer="499" from-port="0" to-layer="500" to-port="1"/>
		<edge from-layer="500" from-port="2" to-layer="502" to-port="0"/>
		<edge from-layer="501" from-port="0" to-layer="502" to-port="1"/>
		<edge from-layer="502" from-port="2" to-layer="503" to-port="0"/>
		<edge from-layer="503" from-port="1" to-layer="505" to-port="0"/>
		<edge from-layer="504" from-port="0" to-layer="505" to-port="1"/>
		<edge from-layer="505" from-port="2" to-layer="509" to-port="0"/>
		<edge from-layer="506" from-port="0" to-layer="509" to-port="1"/>
		<edge from-layer="507" from-port="0" to-layer="509" to-port="2"/>
		<edge from-layer="508" from-port="0" to-layer="509" to-port="3"/>
		<edge from-layer="509" from-port="4" to-layer="511" to-port="0"/>
		<edge from-layer="510" from-port="0" to-layer="511" to-port="1"/>
		<edge from-layer="511" from-port="2" to-layer="512" to-port="0"/>
		<edge from-layer="512" from-port="1" to-layer="513" to-port="0"/>
	</edges>
	<meta_data>
		<MO_version value="2021.4.0-3827-c5b65f2cb1d-releases/2021/4"/>
		<cli_parameters>
			<caffe_parser_path value="DIR"/>
			<data_type value="FP16"/>
			<disable_nhwc_to_nchw value="False"/>
			<disable_omitting_optional value="False"/>
			<disable_resnet_optimization value="False"/>
			<disable_weights_compression value="False"/>
			<enable_concat_optimization value="False"/>
			<enable_flattening_nested_params value="False"/>
			<enable_ssd_gluoncv value="False"/>
			<extensions value="DIR"/>
			<framework value="onnx"/>
			<freeze_placeholder_with_value value="{}"/>
			<generate_deprecated_IR_V7 value="False"/>
			<input value="mel"/>
			<input_model value="DIR/model.onnx"/>
			<input_model_is_text value="False"/>
			<input_shape value="[1,80,128]"/>
			<k value="DIR/CustomLayersMapping.xml"/>
			<keep_shape_ops value="True"/>
			<legacy_ir_generation value="False"/>
			<legacy_mxnet_model value="False"/>
			<log_level value="ERROR"/>
			<mean_scale_values value="{}"/>
			<mean_values value="()"/>
			<model_name value="text-to-speech-en-0001-generation"/>
			<output value="['audio']"/>
			<output_dir value="DIR"/>
			<placeholder_data_types value="{}"/>
			<placeholder_shapes value="{'mel': array([  1,  80, 128])}"/>
			<progress value="False"/>
			<remove_memory value="False"/>
			<remove_output_softmax value="False"/>
			<reverse_input_channels value="False"/>
			<save_params_from_nd value="False"/>
			<scale_values value="()"/>
			<silent value="False"/>
			<static_shape value="False"/>
			<stream_output value="False"/>
			<transform value=""/>
			<unset unset_cli_parameters="batch, counts, disable_fusing, disable_gfusing, finegrain_fusing, input_checkpoint, input_meta_graph, input_proto, input_symbol, mean_file, mean_file_offsets, move_to_preprocess, nd_prefix_name, pretrained_model_name, saved_model_dir, saved_model_tags, scale, tensorboard_logdir, tensorflow_custom_layer_libraries, tensorflow_custom_operations_config_update, tensorflow_object_detection_api_pipeline_config, tensorflow_use_custom_operations_config, transformations_config"/>
		</cli_parameters>
	</meta_data>
</net>
