<?xml version="1.0" ?>
<net name="text-to-speech-en-0001-duration-prediction" version="10">
	<layers>
		<layer id="0" name="pos_mask" type="Parameter" version="opset1">
			<data element_type="f16" shape="1, 1, 512, 512"/>
			<output>
				<port id="0" names="pos_mask" precision="FP16">
					<dim>1</dim>
					<dim>1</dim>
					<dim>512</dim>
					<dim>512</dim>
				</port>
			</output>
		</layer>
		<layer id="1" name="input_mask" type="Parameter" version="opset1">
			<data element_type="f16" shape="1, 1, 512"/>
			<output>
				<port id="0" names="input_mask" precision="FP16">
					<dim>1</dim>
					<dim>1</dim>
					<dim>512</dim>
				</port>
			</output>
		</layer>
		<layer id="2" name="input_seq" type="Parameter" version="opset1">
			<data element_type="i32" shape="1, 512"/>
			<output>
				<port id="0" names="input_seq" precision="I32">
					<dim>1</dim>
					<dim>512</dim>
				</port>
			</output>
		</layer>
		<layer id="3" name="model.embedding.weight" type="Const" version="opset1">
			<data element_type="f16" offset="0" shape="148, 256" size="75776"/>
			<output>
				<port id="0" names="model.embedding.weight" precision="FP16">
					<dim>148</dim>
					<dim>256</dim>
				</port>
			</output>
		</layer>
		<layer id="4" name="Gather_0/axis" type="Const" version="opset1">
			<data element_type="i64" offset="75776" shape="" size="8"/>
			<output>
				<port id="0" precision="I64"/>
			</output>
		</layer>
		<layer id="5" name="Gather_01188" type="Gather" version="opset7">
			<data batch_dims="0"/>
			<input>
				<port id="0" precision="FP16">
					<dim>148</dim>
					<dim>256</dim>
				</port>
				<port id="1" precision="I32">
					<dim>1</dim>
					<dim>512</dim>
				</port>
				<port id="2" precision="I64"/>
			</input>
			<output>
				<port id="3" names="402" precision="FP16">
					<dim>1</dim>
					<dim>512</dim>
					<dim>256</dim>
				</port>
			</output>
		</layer>
		<layer id="6" name="925" type="Const" version="opset1">
			<data element_type="i64" offset="75784" shape="3" size="24"/>
			<output>
				<port id="0" precision="I64">
					<dim>3</dim>
				</port>
			</output>
		</layer>
		<layer id="7" name="Transpose_342" type="Transpose" version="opset1">
			<input>
				<port id="0" precision="FP16">
					<dim>1</dim>
					<dim>512</dim>
					<dim>256</dim>
				</port>
				<port id="1" precision="I64">
					<dim>3</dim>
				</port>
			</input>
			<output>
				<port id="2" names="841" precision="FP16">
					<dim>1</dim>
					<dim>256</dim>
					<dim>512</dim>
				</port>
			</output>
		</layer>
		<layer id="8" name="LeakyRelu_343/weights2597339324" type="Const" version="opset1">
			<data element_type="f32" offset="75808" shape="1" size="4"/>
			<output>
				<port id="0" precision="FP32">
					<dim>1</dim>
				</port>
			</output>
		</layer>
		<layer id="9" name="LeakyRelu_343" type="PReLU" version="opset1">
			<input>
				<port id="0" precision="FP16">
					<dim>1</dim>
					<dim>256</dim>
					<dim>512</dim>
				</port>
				<port id="1" precision="FP32">
					<dim>1</dim>
				</port>
			</input>
			<output>
				<port id="2" names="842" precision="FP16">
					<dim>1</dim>
					<dim>256</dim>
					<dim>512</dim>
				</port>
			</output>
		</layer>
		<layer id="10" name="model.prenet.dilation_stack.blocks.0.1.weight" type="Const" version="opset1">
			<data element_type="f16" offset="75812" shape="256, 256, 1" size="131072"/>
			<output>
				<port id="0" names="model.prenet.dilation_stack.blocks.0.1.weight" precision="FP16">
					<dim>256</dim>
					<dim>256</dim>
					<dim>1</dim>
				</port>
			</output>
		</layer>
		<layer id="11" name="Conv_344/WithoutBiases" type="Convolution" version="opset1">
			<data auto_pad="explicit" dilations="1" pads_begin="0" pads_end="0" strides="1"/>
			<input>
				<port id="0" precision="FP16">
					<dim>1</dim>
					<dim>256</dim>
					<dim>512</dim>
				</port>
				<port id="1" precision="FP16">
					<dim>256</dim>
					<dim>256</dim>
					<dim>1</dim>
				</port>
			</input>
			<output>
				<port id="2" precision="FP16">
					<dim>1</dim>
					<dim>256</dim>
					<dim>512</dim>
				</port>
			</output>
		</layer>
		<layer id="12" name="Conv_344/Dims9583" type="Const" version="opset1">
			<data element_type="f16" offset="206884" shape="1, 256, 1" size="512"/>
			<output>
				<port id="0" precision="FP16">
					<dim>1</dim>
					<dim>256</dim>
					<dim>1</dim>
				</port>
			</output>
		</layer>
		<layer id="13" name="Conv_344" type="Add" version="opset1">
			<data auto_broadcast="numpy"/>
			<input>
				<port id="0" precision="FP16">
					<dim>1</dim>
					<dim>256</dim>
					<dim>512</dim>
				</port>
				<port id="1" precision="FP16">
					<dim>1</dim>
					<dim>256</dim>
					<dim>1</dim>
				</port>
			</input>
			<output>
				<port id="2" names="843" precision="FP16">
					<dim>1</dim>
					<dim>256</dim>
					<dim>512</dim>
				</port>
			</output>
		</layer>
		<layer id="14" name="LeakyRelu_345/weights2598938478" type="Const" version="opset1">
			<data element_type="f32" offset="75808" shape="1" size="4"/>
			<output>
				<port id="0" precision="FP32">
					<dim>1</dim>
				</port>
			</output>
		</layer>
		<layer id="15" name="LeakyRelu_345" type="PReLU" version="opset1">
			<input>
				<port id="0" precision="FP16">
					<dim>1</dim>
					<dim>256</dim>
					<dim>512</dim>
				</port>
				<port id="1" precision="FP32">
					<dim>1</dim>
				</port>
			</input>
			<output>
				<port id="2" names="844" precision="FP16">
					<dim>1</dim>
					<dim>256</dim>
					<dim>512</dim>
				</port>
			</output>
		</layer>
		<layer id="16" name="model.prenet.dilation_stack.blocks.0.3.weight" type="Const" version="opset1">
			<data element_type="f16" offset="207396" shape="256, 256, 1" size="131072"/>
			<output>
				<port id="0" names="model.prenet.dilation_stack.blocks.0.3.weight" precision="FP16">
					<dim>256</dim>
					<dim>256</dim>
					<dim>1</dim>
				</port>
			</output>
		</layer>
		<layer id="17" name="Conv_346/WithoutBiases" type="Convolution" version="opset1">
			<data auto_pad="explicit" dilations="1" pads_begin="0" pads_end="0" strides="1"/>
			<input>
				<port id="0" precision="FP16">
					<dim>1</dim>
					<dim>256</dim>
					<dim>512</dim>
				</port>
				<port id="1" precision="FP16">
					<dim>256</dim>
					<dim>256</dim>
					<dim>1</dim>
				</port>
			</input>
			<output>
				<port id="2" precision="FP16">
					<dim>1</dim>
					<dim>256</dim>
					<dim>512</dim>
				</port>
			</output>
		</layer>
		<layer id="18" name="Conv_346/Dims9469" type="Const" version="opset1">
			<data element_type="f16" offset="338468" shape="1, 256, 1" size="512"/>
			<output>
				<port id="0" precision="FP16">
					<dim>1</dim>
					<dim>256</dim>
					<dim>1</dim>
				</port>
			</output>
		</layer>
		<layer id="19" name="Conv_346" type="Add" version="opset1">
			<data auto_broadcast="numpy"/>
			<input>
				<port id="0" precision="FP16">
					<dim>1</dim>
					<dim>256</dim>
					<dim>512</dim>
				</port>
				<port id="1" precision="FP16">
					<dim>1</dim>
					<dim>256</dim>
					<dim>1</dim>
				</port>
			</input>
			<output>
				<port id="2" names="845" precision="FP16">
					<dim>1</dim>
					<dim>256</dim>
					<dim>512</dim>
				</port>
			</output>
		</layer>
		<layer id="20" name="model.prenet.dilation_stack.shortcuts.0.weight" type="Const" version="opset1">
			<data element_type="f16" offset="338980" shape="256, 256, 1" size="131072"/>
			<output>
				<port id="0" names="model.prenet.dilation_stack.shortcuts.0.weight" precision="FP16">
					<dim>256</dim>
					<dim>256</dim>
					<dim>1</dim>
				</port>
			</output>
		</layer>
		<layer id="21" name="Conv_347/WithoutBiases" type="Convolution" version="opset1">
			<data auto_pad="explicit" dilations="1" pads_begin="0" pads_end="0" strides="1"/>
			<input>
				<port id="0" precision="FP16">
					<dim>1</dim>
					<dim>256</dim>
					<dim>512</dim>
				</port>
				<port id="1" precision="FP16">
					<dim>256</dim>
					<dim>256</dim>
					<dim>1</dim>
				</port>
			</input>
			<output>
				<port id="2" precision="FP16">
					<dim>1</dim>
					<dim>256</dim>
					<dim>512</dim>
				</port>
			</output>
		</layer>
		<layer id="22" name="Conv_347/Dims9361" type="Const" version="opset1">
			<data element_type="f16" offset="470052" shape="1, 256, 1" size="512"/>
			<output>
				<port id="0" precision="FP16">
					<dim>1</dim>
					<dim>256</dim>
					<dim>1</dim>
				</port>
			</output>
		</layer>
		<layer id="23" name="Conv_347" type="Add" version="opset1">
			<data auto_broadcast="numpy"/>
			<input>
				<port id="0" precision="FP16">
					<dim>1</dim>
					<dim>256</dim>
					<dim>512</dim>
				</port>
				<port id="1" precision="FP16">
					<dim>1</dim>
					<dim>256</dim>
					<dim>1</dim>
				</port>
			</input>
			<output>
				<port id="2" names="846" precision="FP16">
					<dim>1</dim>
					<dim>256</dim>
					<dim>512</dim>
				</port>
			</output>
		</layer>
		<layer id="24" name="Add_348" type="Add" version="opset1">
			<data auto_broadcast="numpy"/>
			<input>
				<port id="0" precision="FP16">
					<dim>1</dim>
					<dim>256</dim>
					<dim>512</dim>
				</port>
				<port id="1" precision="FP16">
					<dim>1</dim>
					<dim>256</dim>
					<dim>512</dim>
				</port>
			</input>
			<output>
				<port id="2" names="847" precision="FP16">
					<dim>1</dim>
					<dim>256</dim>
					<dim>512</dim>
				</port>
			</output>
		</layer>
		<layer id="25" name="LeakyRelu_349/weights2595738844" type="Const" version="opset1">
			<data element_type="f32" offset="75808" shape="1" size="4"/>
			<output>
				<port id="0" precision="FP32">
					<dim>1</dim>
				</port>
			</output>
		</layer>
		<layer id="26" name="LeakyRelu_349" type="PReLU" version="opset1">
			<input>
				<port id="0" precision="FP16">
					<dim>1</dim>
					<dim>256</dim>
					<dim>512</dim>
				</port>
				<port id="1" precision="FP32">
					<dim>1</dim>
				</port>
			</input>
			<output>
				<port id="2" names="848" precision="FP16">
					<dim>1</dim>
					<dim>256</dim>
					<dim>512</dim>
				</port>
			</output>
		</layer>
		<layer id="27" name="model.prenet.dilation_stack.blocks.1.1.weight" type="Const" version="opset1">
			<data element_type="f16" offset="470564" shape="256, 256, 3" size="393216"/>
			<output>
				<port id="0" names="model.prenet.dilation_stack.blocks.1.1.weight" precision="FP16">
					<dim>256</dim>
					<dim>256</dim>
					<dim>3</dim>
				</port>
			</output>
		</layer>
		<layer id="28" name="Conv_350/WithoutBiases" type="Convolution" version="opset1">
			<data auto_pad="explicit" dilations="1" pads_begin="1" pads_end="1" strides="1"/>
			<input>
				<port id="0" precision="FP16">
					<dim>1</dim>
					<dim>256</dim>
					<dim>512</dim>
				</port>
				<port id="1" precision="FP16">
					<dim>256</dim>
					<dim>256</dim>
					<dim>3</dim>
				</port>
			</input>
			<output>
				<port id="2" precision="FP16">
					<dim>1</dim>
					<dim>256</dim>
					<dim>512</dim>
				</port>
			</output>
		</layer>
		<layer id="29" name="Conv_350/Dims9673" type="Const" version="opset1">
			<data element_type="f16" offset="863780" shape="1, 256, 1" size="512"/>
			<output>
				<port id="0" precision="FP16">
					<dim>1</dim>
					<dim>256</dim>
					<dim>1</dim>
				</port>
			</output>
		</layer>
		<layer id="30" name="Conv_350" type="Add" version="opset1">
			<data auto_broadcast="numpy"/>
			<input>
				<port id="0" precision="FP16">
					<dim>1</dim>
					<dim>256</dim>
					<dim>512</dim>
				</port>
				<port id="1" precision="FP16">
					<dim>1</dim>
					<dim>256</dim>
					<dim>1</dim>
				</port>
			</input>
			<output>
				<port id="2" names="849" precision="FP16">
					<dim>1</dim>
					<dim>256</dim>
					<dim>512</dim>
				</port>
			</output>
		</layer>
		<layer id="31" name="LeakyRelu_351/weights2592939141" type="Const" version="opset1">
			<data element_type="f32" offset="75808" shape="1" size="4"/>
			<output>
				<port id="0" precision="FP32">
					<dim>1</dim>
				</port>
			</output>
		</layer>
		<layer id="32" name="LeakyRelu_351" type="PReLU" version="opset1">
			<input>
				<port id="0" precision="FP16">
					<dim>1</dim>
					<dim>256</dim>
					<dim>512</dim>
				</port>
				<port id="1" precision="FP32">
					<dim>1</dim>
				</port>
			</input>
			<output>
				<port id="2" names="850" precision="FP16">
					<dim>1</dim>
					<dim>256</dim>
					<dim>512</dim>
				</port>
			</output>
		</layer>
		<layer id="33" name="model.prenet.dilation_stack.blocks.1.3.weight" type="Const" version="opset1">
			<data element_type="f16" offset="864292" shape="256, 256, 1" size="131072"/>
			<output>
				<port id="0" names="model.prenet.dilation_stack.blocks.1.3.weight" precision="FP16">
					<dim>256</dim>
					<dim>256</dim>
					<dim>1</dim>
				</port>
			</output>
		</layer>
		<layer id="34" name="Conv_352/WithoutBiases" type="Convolution" version="opset1">
			<data auto_pad="explicit" dilations="1" pads_begin="0" pads_end="0" strides="1"/>
			<input>
				<port id="0" precision="FP16">
					<dim>1</dim>
					<dim>256</dim>
					<dim>512</dim>
				</port>
				<port id="1" precision="FP16">
					<dim>256</dim>
					<dim>256</dim>
					<dim>1</dim>
				</port>
			</input>
			<output>
				<port id="2" precision="FP16">
					<dim>1</dim>
					<dim>256</dim>
					<dim>512</dim>
				</port>
			</output>
		</layer>
		<layer id="35" name="Conv_352/Dims9445" type="Const" version="opset1">
			<data element_type="f16" offset="995364" shape="1, 256, 1" size="512"/>
			<output>
				<port id="0" precision="FP16">
					<dim>1</dim>
					<dim>256</dim>
					<dim>1</dim>
				</port>
			</output>
		</layer>
		<layer id="36" name="Conv_352" type="Add" version="opset1">
			<data auto_broadcast="numpy"/>
			<input>
				<port id="0" precision="FP16">
					<dim>1</dim>
					<dim>256</dim>
					<dim>512</dim>
				</port>
				<port id="1" precision="FP16">
					<dim>1</dim>
					<dim>256</dim>
					<dim>1</dim>
				</port>
			</input>
			<output>
				<port id="2" names="851" precision="FP16">
					<dim>1</dim>
					<dim>256</dim>
					<dim>512</dim>
				</port>
			</output>
		</layer>
		<layer id="37" name="model.prenet.dilation_stack.shortcuts.1.weight" type="Const" version="opset1">
			<data element_type="f16" offset="995876" shape="256, 256, 1" size="131072"/>
			<output>
				<port id="0" names="model.prenet.dilation_stack.shortcuts.1.weight" precision="FP16">
					<dim>256</dim>
					<dim>256</dim>
					<dim>1</dim>
				</port>
			</output>
		</layer>
		<layer id="38" name="Conv_353/WithoutBiases" type="Convolution" version="opset1">
			<data auto_pad="explicit" dilations="1" pads_begin="0" pads_end="0" strides="1"/>
			<input>
				<port id="0" precision="FP16">
					<dim>1</dim>
					<dim>256</dim>
					<dim>512</dim>
				</port>
				<port id="1" precision="FP16">
					<dim>256</dim>
					<dim>256</dim>
					<dim>1</dim>
				</port>
			</input>
			<output>
				<port id="2" precision="FP16">
					<dim>1</dim>
					<dim>256</dim>
					<dim>512</dim>
				</port>
			</output>
		</layer>
		<layer id="39" name="Conv_353/Dims9565" type="Const" version="opset1">
			<data element_type="f16" offset="1126948" shape="1, 256, 1" size="512"/>
			<output>
				<port id="0" precision="FP16">
					<dim>1</dim>
					<dim>256</dim>
					<dim>1</dim>
				</port>
			</output>
		</layer>
		<layer id="40" name="Conv_353" type="Add" version="opset1">
			<data auto_broadcast="numpy"/>
			<input>
				<port id="0" precision="FP16">
					<dim>1</dim>
					<dim>256</dim>
					<dim>512</dim>
				</port>
				<port id="1" precision="FP16">
					<dim>1</dim>
					<dim>256</dim>
					<dim>1</dim>
				</port>
			</input>
			<output>
				<port id="2" names="852" precision="FP16">
					<dim>1</dim>
					<dim>256</dim>
					<dim>512</dim>
				</port>
			</output>
		</layer>
		<layer id="41" name="Add_354" type="Add" version="opset1">
			<data auto_broadcast="numpy"/>
			<input>
				<port id="0" precision="FP16">
					<dim>1</dim>
					<dim>256</dim>
					<dim>512</dim>
				</port>
				<port id="1" precision="FP16">
					<dim>1</dim>
					<dim>256</dim>
					<dim>512</dim>
				</port>
			</input>
			<output>
				<port id="2" names="853" precision="FP16">
					<dim>1</dim>
					<dim>256</dim>
					<dim>512</dim>
				</port>
			</output>
		</layer>
		<layer id="42" name="LeakyRelu_355/weights2592538421" type="Const" version="opset1">
			<data element_type="f32" offset="75808" shape="1" size="4"/>
			<output>
				<port id="0" precision="FP32">
					<dim>1</dim>
				</port>
			</output>
		</layer>
		<layer id="43" name="LeakyRelu_355" type="PReLU" version="opset1">
			<input>
				<port id="0" precision="FP16">
					<dim>1</dim>
					<dim>256</dim>
					<dim>512</dim>
				</port>
				<port id="1" precision="FP32">
					<dim>1</dim>
				</port>
			</input>
			<output>
				<port id="2" names="854" precision="FP16">
					<dim>1</dim>
					<dim>256</dim>
					<dim>512</dim>
				</port>
			</output>
		</layer>
		<layer id="44" name="model.prenet.dilation_stack.blocks.2.1.weight" type="Const" version="opset1">
			<data element_type="f16" offset="1127460" shape="256, 256, 5" size="655360"/>
			<output>
				<port id="0" names="model.prenet.dilation_stack.blocks.2.1.weight" precision="FP16">
					<dim>256</dim>
					<dim>256</dim>
					<dim>5</dim>
				</port>
			</output>
		</layer>
		<layer id="45" name="Conv_356/WithoutBiases" type="Convolution" version="opset1">
			<data auto_pad="explicit" dilations="1" pads_begin="2" pads_end="2" strides="1"/>
			<input>
				<port id="0" precision="FP16">
					<dim>1</dim>
					<dim>256</dim>
					<dim>512</dim>
				</port>
				<port id="1" precision="FP16">
					<dim>256</dim>
					<dim>256</dim>
					<dim>5</dim>
				</port>
			</input>
			<output>
				<port id="2" precision="FP16">
					<dim>1</dim>
					<dim>256</dim>
					<dim>512</dim>
				</port>
			</output>
		</layer>
		<layer id="46" name="Conv_356/Dims9301" type="Const" version="opset1">
			<data element_type="f16" offset="1782820" shape="1, 256, 1" size="512"/>
			<output>
				<port id="0" precision="FP16">
					<dim>1</dim>
					<dim>256</dim>
					<dim>1</dim>
				</port>
			</output>
		</layer>
		<layer id="47" name="Conv_356" type="Add" version="opset1">
			<data auto_broadcast="numpy"/>
			<input>
				<port id="0" precision="FP16">
					<dim>1</dim>
					<dim>256</dim>
					<dim>512</dim>
				</port>
				<port id="1" precision="FP16">
					<dim>1</dim>
					<dim>256</dim>
					<dim>1</dim>
				</port>
			</input>
			<output>
				<port id="2" names="855" precision="FP16">
					<dim>1</dim>
					<dim>256</dim>
					<dim>512</dim>
				</port>
			</output>
		</layer>
		<layer id="48" name="LeakyRelu_357/weights2597738772" type="Const" version="opset1">
			<data element_type="f32" offset="75808" shape="1" size="4"/>
			<output>
				<port id="0" precision="FP32">
					<dim>1</dim>
				</port>
			</output>
		</layer>
		<layer id="49" name="LeakyRelu_357" type="PReLU" version="opset1">
			<input>
				<port id="0" precision="FP16">
					<dim>1</dim>
					<dim>256</dim>
					<dim>512</dim>
				</port>
				<port id="1" precision="FP32">
					<dim>1</dim>
				</port>
			</input>
			<output>
				<port id="2" names="856" precision="FP16">
					<dim>1</dim>
					<dim>256</dim>
					<dim>512</dim>
				</port>
			</output>
		</layer>
		<layer id="50" name="model.prenet.dilation_stack.blocks.2.3.weight" type="Const" version="opset1">
			<data element_type="f16" offset="1783332" shape="256, 256, 1" size="131072"/>
			<output>
				<port id="0" names="model.prenet.dilation_stack.blocks.2.3.weight" precision="FP16">
					<dim>256</dim>
					<dim>256</dim>
					<dim>1</dim>
				</port>
			</output>
		</layer>
		<layer id="51" name="Conv_358/WithoutBiases" type="Convolution" version="opset1">
			<data auto_pad="explicit" dilations="1" pads_begin="0" pads_end="0" strides="1"/>
			<input>
				<port id="0" precision="FP16">
					<dim>1</dim>
					<dim>256</dim>
					<dim>512</dim>
				</port>
				<port id="1" precision="FP16">
					<dim>256</dim>
					<dim>256</dim>
					<dim>1</dim>
				</port>
			</input>
			<output>
				<port id="2" precision="FP16">
					<dim>1</dim>
					<dim>256</dim>
					<dim>512</dim>
				</port>
			</output>
		</layer>
		<layer id="52" name="Conv_358/Dims9403" type="Const" version="opset1">
			<data element_type="f16" offset="1914404" shape="1, 256, 1" size="512"/>
			<output>
				<port id="0" precision="FP16">
					<dim>1</dim>
					<dim>256</dim>
					<dim>1</dim>
				</port>
			</output>
		</layer>
		<layer id="53" name="Conv_358" type="Add" version="opset1">
			<data auto_broadcast="numpy"/>
			<input>
				<port id="0" precision="FP16">
					<dim>1</dim>
					<dim>256</dim>
					<dim>512</dim>
				</port>
				<port id="1" precision="FP16">
					<dim>1</dim>
					<dim>256</dim>
					<dim>1</dim>
				</port>
			</input>
			<output>
				<port id="2" names="857" precision="FP16">
					<dim>1</dim>
					<dim>256</dim>
					<dim>512</dim>
				</port>
			</output>
		</layer>
		<layer id="54" name="model.prenet.dilation_stack.shortcuts.2.weight" type="Const" version="opset1">
			<data element_type="f16" offset="1914916" shape="256, 256, 1" size="131072"/>
			<output>
				<port id="0" names="model.prenet.dilation_stack.shortcuts.2.weight" precision="FP16">
					<dim>256</dim>
					<dim>256</dim>
					<dim>1</dim>
				</port>
			</output>
		</layer>
		<layer id="55" name="Conv_359/WithoutBiases" type="Convolution" version="opset1">
			<data auto_pad="explicit" dilations="1" pads_begin="0" pads_end="0" strides="1"/>
			<input>
				<port id="0" precision="FP16">
					<dim>1</dim>
					<dim>256</dim>
					<dim>512</dim>
				</port>
				<port id="1" precision="FP16">
					<dim>256</dim>
					<dim>256</dim>
					<dim>1</dim>
				</port>
			</input>
			<output>
				<port id="2" precision="FP16">
					<dim>1</dim>
					<dim>256</dim>
					<dim>512</dim>
				</port>
			</output>
		</layer>
		<layer id="56" name="Conv_359/Dims9415" type="Const" version="opset1">
			<data element_type="f16" offset="2045988" shape="1, 256, 1" size="512"/>
			<output>
				<port id="0" precision="FP16">
					<dim>1</dim>
					<dim>256</dim>
					<dim>1</dim>
				</port>
			</output>
		</layer>
		<layer id="57" name="Conv_359" type="Add" version="opset1">
			<data auto_broadcast="numpy"/>
			<input>
				<port id="0" precision="FP16">
					<dim>1</dim>
					<dim>256</dim>
					<dim>512</dim>
				</port>
				<port id="1" precision="FP16">
					<dim>1</dim>
					<dim>256</dim>
					<dim>1</dim>
				</port>
			</input>
			<output>
				<port id="2" names="858" precision="FP16">
					<dim>1</dim>
					<dim>256</dim>
					<dim>512</dim>
				</port>
			</output>
		</layer>
		<layer id="58" name="Add_360" type="Add" version="opset1">
			<data auto_broadcast="numpy"/>
			<input>
				<port id="0" precision="FP16">
					<dim>1</dim>
					<dim>256</dim>
					<dim>512</dim>
				</port>
				<port id="1" precision="FP16">
					<dim>1</dim>
					<dim>256</dim>
					<dim>512</dim>
				</port>
			</input>
			<output>
				<port id="2" names="859" precision="FP16">
					<dim>1</dim>
					<dim>256</dim>
					<dim>512</dim>
				</port>
			</output>
		</layer>
		<layer id="59" name="LeakyRelu_361/weights2596938943" type="Const" version="opset1">
			<data element_type="f32" offset="75808" shape="1" size="4"/>
			<output>
				<port id="0" precision="FP32">
					<dim>1</dim>
				</port>
			</output>
		</layer>
		<layer id="60" name="LeakyRelu_361" type="PReLU" version="opset1">
			<input>
				<port id="0" precision="FP16">
					<dim>1</dim>
					<dim>256</dim>
					<dim>512</dim>
				</port>
				<port id="1" precision="FP32">
					<dim>1</dim>
				</port>
			</input>
			<output>
				<port id="2" names="860" precision="FP16">
					<dim>1</dim>
					<dim>256</dim>
					<dim>512</dim>
				</port>
			</output>
		</layer>
		<layer id="61" name="model.prenet.dilation_stack.blocks.3.1.weight" type="Const" version="opset1">
			<data element_type="f16" offset="2046500" shape="256, 256, 7" size="917504"/>
			<output>
				<port id="0" names="model.prenet.dilation_stack.blocks.3.1.weight" precision="FP16">
					<dim>256</dim>
					<dim>256</dim>
					<dim>7</dim>
				</port>
			</output>
		</layer>
		<layer id="62" name="Conv_362/WithoutBiases" type="Convolution" version="opset1">
			<data auto_pad="explicit" dilations="2" pads_begin="6" pads_end="6" strides="1"/>
			<input>
				<port id="0" precision="FP16">
					<dim>1</dim>
					<dim>256</dim>
					<dim>512</dim>
				</port>
				<port id="1" precision="FP16">
					<dim>256</dim>
					<dim>256</dim>
					<dim>7</dim>
				</port>
			</input>
			<output>
				<port id="2" precision="FP16">
					<dim>1</dim>
					<dim>256</dim>
					<dim>512</dim>
				</port>
			</output>
		</layer>
		<layer id="63" name="Conv_362/Dims9649" type="Const" version="opset1">
			<data element_type="f16" offset="2964004" shape="1, 256, 1" size="512"/>
			<output>
				<port id="0" precision="FP16">
					<dim>1</dim>
					<dim>256</dim>
					<dim>1</dim>
				</port>
			</output>
		</layer>
		<layer id="64" name="Conv_362" type="Add" version="opset1">
			<data auto_broadcast="numpy"/>
			<input>
				<port id="0" precision="FP16">
					<dim>1</dim>
					<dim>256</dim>
					<dim>512</dim>
				</port>
				<port id="1" precision="FP16">
					<dim>1</dim>
					<dim>256</dim>
					<dim>1</dim>
				</port>
			</input>
			<output>
				<port id="2" names="861" precision="FP16">
					<dim>1</dim>
					<dim>256</dim>
					<dim>512</dim>
				</port>
			</output>
		</layer>
		<layer id="65" name="LeakyRelu_363/weights2598539369" type="Const" version="opset1">
			<data element_type="f32" offset="75808" shape="1" size="4"/>
			<output>
				<port id="0" precision="FP32">
					<dim>1</dim>
				</port>
			</output>
		</layer>
		<layer id="66" name="LeakyRelu_363" type="PReLU" version="opset1">
			<input>
				<port id="0" precision="FP16">
					<dim>1</dim>
					<dim>256</dim>
					<dim>512</dim>
				</port>
				<port id="1" precision="FP32">
					<dim>1</dim>
				</port>
			</input>
			<output>
				<port id="2" names="862" precision="FP16">
					<dim>1</dim>
					<dim>256</dim>
					<dim>512</dim>
				</port>
			</output>
		</layer>
		<layer id="67" name="model.prenet.dilation_stack.blocks.3.3.weight" type="Const" version="opset1">
			<data element_type="f16" offset="2964516" shape="256, 256, 1" size="131072"/>
			<output>
				<port id="0" names="model.prenet.dilation_stack.blocks.3.3.weight" precision="FP16">
					<dim>256</dim>
					<dim>256</dim>
					<dim>1</dim>
				</port>
			</output>
		</layer>
		<layer id="68" name="Conv_364/WithoutBiases" type="Convolution" version="opset1">
			<data auto_pad="explicit" dilations="1" pads_begin="0" pads_end="0" strides="1"/>
			<input>
				<port id="0" precision="FP16">
					<dim>1</dim>
					<dim>256</dim>
					<dim>512</dim>
				</port>
				<port id="1" precision="FP16">
					<dim>256</dim>
					<dim>256</dim>
					<dim>1</dim>
				</port>
			</input>
			<output>
				<port id="2" precision="FP16">
					<dim>1</dim>
					<dim>256</dim>
					<dim>512</dim>
				</port>
			</output>
		</layer>
		<layer id="69" name="Conv_364/Dims9571" type="Const" version="opset1">
			<data element_type="f16" offset="3095588" shape="1, 256, 1" size="512"/>
			<output>
				<port id="0" precision="FP16">
					<dim>1</dim>
					<dim>256</dim>
					<dim>1</dim>
				</port>
			</output>
		</layer>
		<layer id="70" name="Conv_364" type="Add" version="opset1">
			<data auto_broadcast="numpy"/>
			<input>
				<port id="0" precision="FP16">
					<dim>1</dim>
					<dim>256</dim>
					<dim>512</dim>
				</port>
				<port id="1" precision="FP16">
					<dim>1</dim>
					<dim>256</dim>
					<dim>1</dim>
				</port>
			</input>
			<output>
				<port id="2" names="863" precision="FP16">
					<dim>1</dim>
					<dim>256</dim>
					<dim>512</dim>
				</port>
			</output>
		</layer>
		<layer id="71" name="model.prenet.dilation_stack.shortcuts.3.weight" type="Const" version="opset1">
			<data element_type="f16" offset="3096100" shape="256, 256, 1" size="131072"/>
			<output>
				<port id="0" names="model.prenet.dilation_stack.shortcuts.3.weight" precision="FP16">
					<dim>256</dim>
					<dim>256</dim>
					<dim>1</dim>
				</port>
			</output>
		</layer>
		<layer id="72" name="Conv_365/WithoutBiases" type="Convolution" version="opset1">
			<data auto_pad="explicit" dilations="1" pads_begin="0" pads_end="0" strides="1"/>
			<input>
				<port id="0" precision="FP16">
					<dim>1</dim>
					<dim>256</dim>
					<dim>512</dim>
				</port>
				<port id="1" precision="FP16">
					<dim>256</dim>
					<dim>256</dim>
					<dim>1</dim>
				</port>
			</input>
			<output>
				<port id="2" precision="FP16">
					<dim>1</dim>
					<dim>256</dim>
					<dim>512</dim>
				</port>
			</output>
		</layer>
		<layer id="73" name="Conv_365/Dims9373" type="Const" version="opset1">
			<data element_type="f16" offset="3227172" shape="1, 256, 1" size="512"/>
			<output>
				<port id="0" precision="FP16">
					<dim>1</dim>
					<dim>256</dim>
					<dim>1</dim>
				</port>
			</output>
		</layer>
		<layer id="74" name="Conv_365" type="Add" version="opset1">
			<data auto_broadcast="numpy"/>
			<input>
				<port id="0" precision="FP16">
					<dim>1</dim>
					<dim>256</dim>
					<dim>512</dim>
				</port>
				<port id="1" precision="FP16">
					<dim>1</dim>
					<dim>256</dim>
					<dim>1</dim>
				</port>
			</input>
			<output>
				<port id="2" names="864" precision="FP16">
					<dim>1</dim>
					<dim>256</dim>
					<dim>512</dim>
				</port>
			</output>
		</layer>
		<layer id="75" name="Add_366" type="Add" version="opset1">
			<data auto_broadcast="numpy"/>
			<input>
				<port id="0" precision="FP16">
					<dim>1</dim>
					<dim>256</dim>
					<dim>512</dim>
				</port>
				<port id="1" precision="FP16">
					<dim>1</dim>
					<dim>256</dim>
					<dim>512</dim>
				</port>
			</input>
			<output>
				<port id="2" names="865" precision="FP16">
					<dim>1</dim>
					<dim>256</dim>
					<dim>512</dim>
				</port>
			</output>
		</layer>
		<layer id="76" name="LeakyRelu_367/weights2596538526" type="Const" version="opset1">
			<data element_type="f32" offset="75808" shape="1" size="4"/>
			<output>
				<port id="0" precision="FP32">
					<dim>1</dim>
				</port>
			</output>
		</layer>
		<layer id="77" name="LeakyRelu_367" type="PReLU" version="opset1">
			<input>
				<port id="0" precision="FP16">
					<dim>1</dim>
					<dim>256</dim>
					<dim>512</dim>
				</port>
				<port id="1" precision="FP32">
					<dim>1</dim>
				</port>
			</input>
			<output>
				<port id="2" names="866" precision="FP16">
					<dim>1</dim>
					<dim>256</dim>
					<dim>512</dim>
				</port>
			</output>
		</layer>
		<layer id="78" name="model.prenet.dilation_stack.blocks.4.1.weight" type="Const" version="opset1">
			<data element_type="f16" offset="3227684" shape="256, 256, 9" size="1179648"/>
			<output>
				<port id="0" names="model.prenet.dilation_stack.blocks.4.1.weight" precision="FP16">
					<dim>256</dim>
					<dim>256</dim>
					<dim>9</dim>
				</port>
			</output>
		</layer>
		<layer id="79" name="Conv_368/WithoutBiases" type="Convolution" version="opset1">
			<data auto_pad="explicit" dilations="2" pads_begin="8" pads_end="8" strides="1"/>
			<input>
				<port id="0" precision="FP16">
					<dim>1</dim>
					<dim>256</dim>
					<dim>512</dim>
				</port>
				<port id="1" precision="FP16">
					<dim>256</dim>
					<dim>256</dim>
					<dim>9</dim>
				</port>
			</input>
			<output>
				<port id="2" precision="FP16">
					<dim>1</dim>
					<dim>256</dim>
					<dim>512</dim>
				</port>
			</output>
		</layer>
		<layer id="80" name="Conv_368/Dims9559" type="Const" version="opset1">
			<data element_type="f16" offset="4407332" shape="1, 256, 1" size="512"/>
			<output>
				<port id="0" precision="FP16">
					<dim>1</dim>
					<dim>256</dim>
					<dim>1</dim>
				</port>
			</output>
		</layer>
		<layer id="81" name="Conv_368" type="Add" version="opset1">
			<data auto_broadcast="numpy"/>
			<input>
				<port id="0" precision="FP16">
					<dim>1</dim>
					<dim>256</dim>
					<dim>512</dim>
				</port>
				<port id="1" precision="FP16">
					<dim>1</dim>
					<dim>256</dim>
					<dim>1</dim>
				</port>
			</input>
			<output>
				<port id="2" names="867" precision="FP16">
					<dim>1</dim>
					<dim>256</dim>
					<dim>512</dim>
				</port>
			</output>
		</layer>
		<layer id="82" name="LeakyRelu_369/weights2598138598" type="Const" version="opset1">
			<data element_type="f32" offset="75808" shape="1" size="4"/>
			<output>
				<port id="0" precision="FP32">
					<dim>1</dim>
				</port>
			</output>
		</layer>
		<layer id="83" name="LeakyRelu_369" type="PReLU" version="opset1">
			<input>
				<port id="0" precision="FP16">
					<dim>1</dim>
					<dim>256</dim>
					<dim>512</dim>
				</port>
				<port id="1" precision="FP32">
					<dim>1</dim>
				</port>
			</input>
			<output>
				<port id="2" names="868" precision="FP16">
					<dim>1</dim>
					<dim>256</dim>
					<dim>512</dim>
				</port>
			</output>
		</layer>
		<layer id="84" name="model.prenet.dilation_stack.blocks.4.3.weight" type="Const" version="opset1">
			<data element_type="f16" offset="4407844" shape="256, 256, 1" size="131072"/>
			<output>
				<port id="0" names="model.prenet.dilation_stack.blocks.4.3.weight" precision="FP16">
					<dim>256</dim>
					<dim>256</dim>
					<dim>1</dim>
				</port>
			</output>
		</layer>
		<layer id="85" name="Conv_370/WithoutBiases" type="Convolution" version="opset1">
			<data auto_pad="explicit" dilations="1" pads_begin="0" pads_end="0" strides="1"/>
			<input>
				<port id="0" precision="FP16">
					<dim>1</dim>
					<dim>256</dim>
					<dim>512</dim>
				</port>
				<port id="1" precision="FP16">
					<dim>256</dim>
					<dim>256</dim>
					<dim>1</dim>
				</port>
			</input>
			<output>
				<port id="2" precision="FP16">
					<dim>1</dim>
					<dim>256</dim>
					<dim>512</dim>
				</port>
			</output>
		</layer>
		<layer id="86" name="Conv_370/Dims9529" type="Const" version="opset1">
			<data element_type="f16" offset="4538916" shape="1, 256, 1" size="512"/>
			<output>
				<port id="0" precision="FP16">
					<dim>1</dim>
					<dim>256</dim>
					<dim>1</dim>
				</port>
			</output>
		</layer>
		<layer id="87" name="Conv_370" type="Add" version="opset1">
			<data auto_broadcast="numpy"/>
			<input>
				<port id="0" precision="FP16">
					<dim>1</dim>
					<dim>256</dim>
					<dim>512</dim>
				</port>
				<port id="1" precision="FP16">
					<dim>1</dim>
					<dim>256</dim>
					<dim>1</dim>
				</port>
			</input>
			<output>
				<port id="2" names="869" precision="FP16">
					<dim>1</dim>
					<dim>256</dim>
					<dim>512</dim>
				</port>
			</output>
		</layer>
		<layer id="88" name="model.prenet.dilation_stack.shortcuts.4.weight" type="Const" version="opset1">
			<data element_type="f16" offset="4539428" shape="256, 256, 1" size="131072"/>
			<output>
				<port id="0" names="model.prenet.dilation_stack.shortcuts.4.weight" precision="FP16">
					<dim>256</dim>
					<dim>256</dim>
					<dim>1</dim>
				</port>
			</output>
		</layer>
		<layer id="89" name="Conv_371/WithoutBiases" type="Convolution" version="opset1">
			<data auto_pad="explicit" dilations="1" pads_begin="0" pads_end="0" strides="1"/>
			<input>
				<port id="0" precision="FP16">
					<dim>1</dim>
					<dim>256</dim>
					<dim>512</dim>
				</port>
				<port id="1" precision="FP16">
					<dim>256</dim>
					<dim>256</dim>
					<dim>1</dim>
				</port>
			</input>
			<output>
				<port id="2" precision="FP16">
					<dim>1</dim>
					<dim>256</dim>
					<dim>512</dim>
				</port>
			</output>
		</layer>
		<layer id="90" name="Conv_371/Dims9343" type="Const" version="opset1">
			<data element_type="f16" offset="4670500" shape="1, 256, 1" size="512"/>
			<output>
				<port id="0" precision="FP16">
					<dim>1</dim>
					<dim>256</dim>
					<dim>1</dim>
				</port>
			</output>
		</layer>
		<layer id="91" name="Conv_371" type="Add" version="opset1">
			<data auto_broadcast="numpy"/>
			<input>
				<port id="0" precision="FP16">
					<dim>1</dim>
					<dim>256</dim>
					<dim>512</dim>
				</port>
				<port id="1" precision="FP16">
					<dim>1</dim>
					<dim>256</dim>
					<dim>1</dim>
				</port>
			</input>
			<output>
				<port id="2" names="870" precision="FP16">
					<dim>1</dim>
					<dim>256</dim>
					<dim>512</dim>
				</port>
			</output>
		</layer>
		<layer id="92" name="Add_372" type="Add" version="opset1">
			<data auto_broadcast="numpy"/>
			<input>
				<port id="0" precision="FP16">
					<dim>1</dim>
					<dim>256</dim>
					<dim>512</dim>
				</port>
				<port id="1" precision="FP16">
					<dim>1</dim>
					<dim>256</dim>
					<dim>512</dim>
				</port>
			</input>
			<output>
				<port id="2" names="871" precision="FP16">
					<dim>1</dim>
					<dim>256</dim>
					<dim>512</dim>
				</port>
			</output>
		</layer>
		<layer id="93" name="LeakyRelu_373/weights2591739738" type="Const" version="opset1">
			<data element_type="f32" offset="75808" shape="1" size="4"/>
			<output>
				<port id="0" precision="FP32">
					<dim>1</dim>
				</port>
			</output>
		</layer>
		<layer id="94" name="LeakyRelu_373" type="PReLU" version="opset1">
			<input>
				<port id="0" precision="FP16">
					<dim>1</dim>
					<dim>256</dim>
					<dim>512</dim>
				</port>
				<port id="1" precision="FP32">
					<dim>1</dim>
				</port>
			</input>
			<output>
				<port id="2" names="872" precision="FP16">
					<dim>1</dim>
					<dim>256</dim>
					<dim>512</dim>
				</port>
			</output>
		</layer>
		<layer id="95" name="model.prenet.dilation_stack.blocks.5.1.weight" type="Const" version="opset1">
			<data element_type="f16" offset="4671012" shape="256, 256, 11" size="1441792"/>
			<output>
				<port id="0" names="model.prenet.dilation_stack.blocks.5.1.weight" precision="FP16">
					<dim>256</dim>
					<dim>256</dim>
					<dim>11</dim>
				</port>
			</output>
		</layer>
		<layer id="96" name="Conv_374/WithoutBiases" type="Convolution" version="opset1">
			<data auto_pad="explicit" dilations="2" pads_begin="10" pads_end="10" strides="1"/>
			<input>
				<port id="0" precision="FP16">
					<dim>1</dim>
					<dim>256</dim>
					<dim>512</dim>
				</port>
				<port id="1" precision="FP16">
					<dim>256</dim>
					<dim>256</dim>
					<dim>11</dim>
				</port>
			</input>
			<output>
				<port id="2" precision="FP16">
					<dim>1</dim>
					<dim>256</dim>
					<dim>512</dim>
				</port>
			</output>
		</layer>
		<layer id="97" name="Conv_374/Dims9307" type="Const" version="opset1">
			<data element_type="f16" offset="6112804" shape="1, 256, 1" size="512"/>
			<output>
				<port id="0" precision="FP16">
					<dim>1</dim>
					<dim>256</dim>
					<dim>1</dim>
				</port>
			</output>
		</layer>
		<layer id="98" name="Conv_374" type="Add" version="opset1">
			<data auto_broadcast="numpy"/>
			<input>
				<port id="0" precision="FP16">
					<dim>1</dim>
					<dim>256</dim>
					<dim>512</dim>
				</port>
				<port id="1" precision="FP16">
					<dim>1</dim>
					<dim>256</dim>
					<dim>1</dim>
				</port>
			</input>
			<output>
				<port id="2" names="873" precision="FP16">
					<dim>1</dim>
					<dim>256</dim>
					<dim>512</dim>
				</port>
			</output>
		</layer>
		<layer id="99" name="LeakyRelu_375/weights2593338514" type="Const" version="opset1">
			<data element_type="f32" offset="75808" shape="1" size="4"/>
			<output>
				<port id="0" precision="FP32">
					<dim>1</dim>
				</port>
			</output>
		</layer>
		<layer id="100" name="LeakyRelu_375" type="PReLU" version="opset1">
			<input>
				<port id="0" precision="FP16">
					<dim>1</dim>
					<dim>256</dim>
					<dim>512</dim>
				</port>
				<port id="1" precision="FP32">
					<dim>1</dim>
				</port>
			</input>
			<output>
				<port id="2" names="874" precision="FP16">
					<dim>1</dim>
					<dim>256</dim>
					<dim>512</dim>
				</port>
			</output>
		</layer>
		<layer id="101" name="model.prenet.dilation_stack.blocks.5.3.weight" type="Const" version="opset1">
			<data element_type="f16" offset="6113316" shape="256, 256, 1" size="131072"/>
			<output>
				<port id="0" names="model.prenet.dilation_stack.blocks.5.3.weight" precision="FP16">
					<dim>256</dim>
					<dim>256</dim>
					<dim>1</dim>
				</port>
			</output>
		</layer>
		<layer id="102" name="Conv_376/WithoutBiases" type="Convolution" version="opset1">
			<data auto_pad="explicit" dilations="1" pads_begin="0" pads_end="0" strides="1"/>
			<input>
				<port id="0" precision="FP16">
					<dim>1</dim>
					<dim>256</dim>
					<dim>512</dim>
				</port>
				<port id="1" precision="FP16">
					<dim>256</dim>
					<dim>256</dim>
					<dim>1</dim>
				</port>
			</input>
			<output>
				<port id="2" precision="FP16">
					<dim>1</dim>
					<dim>256</dim>
					<dim>512</dim>
				</port>
			</output>
		</layer>
		<layer id="103" name="Conv_376/Dims9637" type="Const" version="opset1">
			<data element_type="f16" offset="6244388" shape="1, 256, 1" size="512"/>
			<output>
				<port id="0" precision="FP16">
					<dim>1</dim>
					<dim>256</dim>
					<dim>1</dim>
				</port>
			</output>
		</layer>
		<layer id="104" name="Conv_376" type="Add" version="opset1">
			<data auto_broadcast="numpy"/>
			<input>
				<port id="0" precision="FP16">
					<dim>1</dim>
					<dim>256</dim>
					<dim>512</dim>
				</port>
				<port id="1" precision="FP16">
					<dim>1</dim>
					<dim>256</dim>
					<dim>1</dim>
				</port>
			</input>
			<output>
				<port id="2" names="875" precision="FP16">
					<dim>1</dim>
					<dim>256</dim>
					<dim>512</dim>
				</port>
			</output>
		</layer>
		<layer id="105" name="model.prenet.dilation_stack.shortcuts.5.weight" type="Const" version="opset1">
			<data element_type="f16" offset="6244900" shape="256, 256, 1" size="131072"/>
			<output>
				<port id="0" names="model.prenet.dilation_stack.shortcuts.5.weight" precision="FP16">
					<dim>256</dim>
					<dim>256</dim>
					<dim>1</dim>
				</port>
			</output>
		</layer>
		<layer id="106" name="Conv_377/WithoutBiases" type="Convolution" version="opset1">
			<data auto_pad="explicit" dilations="1" pads_begin="0" pads_end="0" strides="1"/>
			<input>
				<port id="0" precision="FP16">
					<dim>1</dim>
					<dim>256</dim>
					<dim>512</dim>
				</port>
				<port id="1" precision="FP16">
					<dim>256</dim>
					<dim>256</dim>
					<dim>1</dim>
				</port>
			</input>
			<output>
				<port id="2" precision="FP16">
					<dim>1</dim>
					<dim>256</dim>
					<dim>512</dim>
				</port>
			</output>
		</layer>
		<layer id="107" name="Conv_377/Dims9283" type="Const" version="opset1">
			<data element_type="f16" offset="6375972" shape="1, 256, 1" size="512"/>
			<output>
				<port id="0" precision="FP16">
					<dim>1</dim>
					<dim>256</dim>
					<dim>1</dim>
				</port>
			</output>
		</layer>
		<layer id="108" name="Conv_377" type="Add" version="opset1">
			<data auto_broadcast="numpy"/>
			<input>
				<port id="0" precision="FP16">
					<dim>1</dim>
					<dim>256</dim>
					<dim>512</dim>
				</port>
				<port id="1" precision="FP16">
					<dim>1</dim>
					<dim>256</dim>
					<dim>1</dim>
				</port>
			</input>
			<output>
				<port id="2" names="876" precision="FP16">
					<dim>1</dim>
					<dim>256</dim>
					<dim>512</dim>
				</port>
			</output>
		</layer>
		<layer id="109" name="Add_378" type="Add" version="opset1">
			<data auto_broadcast="numpy"/>
			<input>
				<port id="0" precision="FP16">
					<dim>1</dim>
					<dim>256</dim>
					<dim>512</dim>
				</port>
				<port id="1" precision="FP16">
					<dim>1</dim>
					<dim>256</dim>
					<dim>512</dim>
				</port>
			</input>
			<output>
				<port id="2" names="877" precision="FP16">
					<dim>1</dim>
					<dim>256</dim>
					<dim>512</dim>
				</port>
			</output>
		</layer>
		<layer id="110" name="LeakyRelu_379/weights2595338892" type="Const" version="opset1">
			<data element_type="f32" offset="75808" shape="1" size="4"/>
			<output>
				<port id="0" precision="FP32">
					<dim>1</dim>
				</port>
			</output>
		</layer>
		<layer id="111" name="LeakyRelu_379" type="PReLU" version="opset1">
			<input>
				<port id="0" precision="FP16">
					<dim>1</dim>
					<dim>256</dim>
					<dim>512</dim>
				</port>
				<port id="1" precision="FP32">
					<dim>1</dim>
				</port>
			</input>
			<output>
				<port id="2" names="878" precision="FP16">
					<dim>1</dim>
					<dim>256</dim>
					<dim>512</dim>
				</port>
			</output>
		</layer>
		<layer id="112" name="model.prenet.dilation_stack.blocks.6.1.weight" type="Const" version="opset1">
			<data element_type="f16" offset="6376484" shape="256, 256, 13" size="1703936"/>
			<output>
				<port id="0" names="model.prenet.dilation_stack.blocks.6.1.weight" precision="FP16">
					<dim>256</dim>
					<dim>256</dim>
					<dim>13</dim>
				</port>
			</output>
		</layer>
		<layer id="113" name="Conv_380/WithoutBiases" type="Convolution" version="opset1">
			<data auto_pad="explicit" dilations="2" pads_begin="12" pads_end="12" strides="1"/>
			<input>
				<port id="0" precision="FP16">
					<dim>1</dim>
					<dim>256</dim>
					<dim>512</dim>
				</port>
				<port id="1" precision="FP16">
					<dim>256</dim>
					<dim>256</dim>
					<dim>13</dim>
				</port>
			</input>
			<output>
				<port id="2" precision="FP16">
					<dim>1</dim>
					<dim>256</dim>
					<dim>512</dim>
				</port>
			</output>
		</layer>
		<layer id="114" name="Conv_380/Dims9481" type="Const" version="opset1">
			<data element_type="f16" offset="8080420" shape="1, 256, 1" size="512"/>
			<output>
				<port id="0" precision="FP16">
					<dim>1</dim>
					<dim>256</dim>
					<dim>1</dim>
				</port>
			</output>
		</layer>
		<layer id="115" name="Conv_380" type="Add" version="opset1">
			<data auto_broadcast="numpy"/>
			<input>
				<port id="0" precision="FP16">
					<dim>1</dim>
					<dim>256</dim>
					<dim>512</dim>
				</port>
				<port id="1" precision="FP16">
					<dim>1</dim>
					<dim>256</dim>
					<dim>1</dim>
				</port>
			</input>
			<output>
				<port id="2" names="879" precision="FP16">
					<dim>1</dim>
					<dim>256</dim>
					<dim>512</dim>
				</port>
			</output>
		</layer>
		<layer id="116" name="LeakyRelu_381/weights2592138661" type="Const" version="opset1">
			<data element_type="f32" offset="75808" shape="1" size="4"/>
			<output>
				<port id="0" precision="FP32">
					<dim>1</dim>
				</port>
			</output>
		</layer>
		<layer id="117" name="LeakyRelu_381" type="PReLU" version="opset1">
			<input>
				<port id="0" precision="FP16">
					<dim>1</dim>
					<dim>256</dim>
					<dim>512</dim>
				</port>
				<port id="1" precision="FP32">
					<dim>1</dim>
				</port>
			</input>
			<output>
				<port id="2" names="880" precision="FP16">
					<dim>1</dim>
					<dim>256</dim>
					<dim>512</dim>
				</port>
			</output>
		</layer>
		<layer id="118" name="model.prenet.dilation_stack.blocks.6.3.weight" type="Const" version="opset1">
			<data element_type="f16" offset="8080932" shape="256, 256, 1" size="131072"/>
			<output>
				<port id="0" names="model.prenet.dilation_stack.blocks.6.3.weight" precision="FP16">
					<dim>256</dim>
					<dim>256</dim>
					<dim>1</dim>
				</port>
			</output>
		</layer>
		<layer id="119" name="Conv_382/WithoutBiases" type="Convolution" version="opset1">
			<data auto_pad="explicit" dilations="1" pads_begin="0" pads_end="0" strides="1"/>
			<input>
				<port id="0" precision="FP16">
					<dim>1</dim>
					<dim>256</dim>
					<dim>512</dim>
				</port>
				<port id="1" precision="FP16">
					<dim>256</dim>
					<dim>256</dim>
					<dim>1</dim>
				</port>
			</input>
			<output>
				<port id="2" precision="FP16">
					<dim>1</dim>
					<dim>256</dim>
					<dim>512</dim>
				</port>
			</output>
		</layer>
		<layer id="120" name="Conv_382/Dims9439" type="Const" version="opset1">
			<data element_type="f16" offset="8212004" shape="1, 256, 1" size="512"/>
			<output>
				<port id="0" precision="FP16">
					<dim>1</dim>
					<dim>256</dim>
					<dim>1</dim>
				</port>
			</output>
		</layer>
		<layer id="121" name="Conv_382" type="Add" version="opset1">
			<data auto_broadcast="numpy"/>
			<input>
				<port id="0" precision="FP16">
					<dim>1</dim>
					<dim>256</dim>
					<dim>512</dim>
				</port>
				<port id="1" precision="FP16">
					<dim>1</dim>
					<dim>256</dim>
					<dim>1</dim>
				</port>
			</input>
			<output>
				<port id="2" names="881" precision="FP16">
					<dim>1</dim>
					<dim>256</dim>
					<dim>512</dim>
				</port>
			</output>
		</layer>
		<layer id="122" name="model.prenet.dilation_stack.shortcuts.6.weight" type="Const" version="opset1">
			<data element_type="f16" offset="8212516" shape="256, 256, 1" size="131072"/>
			<output>
				<port id="0" names="model.prenet.dilation_stack.shortcuts.6.weight" precision="FP16">
					<dim>256</dim>
					<dim>256</dim>
					<dim>1</dim>
				</port>
			</output>
		</layer>
		<layer id="123" name="Conv_383/WithoutBiases" type="Convolution" version="opset1">
			<data auto_pad="explicit" dilations="1" pads_begin="0" pads_end="0" strides="1"/>
			<input>
				<port id="0" precision="FP16">
					<dim>1</dim>
					<dim>256</dim>
					<dim>512</dim>
				</port>
				<port id="1" precision="FP16">
					<dim>256</dim>
					<dim>256</dim>
					<dim>1</dim>
				</port>
			</input>
			<output>
				<port id="2" precision="FP16">
					<dim>1</dim>
					<dim>256</dim>
					<dim>512</dim>
				</port>
			</output>
		</layer>
		<layer id="124" name="Conv_383/Dims9553" type="Const" version="opset1">
			<data element_type="f16" offset="8343588" shape="1, 256, 1" size="512"/>
			<output>
				<port id="0" precision="FP16">
					<dim>1</dim>
					<dim>256</dim>
					<dim>1</dim>
				</port>
			</output>
		</layer>
		<layer id="125" name="Conv_383" type="Add" version="opset1">
			<data auto_broadcast="numpy"/>
			<input>
				<port id="0" precision="FP16">
					<dim>1</dim>
					<dim>256</dim>
					<dim>512</dim>
				</port>
				<port id="1" precision="FP16">
					<dim>1</dim>
					<dim>256</dim>
					<dim>1</dim>
				</port>
			</input>
			<output>
				<port id="2" names="882" precision="FP16">
					<dim>1</dim>
					<dim>256</dim>
					<dim>512</dim>
				</port>
			</output>
		</layer>
		<layer id="126" name="Add_384" type="Add" version="opset1">
			<data auto_broadcast="numpy"/>
			<input>
				<port id="0" precision="FP16">
					<dim>1</dim>
					<dim>256</dim>
					<dim>512</dim>
				</port>
				<port id="1" precision="FP16">
					<dim>1</dim>
					<dim>256</dim>
					<dim>512</dim>
				</port>
			</input>
			<output>
				<port id="2" names="883" precision="FP16">
					<dim>1</dim>
					<dim>256</dim>
					<dim>512</dim>
				</port>
			</output>
		</layer>
		<layer id="127" name="LeakyRelu_385/weights2600139771" type="Const" version="opset1">
			<data element_type="f32" offset="75808" shape="1" size="4"/>
			<output>
				<port id="0" precision="FP32">
					<dim>1</dim>
				</port>
			</output>
		</layer>
		<layer id="128" name="LeakyRelu_385" type="PReLU" version="opset1">
			<input>
				<port id="0" precision="FP16">
					<dim>1</dim>
					<dim>256</dim>
					<dim>512</dim>
				</port>
				<port id="1" precision="FP32">
					<dim>1</dim>
				</port>
			</input>
			<output>
				<port id="2" names="884" precision="FP16">
					<dim>1</dim>
					<dim>256</dim>
					<dim>512</dim>
				</port>
			</output>
		</layer>
		<layer id="129" name="model.prenet.dilation_stack.blocks.7.1.weight" type="Const" version="opset1">
			<data element_type="f16" offset="8344100" shape="256, 256, 15" size="1966080"/>
			<output>
				<port id="0" names="model.prenet.dilation_stack.blocks.7.1.weight" precision="FP16">
					<dim>256</dim>
					<dim>256</dim>
					<dim>15</dim>
				</port>
			</output>
		</layer>
		<layer id="130" name="Conv_386/WithoutBiases" type="Convolution" version="opset1">
			<data auto_pad="explicit" dilations="2" pads_begin="14" pads_end="14" strides="1"/>
			<input>
				<port id="0" precision="FP16">
					<dim>1</dim>
					<dim>256</dim>
					<dim>512</dim>
				</port>
				<port id="1" precision="FP16">
					<dim>256</dim>
					<dim>256</dim>
					<dim>15</dim>
				</port>
			</input>
			<output>
				<port id="2" precision="FP16">
					<dim>1</dim>
					<dim>256</dim>
					<dim>512</dim>
				</port>
			</output>
		</layer>
		<layer id="131" name="Conv_386/Dims9661" type="Const" version="opset1">
			<data element_type="f16" offset="10310180" shape="1, 256, 1" size="512"/>
			<output>
				<port id="0" precision="FP16">
					<dim>1</dim>
					<dim>256</dim>
					<dim>1</dim>
				</port>
			</output>
		</layer>
		<layer id="132" name="Conv_386" type="Add" version="opset1">
			<data auto_broadcast="numpy"/>
			<input>
				<port id="0" precision="FP16">
					<dim>1</dim>
					<dim>256</dim>
					<dim>512</dim>
				</port>
				<port id="1" precision="FP16">
					<dim>1</dim>
					<dim>256</dim>
					<dim>1</dim>
				</port>
			</input>
			<output>
				<port id="2" names="885" precision="FP16">
					<dim>1</dim>
					<dim>256</dim>
					<dim>512</dim>
				</port>
			</output>
		</layer>
		<layer id="133" name="LeakyRelu_387/weights2596138571" type="Const" version="opset1">
			<data element_type="f32" offset="75808" shape="1" size="4"/>
			<output>
				<port id="0" precision="FP32">
					<dim>1</dim>
				</port>
			</output>
		</layer>
		<layer id="134" name="LeakyRelu_387" type="PReLU" version="opset1">
			<input>
				<port id="0" precision="FP16">
					<dim>1</dim>
					<dim>256</dim>
					<dim>512</dim>
				</port>
				<port id="1" precision="FP32">
					<dim>1</dim>
				</port>
			</input>
			<output>
				<port id="2" names="886" precision="FP16">
					<dim>1</dim>
					<dim>256</dim>
					<dim>512</dim>
				</port>
			</output>
		</layer>
		<layer id="135" name="model.prenet.dilation_stack.blocks.7.3.weight" type="Const" version="opset1">
			<data element_type="f16" offset="10310692" shape="256, 256, 1" size="131072"/>
			<output>
				<port id="0" names="model.prenet.dilation_stack.blocks.7.3.weight" precision="FP16">
					<dim>256</dim>
					<dim>256</dim>
					<dim>1</dim>
				</port>
			</output>
		</layer>
		<layer id="136" name="Conv_388/WithoutBiases" type="Convolution" version="opset1">
			<data auto_pad="explicit" dilations="1" pads_begin="0" pads_end="0" strides="1"/>
			<input>
				<port id="0" precision="FP16">
					<dim>1</dim>
					<dim>256</dim>
					<dim>512</dim>
				</port>
				<port id="1" precision="FP16">
					<dim>256</dim>
					<dim>256</dim>
					<dim>1</dim>
				</port>
			</input>
			<output>
				<port id="2" precision="FP16">
					<dim>1</dim>
					<dim>256</dim>
					<dim>512</dim>
				</port>
			</output>
		</layer>
		<layer id="137" name="Conv_388/Dims9499" type="Const" version="opset1">
			<data element_type="f16" offset="10441764" shape="1, 256, 1" size="512"/>
			<output>
				<port id="0" precision="FP16">
					<dim>1</dim>
					<dim>256</dim>
					<dim>1</dim>
				</port>
			</output>
		</layer>
		<layer id="138" name="Conv_388" type="Add" version="opset1">
			<data auto_broadcast="numpy"/>
			<input>
				<port id="0" precision="FP16">
					<dim>1</dim>
					<dim>256</dim>
					<dim>512</dim>
				</port>
				<port id="1" precision="FP16">
					<dim>1</dim>
					<dim>256</dim>
					<dim>1</dim>
				</port>
			</input>
			<output>
				<port id="2" names="887" precision="FP16">
					<dim>1</dim>
					<dim>256</dim>
					<dim>512</dim>
				</port>
			</output>
		</layer>
		<layer id="139" name="model.prenet.dilation_stack.shortcuts.7.weight" type="Const" version="opset1">
			<data element_type="f16" offset="10442276" shape="256, 256, 1" size="131072"/>
			<output>
				<port id="0" names="model.prenet.dilation_stack.shortcuts.7.weight" precision="FP16">
					<dim>256</dim>
					<dim>256</dim>
					<dim>1</dim>
				</port>
			</output>
		</layer>
		<layer id="140" name="Conv_389/WithoutBiases" type="Convolution" version="opset1">
			<data auto_pad="explicit" dilations="1" pads_begin="0" pads_end="0" strides="1"/>
			<input>
				<port id="0" precision="FP16">
					<dim>1</dim>
					<dim>256</dim>
					<dim>512</dim>
				</port>
				<port id="1" precision="FP16">
					<dim>256</dim>
					<dim>256</dim>
					<dim>1</dim>
				</port>
			</input>
			<output>
				<port id="2" precision="FP16">
					<dim>1</dim>
					<dim>256</dim>
					<dim>512</dim>
				</port>
			</output>
		</layer>
		<layer id="141" name="Conv_389/Dims9505" type="Const" version="opset1">
			<data element_type="f16" offset="10573348" shape="1, 256, 1" size="512"/>
			<output>
				<port id="0" precision="FP16">
					<dim>1</dim>
					<dim>256</dim>
					<dim>1</dim>
				</port>
			</output>
		</layer>
		<layer id="142" name="Conv_389" type="Add" version="opset1">
			<data auto_broadcast="numpy"/>
			<input>
				<port id="0" precision="FP16">
					<dim>1</dim>
					<dim>256</dim>
					<dim>512</dim>
				</port>
				<port id="1" precision="FP16">
					<dim>1</dim>
					<dim>256</dim>
					<dim>1</dim>
				</port>
			</input>
			<output>
				<port id="2" names="888" precision="FP16">
					<dim>1</dim>
					<dim>256</dim>
					<dim>512</dim>
				</port>
			</output>
		</layer>
		<layer id="143" name="Add_390" type="Add" version="opset1">
			<data auto_broadcast="numpy"/>
			<input>
				<port id="0" precision="FP16">
					<dim>1</dim>
					<dim>256</dim>
					<dim>512</dim>
				</port>
				<port id="1" precision="FP16">
					<dim>1</dim>
					<dim>256</dim>
					<dim>512</dim>
				</port>
			</input>
			<output>
				<port id="2" names="889" precision="FP16">
					<dim>1</dim>
					<dim>256</dim>
					<dim>512</dim>
				</port>
			</output>
		</layer>
		<layer id="144" name="LeakyRelu_391/weights2599738931" type="Const" version="opset1">
			<data element_type="f32" offset="75808" shape="1" size="4"/>
			<output>
				<port id="0" precision="FP32">
					<dim>1</dim>
				</port>
			</output>
		</layer>
		<layer id="145" name="LeakyRelu_391" type="PReLU" version="opset1">
			<input>
				<port id="0" precision="FP16">
					<dim>1</dim>
					<dim>256</dim>
					<dim>512</dim>
				</port>
				<port id="1" precision="FP32">
					<dim>1</dim>
				</port>
			</input>
			<output>
				<port id="2" names="890" precision="FP16">
					<dim>1</dim>
					<dim>256</dim>
					<dim>512</dim>
				</port>
			</output>
		</layer>
		<layer id="146" name="model.prenet.dilation_stack.blocks.8.1.weight" type="Const" version="opset1">
			<data element_type="f16" offset="10573860" shape="256, 256, 17" size="2228224"/>
			<output>
				<port id="0" names="model.prenet.dilation_stack.blocks.8.1.weight" precision="FP16">
					<dim>256</dim>
					<dim>256</dim>
					<dim>17</dim>
				</port>
			</output>
		</layer>
		<layer id="147" name="Conv_392/WithoutBiases" type="Convolution" version="opset1">
			<data auto_pad="explicit" dilations="3" pads_begin="24" pads_end="24" strides="1"/>
			<input>
				<port id="0" precision="FP16">
					<dim>1</dim>
					<dim>256</dim>
					<dim>512</dim>
				</port>
				<port id="1" precision="FP16">
					<dim>256</dim>
					<dim>256</dim>
					<dim>17</dim>
				</port>
			</input>
			<output>
				<port id="2" precision="FP16">
					<dim>1</dim>
					<dim>256</dim>
					<dim>512</dim>
				</port>
			</output>
		</layer>
		<layer id="148" name="Conv_392/Dims9535" type="Const" version="opset1">
			<data element_type="f16" offset="12802084" shape="1, 256, 1" size="512"/>
			<output>
				<port id="0" precision="FP16">
					<dim>1</dim>
					<dim>256</dim>
					<dim>1</dim>
				</port>
			</output>
		</layer>
		<layer id="149" name="Conv_392" type="Add" version="opset1">
			<data auto_broadcast="numpy"/>
			<input>
				<port id="0" precision="FP16">
					<dim>1</dim>
					<dim>256</dim>
					<dim>512</dim>
				</port>
				<port id="1" precision="FP16">
					<dim>1</dim>
					<dim>256</dim>
					<dim>1</dim>
				</port>
			</input>
			<output>
				<port id="2" names="891" precision="FP16">
					<dim>1</dim>
					<dim>256</dim>
					<dim>512</dim>
				</port>
			</output>
		</layer>
		<layer id="150" name="LeakyRelu_393/weights2594138706" type="Const" version="opset1">
			<data element_type="f32" offset="75808" shape="1" size="4"/>
			<output>
				<port id="0" precision="FP32">
					<dim>1</dim>
				</port>
			</output>
		</layer>
		<layer id="151" name="LeakyRelu_393" type="PReLU" version="opset1">
			<input>
				<port id="0" precision="FP16">
					<dim>1</dim>
					<dim>256</dim>
					<dim>512</dim>
				</port>
				<port id="1" precision="FP32">
					<dim>1</dim>
				</port>
			</input>
			<output>
				<port id="2" names="892" precision="FP16">
					<dim>1</dim>
					<dim>256</dim>
					<dim>512</dim>
				</port>
			</output>
		</layer>
		<layer id="152" name="model.prenet.dilation_stack.blocks.8.3.weight" type="Const" version="opset1">
			<data element_type="f16" offset="12802596" shape="256, 256, 1" size="131072"/>
			<output>
				<port id="0" names="model.prenet.dilation_stack.blocks.8.3.weight" precision="FP16">
					<dim>256</dim>
					<dim>256</dim>
					<dim>1</dim>
				</port>
			</output>
		</layer>
		<layer id="153" name="Conv_394/WithoutBiases" type="Convolution" version="opset1">
			<data auto_pad="explicit" dilations="1" pads_begin="0" pads_end="0" strides="1"/>
			<input>
				<port id="0" precision="FP16">
					<dim>1</dim>
					<dim>256</dim>
					<dim>512</dim>
				</port>
				<port id="1" precision="FP16">
					<dim>256</dim>
					<dim>256</dim>
					<dim>1</dim>
				</port>
			</input>
			<output>
				<port id="2" precision="FP16">
					<dim>1</dim>
					<dim>256</dim>
					<dim>512</dim>
				</port>
			</output>
		</layer>
		<layer id="154" name="Conv_394/Dims9355" type="Const" version="opset1">
			<data element_type="f16" offset="12933668" shape="1, 256, 1" size="512"/>
			<output>
				<port id="0" precision="FP16">
					<dim>1</dim>
					<dim>256</dim>
					<dim>1</dim>
				</port>
			</output>
		</layer>
		<layer id="155" name="Conv_394" type="Add" version="opset1">
			<data auto_broadcast="numpy"/>
			<input>
				<port id="0" precision="FP16">
					<dim>1</dim>
					<dim>256</dim>
					<dim>512</dim>
				</port>
				<port id="1" precision="FP16">
					<dim>1</dim>
					<dim>256</dim>
					<dim>1</dim>
				</port>
			</input>
			<output>
				<port id="2" names="893" precision="FP16">
					<dim>1</dim>
					<dim>256</dim>
					<dim>512</dim>
				</port>
			</output>
		</layer>
		<layer id="156" name="model.prenet.dilation_stack.shortcuts.8.weight" type="Const" version="opset1">
			<data element_type="f16" offset="12934180" shape="256, 256, 1" size="131072"/>
			<output>
				<port id="0" names="model.prenet.dilation_stack.shortcuts.8.weight" precision="FP16">
					<dim>256</dim>
					<dim>256</dim>
					<dim>1</dim>
				</port>
			</output>
		</layer>
		<layer id="157" name="Conv_395/WithoutBiases" type="Convolution" version="opset1">
			<data auto_pad="explicit" dilations="1" pads_begin="0" pads_end="0" strides="1"/>
			<input>
				<port id="0" precision="FP16">
					<dim>1</dim>
					<dim>256</dim>
					<dim>512</dim>
				</port>
				<port id="1" precision="FP16">
					<dim>256</dim>
					<dim>256</dim>
					<dim>1</dim>
				</port>
			</input>
			<output>
				<port id="2" precision="FP16">
					<dim>1</dim>
					<dim>256</dim>
					<dim>512</dim>
				</port>
			</output>
		</layer>
		<layer id="158" name="Conv_395/Dims9457" type="Const" version="opset1">
			<data element_type="f16" offset="13065252" shape="1, 256, 1" size="512"/>
			<output>
				<port id="0" precision="FP16">
					<dim>1</dim>
					<dim>256</dim>
					<dim>1</dim>
				</port>
			</output>
		</layer>
		<layer id="159" name="Conv_395" type="Add" version="opset1">
			<data auto_broadcast="numpy"/>
			<input>
				<port id="0" precision="FP16">
					<dim>1</dim>
					<dim>256</dim>
					<dim>512</dim>
				</port>
				<port id="1" precision="FP16">
					<dim>1</dim>
					<dim>256</dim>
					<dim>1</dim>
				</port>
			</input>
			<output>
				<port id="2" names="894" precision="FP16">
					<dim>1</dim>
					<dim>256</dim>
					<dim>512</dim>
				</port>
			</output>
		</layer>
		<layer id="160" name="Add_396" type="Add" version="opset1">
			<data auto_broadcast="numpy"/>
			<input>
				<port id="0" precision="FP16">
					<dim>1</dim>
					<dim>256</dim>
					<dim>512</dim>
				</port>
				<port id="1" precision="FP16">
					<dim>1</dim>
					<dim>256</dim>
					<dim>512</dim>
				</port>
			</input>
			<output>
				<port id="2" names="895" precision="FP16">
					<dim>1</dim>
					<dim>256</dim>
					<dim>512</dim>
				</port>
			</output>
		</layer>
		<layer id="161" name="LeakyRelu_397/weights2599338433" type="Const" version="opset1">
			<data element_type="f32" offset="75808" shape="1" size="4"/>
			<output>
				<port id="0" precision="FP32">
					<dim>1</dim>
				</port>
			</output>
		</layer>
		<layer id="162" name="LeakyRelu_397" type="PReLU" version="opset1">
			<input>
				<port id="0" precision="FP16">
					<dim>1</dim>
					<dim>256</dim>
					<dim>512</dim>
				</port>
				<port id="1" precision="FP32">
					<dim>1</dim>
				</port>
			</input>
			<output>
				<port id="2" names="896" precision="FP16">
					<dim>1</dim>
					<dim>256</dim>
					<dim>512</dim>
				</port>
			</output>
		</layer>
		<layer id="163" name="model.prenet.dilation_stack.blocks.9.1.weight" type="Const" version="opset1">
			<data element_type="f16" offset="13065764" shape="256, 256, 19" size="2490368"/>
			<output>
				<port id="0" names="model.prenet.dilation_stack.blocks.9.1.weight" precision="FP16">
					<dim>256</dim>
					<dim>256</dim>
					<dim>19</dim>
				</port>
			</output>
		</layer>
		<layer id="164" name="Conv_398/WithoutBiases" type="Convolution" version="opset1">
			<data auto_pad="explicit" dilations="3" pads_begin="27" pads_end="27" strides="1"/>
			<input>
				<port id="0" precision="FP16">
					<dim>1</dim>
					<dim>256</dim>
					<dim>512</dim>
				</port>
				<port id="1" precision="FP16">
					<dim>256</dim>
					<dim>256</dim>
					<dim>19</dim>
				</port>
			</input>
			<output>
				<port id="2" precision="FP16">
					<dim>1</dim>
					<dim>256</dim>
					<dim>512</dim>
				</port>
			</output>
		</layer>
		<layer id="165" name="Conv_398/Dims9619" type="Const" version="opset1">
			<data element_type="f16" offset="15556132" shape="1, 256, 1" size="512"/>
			<output>
				<port id="0" precision="FP16">
					<dim>1</dim>
					<dim>256</dim>
					<dim>1</dim>
				</port>
			</output>
		</layer>
		<layer id="166" name="Conv_398" type="Add" version="opset1">
			<data auto_broadcast="numpy"/>
			<input>
				<port id="0" precision="FP16">
					<dim>1</dim>
					<dim>256</dim>
					<dim>512</dim>
				</port>
				<port id="1" precision="FP16">
					<dim>1</dim>
					<dim>256</dim>
					<dim>1</dim>
				</port>
			</input>
			<output>
				<port id="2" names="897" precision="FP16">
					<dim>1</dim>
					<dim>256</dim>
					<dim>512</dim>
				</port>
			</output>
		</layer>
		<layer id="167" name="LeakyRelu_399/weights2593739402" type="Const" version="opset1">
			<data element_type="f32" offset="75808" shape="1" size="4"/>
			<output>
				<port id="0" precision="FP32">
					<dim>1</dim>
				</port>
			</output>
		</layer>
		<layer id="168" name="LeakyRelu_399" type="PReLU" version="opset1">
			<input>
				<port id="0" precision="FP16">
					<dim>1</dim>
					<dim>256</dim>
					<dim>512</dim>
				</port>
				<port id="1" precision="FP32">
					<dim>1</dim>
				</port>
			</input>
			<output>
				<port id="2" names="898" precision="FP16">
					<dim>1</dim>
					<dim>256</dim>
					<dim>512</dim>
				</port>
			</output>
		</layer>
		<layer id="169" name="model.prenet.dilation_stack.blocks.9.3.weight" type="Const" version="opset1">
			<data element_type="f16" offset="15556644" shape="256, 256, 1" size="131072"/>
			<output>
				<port id="0" names="model.prenet.dilation_stack.blocks.9.3.weight" precision="FP16">
					<dim>256</dim>
					<dim>256</dim>
					<dim>1</dim>
				</port>
			</output>
		</layer>
		<layer id="170" name="Conv_400/WithoutBiases" type="Convolution" version="opset1">
			<data auto_pad="explicit" dilations="1" pads_begin="0" pads_end="0" strides="1"/>
			<input>
				<port id="0" precision="FP16">
					<dim>1</dim>
					<dim>256</dim>
					<dim>512</dim>
				</port>
				<port id="1" precision="FP16">
					<dim>256</dim>
					<dim>256</dim>
					<dim>1</dim>
				</port>
			</input>
			<output>
				<port id="2" precision="FP16">
					<dim>1</dim>
					<dim>256</dim>
					<dim>512</dim>
				</port>
			</output>
		</layer>
		<layer id="171" name="Conv_400/Dims9463" type="Const" version="opset1">
			<data element_type="f16" offset="15687716" shape="1, 256, 1" size="512"/>
			<output>
				<port id="0" precision="FP16">
					<dim>1</dim>
					<dim>256</dim>
					<dim>1</dim>
				</port>
			</output>
		</layer>
		<layer id="172" name="Conv_400" type="Add" version="opset1">
			<data auto_broadcast="numpy"/>
			<input>
				<port id="0" precision="FP16">
					<dim>1</dim>
					<dim>256</dim>
					<dim>512</dim>
				</port>
				<port id="1" precision="FP16">
					<dim>1</dim>
					<dim>256</dim>
					<dim>1</dim>
				</port>
			</input>
			<output>
				<port id="2" names="899" precision="FP16">
					<dim>1</dim>
					<dim>256</dim>
					<dim>512</dim>
				</port>
			</output>
		</layer>
		<layer id="173" name="model.prenet.dilation_stack.shortcuts.9.weight" type="Const" version="opset1">
			<data element_type="f16" offset="15688228" shape="256, 256, 1" size="131072"/>
			<output>
				<port id="0" names="model.prenet.dilation_stack.shortcuts.9.weight" precision="FP16">
					<dim>256</dim>
					<dim>256</dim>
					<dim>1</dim>
				</port>
			</output>
		</layer>
		<layer id="174" name="Conv_401/WithoutBiases" type="Convolution" version="opset1">
			<data auto_pad="explicit" dilations="1" pads_begin="0" pads_end="0" strides="1"/>
			<input>
				<port id="0" precision="FP16">
					<dim>1</dim>
					<dim>256</dim>
					<dim>512</dim>
				</port>
				<port id="1" precision="FP16">
					<dim>256</dim>
					<dim>256</dim>
					<dim>1</dim>
				</port>
			</input>
			<output>
				<port id="2" precision="FP16">
					<dim>1</dim>
					<dim>256</dim>
					<dim>512</dim>
				</port>
			</output>
		</layer>
		<layer id="175" name="Conv_401/Dims9337" type="Const" version="opset1">
			<data element_type="f16" offset="15819300" shape="1, 256, 1" size="512"/>
			<output>
				<port id="0" precision="FP16">
					<dim>1</dim>
					<dim>256</dim>
					<dim>1</dim>
				</port>
			</output>
		</layer>
		<layer id="176" name="Conv_401" type="Add" version="opset1">
			<data auto_broadcast="numpy"/>
			<input>
				<port id="0" precision="FP16">
					<dim>1</dim>
					<dim>256</dim>
					<dim>512</dim>
				</port>
				<port id="1" precision="FP16">
					<dim>1</dim>
					<dim>256</dim>
					<dim>1</dim>
				</port>
			</input>
			<output>
				<port id="2" names="900" precision="FP16">
					<dim>1</dim>
					<dim>256</dim>
					<dim>512</dim>
				</port>
			</output>
		</layer>
		<layer id="177" name="Add_402" type="Add" version="opset1">
			<data auto_broadcast="numpy"/>
			<input>
				<port id="0" precision="FP16">
					<dim>1</dim>
					<dim>256</dim>
					<dim>512</dim>
				</port>
				<port id="1" precision="FP16">
					<dim>1</dim>
					<dim>256</dim>
					<dim>512</dim>
				</port>
			</input>
			<output>
				<port id="2" names="901" precision="FP16">
					<dim>1</dim>
					<dim>256</dim>
					<dim>512</dim>
				</port>
			</output>
		</layer>
		<layer id="178" name="Concat_403" type="Concat" version="opset1">
			<data axis="1"/>
			<input>
				<port id="0" precision="FP16">
					<dim>1</dim>
					<dim>256</dim>
					<dim>512</dim>
				</port>
				<port id="1" precision="FP16">
					<dim>1</dim>
					<dim>256</dim>
					<dim>512</dim>
				</port>
				<port id="2" precision="FP16">
					<dim>1</dim>
					<dim>256</dim>
					<dim>512</dim>
				</port>
				<port id="3" precision="FP16">
					<dim>1</dim>
					<dim>256</dim>
					<dim>512</dim>
				</port>
				<port id="4" precision="FP16">
					<dim>1</dim>
					<dim>256</dim>
					<dim>512</dim>
				</port>
				<port id="5" precision="FP16">
					<dim>1</dim>
					<dim>256</dim>
					<dim>512</dim>
				</port>
				<port id="6" precision="FP16">
					<dim>1</dim>
					<dim>256</dim>
					<dim>512</dim>
				</port>
				<port id="7" precision="FP16">
					<dim>1</dim>
					<dim>256</dim>
					<dim>512</dim>
				</port>
				<port id="8" precision="FP16">
					<dim>1</dim>
					<dim>256</dim>
					<dim>512</dim>
				</port>
				<port id="9" precision="FP16">
					<dim>1</dim>
					<dim>256</dim>
					<dim>512</dim>
				</port>
			</input>
			<output>
				<port id="10" names="902" precision="FP16">
					<dim>1</dim>
					<dim>2560</dim>
					<dim>512</dim>
				</port>
			</output>
		</layer>
		<layer id="179" name="MaxPool_404" type="MaxPool" version="opset1">
			<data auto_pad="explicit" kernel="3" pads_begin="1" pads_end="1" rounding_type="floor" strides="1"/>
			<input>
				<port id="0" precision="FP16">
					<dim>1</dim>
					<dim>2560</dim>
					<dim>512</dim>
				</port>
			</input>
			<output>
				<port id="1" names="903" precision="FP16">
					<dim>1</dim>
					<dim>2560</dim>
					<dim>512</dim>
				</port>
			</output>
		</layer>
		<layer id="180" name="model.prenet.conv_project1.conv.weight" type="Const" version="opset1">
			<data element_type="f16" offset="15819812" shape="256, 2560, 3" size="3932160"/>
			<output>
				<port id="0" names="model.prenet.conv_project1.conv.weight" precision="FP16">
					<dim>256</dim>
					<dim>2560</dim>
					<dim>3</dim>
				</port>
			</output>
		</layer>
		<layer id="181" name="Conv_405" type="Convolution" version="opset1">
			<data auto_pad="explicit" dilations="1" pads_begin="1" pads_end="1" strides="1"/>
			<input>
				<port id="0" precision="FP16">
					<dim>1</dim>
					<dim>2560</dim>
					<dim>512</dim>
				</port>
				<port id="1" precision="FP16">
					<dim>256</dim>
					<dim>2560</dim>
					<dim>3</dim>
				</port>
			</input>
			<output>
				<port id="2" names="904" precision="FP16">
					<dim>1</dim>
					<dim>256</dim>
					<dim>512</dim>
				</port>
			</output>
		</layer>
		<layer id="182" name="LeakyRelu_406/weights2594538688" type="Const" version="opset1">
			<data element_type="f32" offset="75808" shape="1" size="4"/>
			<output>
				<port id="0" precision="FP32">
					<dim>1</dim>
				</port>
			</output>
		</layer>
		<layer id="183" name="LeakyRelu_406" type="PReLU" version="opset1">
			<input>
				<port id="0" precision="FP16">
					<dim>1</dim>
					<dim>256</dim>
					<dim>512</dim>
				</port>
				<port id="1" precision="FP32">
					<dim>1</dim>
				</port>
			</input>
			<output>
				<port id="2" names="905" precision="FP16">
					<dim>1</dim>
					<dim>256</dim>
					<dim>512</dim>
				</port>
			</output>
		</layer>
		<layer id="184" name="data_mul_15551" type="Const" version="opset1">
			<data element_type="f16" offset="19751972" shape="1, 256, 1" size="512"/>
			<output>
				<port id="0" precision="FP16">
					<dim>1</dim>
					<dim>256</dim>
					<dim>1</dim>
				</port>
			</output>
		</layer>
		<layer id="185" name="BatchNormalization_407/mean/Fused_Mul_" type="Multiply" version="opset1">
			<data auto_broadcast="numpy"/>
			<input>
				<port id="0" precision="FP16">
					<dim>1</dim>
					<dim>256</dim>
					<dim>512</dim>
				</port>
				<port id="1" precision="FP16">
					<dim>1</dim>
					<dim>256</dim>
					<dim>1</dim>
				</port>
			</input>
			<output>
				<port id="2" precision="FP16">
					<dim>1</dim>
					<dim>256</dim>
					<dim>512</dim>
				</port>
			</output>
		</layer>
		<layer id="186" name="data_add_15553" type="Const" version="opset1">
			<data element_type="f16" offset="19752484" shape="1, 256, 1" size="512"/>
			<output>
				<port id="0" precision="FP16">
					<dim>1</dim>
					<dim>256</dim>
					<dim>1</dim>
				</port>
			</output>
		</layer>
		<layer id="187" name="BatchNormalization_407/variance/Fused_Add_" type="Add" version="opset1">
			<data auto_broadcast="numpy"/>
			<input>
				<port id="0" precision="FP16">
					<dim>1</dim>
					<dim>256</dim>
					<dim>512</dim>
				</port>
				<port id="1" precision="FP16">
					<dim>1</dim>
					<dim>256</dim>
					<dim>1</dim>
				</port>
			</input>
			<output>
				<port id="2" names="906" precision="FP16">
					<dim>1</dim>
					<dim>256</dim>
					<dim>512</dim>
				</port>
			</output>
		</layer>
		<layer id="188" name="model.prenet.conv_project2.conv.weight" type="Const" version="opset1">
			<data element_type="f16" offset="19752996" shape="256, 256, 3" size="393216"/>
			<output>
				<port id="0" names="model.prenet.conv_project2.conv.weight" precision="FP16">
					<dim>256</dim>
					<dim>256</dim>
					<dim>3</dim>
				</port>
			</output>
		</layer>
		<layer id="189" name="Conv_408" type="Convolution" version="opset1">
			<data auto_pad="explicit" dilations="1" pads_begin="1" pads_end="1" strides="1"/>
			<input>
				<port id="0" precision="FP16">
					<dim>1</dim>
					<dim>256</dim>
					<dim>512</dim>
				</port>
				<port id="1" precision="FP16">
					<dim>256</dim>
					<dim>256</dim>
					<dim>3</dim>
				</port>
			</input>
			<output>
				<port id="2" names="907" precision="FP16">
					<dim>1</dim>
					<dim>256</dim>
					<dim>512</dim>
				</port>
			</output>
		</layer>
		<layer id="190" name="LeakyRelu_409/weights2594938625" type="Const" version="opset1">
			<data element_type="f32" offset="75808" shape="1" size="4"/>
			<output>
				<port id="0" precision="FP32">
					<dim>1</dim>
				</port>
			</output>
		</layer>
		<layer id="191" name="LeakyRelu_409" type="PReLU" version="opset1">
			<input>
				<port id="0" precision="FP16">
					<dim>1</dim>
					<dim>256</dim>
					<dim>512</dim>
				</port>
				<port id="1" precision="FP32">
					<dim>1</dim>
				</port>
			</input>
			<output>
				<port id="2" names="908" precision="FP16">
					<dim>1</dim>
					<dim>256</dim>
					<dim>512</dim>
				</port>
			</output>
		</layer>
		<layer id="192" name="data_mul_1555515559" type="Const" version="opset1">
			<data element_type="f16" offset="20146212" shape="1, 256, 1" size="512"/>
			<output>
				<port id="0" precision="FP16">
					<dim>1</dim>
					<dim>256</dim>
					<dim>1</dim>
				</port>
			</output>
		</layer>
		<layer id="193" name="BatchNormalization_410/mean/Fused_Mul_" type="Multiply" version="opset1">
			<data auto_broadcast="numpy"/>
			<input>
				<port id="0" precision="FP16">
					<dim>1</dim>
					<dim>256</dim>
					<dim>512</dim>
				</port>
				<port id="1" precision="FP16">
					<dim>1</dim>
					<dim>256</dim>
					<dim>1</dim>
				</port>
			</input>
			<output>
				<port id="2" precision="FP16">
					<dim>1</dim>
					<dim>256</dim>
					<dim>512</dim>
				</port>
			</output>
		</layer>
		<layer id="194" name="data_add_1555615561" type="Const" version="opset1">
			<data element_type="f16" offset="20146724" shape="1, 256, 1" size="512"/>
			<output>
				<port id="0" precision="FP16">
					<dim>1</dim>
					<dim>256</dim>
					<dim>1</dim>
				</port>
			</output>
		</layer>
		<layer id="195" name="BatchNormalization_410/variance/Fused_Add_" type="Add" version="opset1">
			<data auto_broadcast="numpy"/>
			<input>
				<port id="0" precision="FP16">
					<dim>1</dim>
					<dim>256</dim>
					<dim>512</dim>
				</port>
				<port id="1" precision="FP16">
					<dim>1</dim>
					<dim>256</dim>
					<dim>1</dim>
				</port>
			</input>
			<output>
				<port id="2" names="909" precision="FP16">
					<dim>1</dim>
					<dim>256</dim>
					<dim>512</dim>
				</port>
			</output>
		</layer>
		<layer id="196" name="Add_411" type="Add" version="opset1">
			<data auto_broadcast="numpy"/>
			<input>
				<port id="0" precision="FP16">
					<dim>1</dim>
					<dim>256</dim>
					<dim>512</dim>
				</port>
				<port id="1" precision="FP16">
					<dim>1</dim>
					<dim>256</dim>
					<dim>512</dim>
				</port>
			</input>
			<output>
				<port id="2" names="910" precision="FP16">
					<dim>1</dim>
					<dim>256</dim>
					<dim>512</dim>
				</port>
			</output>
		</layer>
		<layer id="197" name="919" type="Const" version="opset1">
			<data element_type="i64" offset="75784" shape="3" size="24"/>
			<output>
				<port id="0" precision="I64">
					<dim>3</dim>
				</port>
			</output>
		</layer>
		<layer id="198" name="Transpose_412" type="Transpose" version="opset1">
			<input>
				<port id="0" precision="FP16">
					<dim>1</dim>
					<dim>256</dim>
					<dim>512</dim>
				</port>
				<port id="1" precision="I64">
					<dim>3</dim>
				</port>
			</input>
			<output>
				<port id="2" names="911" precision="FP16">
					<dim>1</dim>
					<dim>512</dim>
					<dim>256</dim>
				</port>
			</output>
		</layer>
		<layer id="199" name="1264" type="Const" version="opset1">
			<data element_type="f16" offset="20147236" shape="256, 256" size="131072"/>
			<output>
				<port id="0" names="1264" precision="FP16">
					<dim>256</dim>
					<dim>256</dim>
				</port>
			</output>
		</layer>
		<layer id="200" name="MatMul_415" type="MatMul" version="opset1">
			<data transpose_a="false" transpose_b="true"/>
			<input>
				<port id="0" precision="FP16">
					<dim>1</dim>
					<dim>512</dim>
					<dim>256</dim>
				</port>
				<port id="1" precision="FP16">
					<dim>256</dim>
					<dim>256</dim>
				</port>
			</input>
			<output>
				<port id="2" names="916" precision="FP16">
					<dim>1</dim>
					<dim>512</dim>
					<dim>256</dim>
				</port>
			</output>
		</layer>
		<layer id="201" name="model.prenet.highways.0.W2.bias" type="Const" version="opset1">
			<data element_type="f16" offset="20278308" shape="1, 1, 256" size="512"/>
			<output>
				<port id="0" names="model.prenet.highways.0.W2.bias" precision="FP16">
					<dim>1</dim>
					<dim>1</dim>
					<dim>256</dim>
				</port>
			</output>
		</layer>
		<layer id="202" name="Add_416" type="Add" version="opset1">
			<data auto_broadcast="numpy"/>
			<input>
				<port id="0" precision="FP16">
					<dim>1</dim>
					<dim>512</dim>
					<dim>256</dim>
				</port>
				<port id="1" precision="FP16">
					<dim>1</dim>
					<dim>1</dim>
					<dim>256</dim>
				</port>
			</input>
			<output>
				<port id="2" names="917" precision="FP16">
					<dim>1</dim>
					<dim>512</dim>
					<dim>256</dim>
				</port>
			</output>
		</layer>
		<layer id="203" name="Sigmoid_417" type="Sigmoid" version="opset1">
			<input>
				<port id="0" precision="FP16">
					<dim>1</dim>
					<dim>512</dim>
					<dim>256</dim>
				</port>
			</input>
			<output>
				<port id="1" precision="FP16">
					<dim>1</dim>
					<dim>512</dim>
					<dim>256</dim>
				</port>
			</output>
		</layer>
		<layer id="204" name="1263" type="Const" version="opset1">
			<data element_type="f16" offset="20278820" shape="256, 256" size="131072"/>
			<output>
				<port id="0" names="1263" precision="FP16">
					<dim>256</dim>
					<dim>256</dim>
				</port>
			</output>
		</layer>
		<layer id="205" name="MatMul_413" type="MatMul" version="opset1">
			<data transpose_a="false" transpose_b="true"/>
			<input>
				<port id="0" precision="FP16">
					<dim>1</dim>
					<dim>512</dim>
					<dim>256</dim>
				</port>
				<port id="1" precision="FP16">
					<dim>256</dim>
					<dim>256</dim>
				</port>
			</input>
			<output>
				<port id="2" names="913" precision="FP16">
					<dim>1</dim>
					<dim>512</dim>
					<dim>256</dim>
				</port>
			</output>
		</layer>
		<layer id="206" name="model.prenet.highways.0.W1.bias" type="Const" version="opset1">
			<data element_type="f16" offset="20409892" shape="1, 1, 256" size="512"/>
			<output>
				<port id="0" names="model.prenet.highways.0.W1.bias" precision="FP16">
					<dim>1</dim>
					<dim>1</dim>
					<dim>256</dim>
				</port>
			</output>
		</layer>
		<layer id="207" name="Add_414" type="Add" version="opset1">
			<data auto_broadcast="numpy"/>
			<input>
				<port id="0" precision="FP16">
					<dim>1</dim>
					<dim>512</dim>
					<dim>256</dim>
				</port>
				<port id="1" precision="FP16">
					<dim>1</dim>
					<dim>1</dim>
					<dim>256</dim>
				</port>
			</input>
			<output>
				<port id="2" names="914" precision="FP16">
					<dim>1</dim>
					<dim>512</dim>
					<dim>256</dim>
				</port>
			</output>
		</layer>
		<layer id="208" name="Relu_418" type="ReLU" version="opset1">
			<input>
				<port id="0" precision="FP16">
					<dim>1</dim>
					<dim>512</dim>
					<dim>256</dim>
				</port>
			</input>
			<output>
				<port id="1" names="919" precision="FP16">
					<dim>1</dim>
					<dim>512</dim>
					<dim>256</dim>
				</port>
			</output>
		</layer>
		<layer id="209" name="Mul_419" type="Multiply" version="opset1">
			<data auto_broadcast="numpy"/>
			<input>
				<port id="0" precision="FP16">
					<dim>1</dim>
					<dim>512</dim>
					<dim>256</dim>
				</port>
				<port id="1" precision="FP16">
					<dim>1</dim>
					<dim>512</dim>
					<dim>256</dim>
				</port>
			</input>
			<output>
				<port id="2" names="920" precision="FP16">
					<dim>1</dim>
					<dim>512</dim>
					<dim>256</dim>
				</port>
			</output>
		</layer>
		<layer id="210" name="Constant_420" type="Const" version="opset1">
			<data element_type="f16" offset="20410404" shape="1, 1, 1" size="2"/>
			<output>
				<port id="0" names="921" precision="FP16">
					<dim>1</dim>
					<dim>1</dim>
					<dim>1</dim>
				</port>
			</output>
		</layer>
		<layer id="211" name="Sub_421/sub" type="Subtract" version="opset1">
			<data auto_broadcast="numpy"/>
			<input>
				<port id="0" precision="FP16">
					<dim>1</dim>
					<dim>1</dim>
					<dim>1</dim>
				</port>
				<port id="1" precision="FP16">
					<dim>1</dim>
					<dim>512</dim>
					<dim>256</dim>
				</port>
			</input>
			<output>
				<port id="2" names="922" precision="FP16">
					<dim>1</dim>
					<dim>512</dim>
					<dim>256</dim>
				</port>
			</output>
		</layer>
		<layer id="212" name="Mul_422" type="Multiply" version="opset1">
			<data auto_broadcast="numpy"/>
			<input>
				<port id="0" precision="FP16">
					<dim>1</dim>
					<dim>512</dim>
					<dim>256</dim>
				</port>
				<port id="1" precision="FP16">
					<dim>1</dim>
					<dim>512</dim>
					<dim>256</dim>
				</port>
			</input>
			<output>
				<port id="2" names="923" precision="FP16">
					<dim>1</dim>
					<dim>512</dim>
					<dim>256</dim>
				</port>
			</output>
		</layer>
		<layer id="213" name="Add_423" type="Add" version="opset1">
			<data auto_broadcast="numpy"/>
			<input>
				<port id="0" precision="FP16">
					<dim>1</dim>
					<dim>512</dim>
					<dim>256</dim>
				</port>
				<port id="1" precision="FP16">
					<dim>1</dim>
					<dim>512</dim>
					<dim>256</dim>
				</port>
			</input>
			<output>
				<port id="2" names="924" precision="FP16">
					<dim>1</dim>
					<dim>512</dim>
					<dim>256</dim>
				</port>
			</output>
		</layer>
		<layer id="214" name="1266" type="Const" version="opset1">
			<data element_type="f16" offset="20410406" shape="256, 256" size="131072"/>
			<output>
				<port id="0" names="1266" precision="FP16">
					<dim>256</dim>
					<dim>256</dim>
				</port>
			</output>
		</layer>
		<layer id="215" name="MatMul_426" type="MatMul" version="opset1">
			<data transpose_a="false" transpose_b="true"/>
			<input>
				<port id="0" precision="FP16">
					<dim>1</dim>
					<dim>512</dim>
					<dim>256</dim>
				</port>
				<port id="1" precision="FP16">
					<dim>256</dim>
					<dim>256</dim>
				</port>
			</input>
			<output>
				<port id="2" names="929" precision="FP16">
					<dim>1</dim>
					<dim>512</dim>
					<dim>256</dim>
				</port>
			</output>
		</layer>
		<layer id="216" name="model.prenet.highways.1.W2.bias" type="Const" version="opset1">
			<data element_type="f16" offset="20541478" shape="1, 1, 256" size="512"/>
			<output>
				<port id="0" names="model.prenet.highways.1.W2.bias" precision="FP16">
					<dim>1</dim>
					<dim>1</dim>
					<dim>256</dim>
				</port>
			</output>
		</layer>
		<layer id="217" name="Add_427" type="Add" version="opset1">
			<data auto_broadcast="numpy"/>
			<input>
				<port id="0" precision="FP16">
					<dim>1</dim>
					<dim>512</dim>
					<dim>256</dim>
				</port>
				<port id="1" precision="FP16">
					<dim>1</dim>
					<dim>1</dim>
					<dim>256</dim>
				</port>
			</input>
			<output>
				<port id="2" names="930" precision="FP16">
					<dim>1</dim>
					<dim>512</dim>
					<dim>256</dim>
				</port>
			</output>
		</layer>
		<layer id="218" name="Sigmoid_428" type="Sigmoid" version="opset1">
			<input>
				<port id="0" precision="FP16">
					<dim>1</dim>
					<dim>512</dim>
					<dim>256</dim>
				</port>
			</input>
			<output>
				<port id="1" precision="FP16">
					<dim>1</dim>
					<dim>512</dim>
					<dim>256</dim>
				</port>
			</output>
		</layer>
		<layer id="219" name="1265" type="Const" version="opset1">
			<data element_type="f16" offset="20541990" shape="256, 256" size="131072"/>
			<output>
				<port id="0" names="1265" precision="FP16">
					<dim>256</dim>
					<dim>256</dim>
				</port>
			</output>
		</layer>
		<layer id="220" name="MatMul_424" type="MatMul" version="opset1">
			<data transpose_a="false" transpose_b="true"/>
			<input>
				<port id="0" precision="FP16">
					<dim>1</dim>
					<dim>512</dim>
					<dim>256</dim>
				</port>
				<port id="1" precision="FP16">
					<dim>256</dim>
					<dim>256</dim>
				</port>
			</input>
			<output>
				<port id="2" names="926" precision="FP16">
					<dim>1</dim>
					<dim>512</dim>
					<dim>256</dim>
				</port>
			</output>
		</layer>
		<layer id="221" name="model.prenet.highways.1.W1.bias" type="Const" version="opset1">
			<data element_type="f16" offset="20673062" shape="1, 1, 256" size="512"/>
			<output>
				<port id="0" names="model.prenet.highways.1.W1.bias" precision="FP16">
					<dim>1</dim>
					<dim>1</dim>
					<dim>256</dim>
				</port>
			</output>
		</layer>
		<layer id="222" name="Add_425" type="Add" version="opset1">
			<data auto_broadcast="numpy"/>
			<input>
				<port id="0" precision="FP16">
					<dim>1</dim>
					<dim>512</dim>
					<dim>256</dim>
				</port>
				<port id="1" precision="FP16">
					<dim>1</dim>
					<dim>1</dim>
					<dim>256</dim>
				</port>
			</input>
			<output>
				<port id="2" names="927" precision="FP16">
					<dim>1</dim>
					<dim>512</dim>
					<dim>256</dim>
				</port>
			</output>
		</layer>
		<layer id="223" name="Relu_429" type="ReLU" version="opset1">
			<input>
				<port id="0" precision="FP16">
					<dim>1</dim>
					<dim>512</dim>
					<dim>256</dim>
				</port>
			</input>
			<output>
				<port id="1" names="932" precision="FP16">
					<dim>1</dim>
					<dim>512</dim>
					<dim>256</dim>
				</port>
			</output>
		</layer>
		<layer id="224" name="Mul_430" type="Multiply" version="opset1">
			<data auto_broadcast="numpy"/>
			<input>
				<port id="0" precision="FP16">
					<dim>1</dim>
					<dim>512</dim>
					<dim>256</dim>
				</port>
				<port id="1" precision="FP16">
					<dim>1</dim>
					<dim>512</dim>
					<dim>256</dim>
				</port>
			</input>
			<output>
				<port id="2" names="933" precision="FP16">
					<dim>1</dim>
					<dim>512</dim>
					<dim>256</dim>
				</port>
			</output>
		</layer>
		<layer id="225" name="Constant_431" type="Const" version="opset1">
			<data element_type="f16" offset="20410404" shape="1, 1, 1" size="2"/>
			<output>
				<port id="0" names="934" precision="FP16">
					<dim>1</dim>
					<dim>1</dim>
					<dim>1</dim>
				</port>
			</output>
		</layer>
		<layer id="226" name="Sub_432/sub" type="Subtract" version="opset1">
			<data auto_broadcast="numpy"/>
			<input>
				<port id="0" precision="FP16">
					<dim>1</dim>
					<dim>1</dim>
					<dim>1</dim>
				</port>
				<port id="1" precision="FP16">
					<dim>1</dim>
					<dim>512</dim>
					<dim>256</dim>
				</port>
			</input>
			<output>
				<port id="2" names="935" precision="FP16">
					<dim>1</dim>
					<dim>512</dim>
					<dim>256</dim>
				</port>
			</output>
		</layer>
		<layer id="227" name="Mul_433" type="Multiply" version="opset1">
			<data auto_broadcast="numpy"/>
			<input>
				<port id="0" precision="FP16">
					<dim>1</dim>
					<dim>512</dim>
					<dim>256</dim>
				</port>
				<port id="1" precision="FP16">
					<dim>1</dim>
					<dim>512</dim>
					<dim>256</dim>
				</port>
			</input>
			<output>
				<port id="2" names="936" precision="FP16">
					<dim>1</dim>
					<dim>512</dim>
					<dim>256</dim>
				</port>
			</output>
		</layer>
		<layer id="228" name="Add_434" type="Add" version="opset1">
			<data auto_broadcast="numpy"/>
			<input>
				<port id="0" precision="FP16">
					<dim>1</dim>
					<dim>512</dim>
					<dim>256</dim>
				</port>
				<port id="1" precision="FP16">
					<dim>1</dim>
					<dim>512</dim>
					<dim>256</dim>
				</port>
			</input>
			<output>
				<port id="2" names="937" precision="FP16">
					<dim>1</dim>
					<dim>512</dim>
					<dim>256</dim>
				</port>
			</output>
		</layer>
		<layer id="229" name="1268" type="Const" version="opset1">
			<data element_type="f16" offset="20673574" shape="256, 256" size="131072"/>
			<output>
				<port id="0" names="1268" precision="FP16">
					<dim>256</dim>
					<dim>256</dim>
				</port>
			</output>
		</layer>
		<layer id="230" name="MatMul_437" type="MatMul" version="opset1">
			<data transpose_a="false" transpose_b="true"/>
			<input>
				<port id="0" precision="FP16">
					<dim>1</dim>
					<dim>512</dim>
					<dim>256</dim>
				</port>
				<port id="1" precision="FP16">
					<dim>256</dim>
					<dim>256</dim>
				</port>
			</input>
			<output>
				<port id="2" names="942" precision="FP16">
					<dim>1</dim>
					<dim>512</dim>
					<dim>256</dim>
				</port>
			</output>
		</layer>
		<layer id="231" name="model.prenet.highways.2.W2.bias" type="Const" version="opset1">
			<data element_type="f16" offset="20804646" shape="1, 1, 256" size="512"/>
			<output>
				<port id="0" names="model.prenet.highways.2.W2.bias" precision="FP16">
					<dim>1</dim>
					<dim>1</dim>
					<dim>256</dim>
				</port>
			</output>
		</layer>
		<layer id="232" name="Add_438" type="Add" version="opset1">
			<data auto_broadcast="numpy"/>
			<input>
				<port id="0" precision="FP16">
					<dim>1</dim>
					<dim>512</dim>
					<dim>256</dim>
				</port>
				<port id="1" precision="FP16">
					<dim>1</dim>
					<dim>1</dim>
					<dim>256</dim>
				</port>
			</input>
			<output>
				<port id="2" names="943" precision="FP16">
					<dim>1</dim>
					<dim>512</dim>
					<dim>256</dim>
				</port>
			</output>
		</layer>
		<layer id="233" name="Sigmoid_439" type="Sigmoid" version="opset1">
			<input>
				<port id="0" precision="FP16">
					<dim>1</dim>
					<dim>512</dim>
					<dim>256</dim>
				</port>
			</input>
			<output>
				<port id="1" precision="FP16">
					<dim>1</dim>
					<dim>512</dim>
					<dim>256</dim>
				</port>
			</output>
		</layer>
		<layer id="234" name="1267" type="Const" version="opset1">
			<data element_type="f16" offset="20805158" shape="256, 256" size="131072"/>
			<output>
				<port id="0" names="1267" precision="FP16">
					<dim>256</dim>
					<dim>256</dim>
				</port>
			</output>
		</layer>
		<layer id="235" name="MatMul_435" type="MatMul" version="opset1">
			<data transpose_a="false" transpose_b="true"/>
			<input>
				<port id="0" precision="FP16">
					<dim>1</dim>
					<dim>512</dim>
					<dim>256</dim>
				</port>
				<port id="1" precision="FP16">
					<dim>256</dim>
					<dim>256</dim>
				</port>
			</input>
			<output>
				<port id="2" names="939" precision="FP16">
					<dim>1</dim>
					<dim>512</dim>
					<dim>256</dim>
				</port>
			</output>
		</layer>
		<layer id="236" name="model.prenet.highways.2.W1.bias" type="Const" version="opset1">
			<data element_type="f16" offset="20936230" shape="1, 1, 256" size="512"/>
			<output>
				<port id="0" names="model.prenet.highways.2.W1.bias" precision="FP16">
					<dim>1</dim>
					<dim>1</dim>
					<dim>256</dim>
				</port>
			</output>
		</layer>
		<layer id="237" name="Add_436" type="Add" version="opset1">
			<data auto_broadcast="numpy"/>
			<input>
				<port id="0" precision="FP16">
					<dim>1</dim>
					<dim>512</dim>
					<dim>256</dim>
				</port>
				<port id="1" precision="FP16">
					<dim>1</dim>
					<dim>1</dim>
					<dim>256</dim>
				</port>
			</input>
			<output>
				<port id="2" names="940" precision="FP16">
					<dim>1</dim>
					<dim>512</dim>
					<dim>256</dim>
				</port>
			</output>
		</layer>
		<layer id="238" name="Relu_440" type="ReLU" version="opset1">
			<input>
				<port id="0" precision="FP16">
					<dim>1</dim>
					<dim>512</dim>
					<dim>256</dim>
				</port>
			</input>
			<output>
				<port id="1" names="945" precision="FP16">
					<dim>1</dim>
					<dim>512</dim>
					<dim>256</dim>
				</port>
			</output>
		</layer>
		<layer id="239" name="Mul_441" type="Multiply" version="opset1">
			<data auto_broadcast="numpy"/>
			<input>
				<port id="0" precision="FP16">
					<dim>1</dim>
					<dim>512</dim>
					<dim>256</dim>
				</port>
				<port id="1" precision="FP16">
					<dim>1</dim>
					<dim>512</dim>
					<dim>256</dim>
				</port>
			</input>
			<output>
				<port id="2" names="946" precision="FP16">
					<dim>1</dim>
					<dim>512</dim>
					<dim>256</dim>
				</port>
			</output>
		</layer>
		<layer id="240" name="Constant_442" type="Const" version="opset1">
			<data element_type="f16" offset="20410404" shape="1, 1, 1" size="2"/>
			<output>
				<port id="0" names="947" precision="FP16">
					<dim>1</dim>
					<dim>1</dim>
					<dim>1</dim>
				</port>
			</output>
		</layer>
		<layer id="241" name="Sub_443/sub" type="Subtract" version="opset1">
			<data auto_broadcast="numpy"/>
			<input>
				<port id="0" precision="FP16">
					<dim>1</dim>
					<dim>1</dim>
					<dim>1</dim>
				</port>
				<port id="1" precision="FP16">
					<dim>1</dim>
					<dim>512</dim>
					<dim>256</dim>
				</port>
			</input>
			<output>
				<port id="2" names="948" precision="FP16">
					<dim>1</dim>
					<dim>512</dim>
					<dim>256</dim>
				</port>
			</output>
		</layer>
		<layer id="242" name="Mul_444" type="Multiply" version="opset1">
			<data auto_broadcast="numpy"/>
			<input>
				<port id="0" precision="FP16">
					<dim>1</dim>
					<dim>512</dim>
					<dim>256</dim>
				</port>
				<port id="1" precision="FP16">
					<dim>1</dim>
					<dim>512</dim>
					<dim>256</dim>
				</port>
			</input>
			<output>
				<port id="2" names="949" precision="FP16">
					<dim>1</dim>
					<dim>512</dim>
					<dim>256</dim>
				</port>
			</output>
		</layer>
		<layer id="243" name="Add_445" type="Add" version="opset1">
			<data auto_broadcast="numpy"/>
			<input>
				<port id="0" precision="FP16">
					<dim>1</dim>
					<dim>512</dim>
					<dim>256</dim>
				</port>
				<port id="1" precision="FP16">
					<dim>1</dim>
					<dim>512</dim>
					<dim>256</dim>
				</port>
			</input>
			<output>
				<port id="2" names="950" precision="FP16">
					<dim>1</dim>
					<dim>512</dim>
					<dim>256</dim>
				</port>
			</output>
		</layer>
		<layer id="244" name="1270" type="Const" version="opset1">
			<data element_type="f16" offset="20936742" shape="256, 256" size="131072"/>
			<output>
				<port id="0" names="1270" precision="FP16">
					<dim>256</dim>
					<dim>256</dim>
				</port>
			</output>
		</layer>
		<layer id="245" name="MatMul_448" type="MatMul" version="opset1">
			<data transpose_a="false" transpose_b="true"/>
			<input>
				<port id="0" precision="FP16">
					<dim>1</dim>
					<dim>512</dim>
					<dim>256</dim>
				</port>
				<port id="1" precision="FP16">
					<dim>256</dim>
					<dim>256</dim>
				</port>
			</input>
			<output>
				<port id="2" names="955" precision="FP16">
					<dim>1</dim>
					<dim>512</dim>
					<dim>256</dim>
				</port>
			</output>
		</layer>
		<layer id="246" name="model.prenet.highways.3.W2.bias" type="Const" version="opset1">
			<data element_type="f16" offset="21067814" shape="1, 1, 256" size="512"/>
			<output>
				<port id="0" names="model.prenet.highways.3.W2.bias" precision="FP16">
					<dim>1</dim>
					<dim>1</dim>
					<dim>256</dim>
				</port>
			</output>
		</layer>
		<layer id="247" name="Add_449" type="Add" version="opset1">
			<data auto_broadcast="numpy"/>
			<input>
				<port id="0" precision="FP16">
					<dim>1</dim>
					<dim>512</dim>
					<dim>256</dim>
				</port>
				<port id="1" precision="FP16">
					<dim>1</dim>
					<dim>1</dim>
					<dim>256</dim>
				</port>
			</input>
			<output>
				<port id="2" names="956" precision="FP16">
					<dim>1</dim>
					<dim>512</dim>
					<dim>256</dim>
				</port>
			</output>
		</layer>
		<layer id="248" name="Sigmoid_450" type="Sigmoid" version="opset1">
			<input>
				<port id="0" precision="FP16">
					<dim>1</dim>
					<dim>512</dim>
					<dim>256</dim>
				</port>
			</input>
			<output>
				<port id="1" precision="FP16">
					<dim>1</dim>
					<dim>512</dim>
					<dim>256</dim>
				</port>
			</output>
		</layer>
		<layer id="249" name="1269" type="Const" version="opset1">
			<data element_type="f16" offset="21068326" shape="256, 256" size="131072"/>
			<output>
				<port id="0" names="1269" precision="FP16">
					<dim>256</dim>
					<dim>256</dim>
				</port>
			</output>
		</layer>
		<layer id="250" name="MatMul_446" type="MatMul" version="opset1">
			<data transpose_a="false" transpose_b="true"/>
			<input>
				<port id="0" precision="FP16">
					<dim>1</dim>
					<dim>512</dim>
					<dim>256</dim>
				</port>
				<port id="1" precision="FP16">
					<dim>256</dim>
					<dim>256</dim>
				</port>
			</input>
			<output>
				<port id="2" names="952" precision="FP16">
					<dim>1</dim>
					<dim>512</dim>
					<dim>256</dim>
				</port>
			</output>
		</layer>
		<layer id="251" name="model.prenet.highways.3.W1.bias" type="Const" version="opset1">
			<data element_type="f16" offset="21199398" shape="1, 1, 256" size="512"/>
			<output>
				<port id="0" names="model.prenet.highways.3.W1.bias" precision="FP16">
					<dim>1</dim>
					<dim>1</dim>
					<dim>256</dim>
				</port>
			</output>
		</layer>
		<layer id="252" name="Add_447" type="Add" version="opset1">
			<data auto_broadcast="numpy"/>
			<input>
				<port id="0" precision="FP16">
					<dim>1</dim>
					<dim>512</dim>
					<dim>256</dim>
				</port>
				<port id="1" precision="FP16">
					<dim>1</dim>
					<dim>1</dim>
					<dim>256</dim>
				</port>
			</input>
			<output>
				<port id="2" names="953" precision="FP16">
					<dim>1</dim>
					<dim>512</dim>
					<dim>256</dim>
				</port>
			</output>
		</layer>
		<layer id="253" name="Relu_451" type="ReLU" version="opset1">
			<input>
				<port id="0" precision="FP16">
					<dim>1</dim>
					<dim>512</dim>
					<dim>256</dim>
				</port>
			</input>
			<output>
				<port id="1" names="958" precision="FP16">
					<dim>1</dim>
					<dim>512</dim>
					<dim>256</dim>
				</port>
			</output>
		</layer>
		<layer id="254" name="Mul_452" type="Multiply" version="opset1">
			<data auto_broadcast="numpy"/>
			<input>
				<port id="0" precision="FP16">
					<dim>1</dim>
					<dim>512</dim>
					<dim>256</dim>
				</port>
				<port id="1" precision="FP16">
					<dim>1</dim>
					<dim>512</dim>
					<dim>256</dim>
				</port>
			</input>
			<output>
				<port id="2" names="959" precision="FP16">
					<dim>1</dim>
					<dim>512</dim>
					<dim>256</dim>
				</port>
			</output>
		</layer>
		<layer id="255" name="Constant_453" type="Const" version="opset1">
			<data element_type="f16" offset="20410404" shape="1, 1, 1" size="2"/>
			<output>
				<port id="0" names="960" precision="FP16">
					<dim>1</dim>
					<dim>1</dim>
					<dim>1</dim>
				</port>
			</output>
		</layer>
		<layer id="256" name="Sub_454/sub" type="Subtract" version="opset1">
			<data auto_broadcast="numpy"/>
			<input>
				<port id="0" precision="FP16">
					<dim>1</dim>
					<dim>1</dim>
					<dim>1</dim>
				</port>
				<port id="1" precision="FP16">
					<dim>1</dim>
					<dim>512</dim>
					<dim>256</dim>
				</port>
			</input>
			<output>
				<port id="2" names="961" precision="FP16">
					<dim>1</dim>
					<dim>512</dim>
					<dim>256</dim>
				</port>
			</output>
		</layer>
		<layer id="257" name="Mul_455" type="Multiply" version="opset1">
			<data auto_broadcast="numpy"/>
			<input>
				<port id="0" precision="FP16">
					<dim>1</dim>
					<dim>512</dim>
					<dim>256</dim>
				</port>
				<port id="1" precision="FP16">
					<dim>1</dim>
					<dim>512</dim>
					<dim>256</dim>
				</port>
			</input>
			<output>
				<port id="2" names="962" precision="FP16">
					<dim>1</dim>
					<dim>512</dim>
					<dim>256</dim>
				</port>
			</output>
		</layer>
		<layer id="258" name="Add_456" type="Add" version="opset1">
			<data auto_broadcast="numpy"/>
			<input>
				<port id="0" precision="FP16">
					<dim>1</dim>
					<dim>512</dim>
					<dim>256</dim>
				</port>
				<port id="1" precision="FP16">
					<dim>1</dim>
					<dim>512</dim>
					<dim>256</dim>
				</port>
			</input>
			<output>
				<port id="2" names="963" precision="FP16">
					<dim>1</dim>
					<dim>512</dim>
					<dim>256</dim>
				</port>
			</output>
		</layer>
		<layer id="259" name="915" type="Const" version="opset1">
			<data element_type="i64" offset="75784" shape="3" size="24"/>
			<output>
				<port id="0" precision="I64">
					<dim>3</dim>
				</port>
			</output>
		</layer>
		<layer id="260" name="Transpose_457" type="Transpose" version="opset1">
			<input>
				<port id="0" precision="FP16">
					<dim>1</dim>
					<dim>512</dim>
					<dim>256</dim>
				</port>
				<port id="1" precision="I64">
					<dim>3</dim>
				</port>
			</input>
			<output>
				<port id="2" names="964" precision="FP16">
					<dim>1</dim>
					<dim>256</dim>
					<dim>512</dim>
				</port>
			</output>
		</layer>
		<layer id="261" name="Mul_461" type="Multiply" version="opset1">
			<data auto_broadcast="numpy"/>
			<input>
				<port id="0" precision="FP16">
					<dim>1</dim>
					<dim>256</dim>
					<dim>512</dim>
				</port>
				<port id="1" precision="FP16">
					<dim>1</dim>
					<dim>1</dim>
					<dim>512</dim>
				</port>
			</input>
			<output>
				<port id="2" names="968" precision="FP16">
					<dim>1</dim>
					<dim>256</dim>
					<dim>512</dim>
				</port>
			</output>
		</layer>
		<layer id="262" name="Unsqueeze_458/Dims" type="Const" version="opset1">
			<data element_type="i64" offset="21199910" shape="1" size="8"/>
			<output>
				<port id="0" precision="I64">
					<dim>1</dim>
				</port>
			</output>
		</layer>
		<layer id="263" name="Unsqueeze_458/Unsqueeze" type="Unsqueeze" version="opset1">
			<input>
				<port id="0" precision="FP16">
					<dim>1</dim>
					<dim>1</dim>
					<dim>512</dim>
				</port>
				<port id="1" precision="I64">
					<dim>1</dim>
				</port>
			</input>
			<output>
				<port id="2" names="965" precision="FP16">
					<dim>1</dim>
					<dim>1</dim>
					<dim>1</dim>
					<dim>512</dim>
				</port>
			</output>
		</layer>
		<layer id="264" name="Unsqueeze_459/Dims" type="Const" version="opset1">
			<data element_type="i64" offset="21199918" shape="1" size="8"/>
			<output>
				<port id="0" precision="I64">
					<dim>1</dim>
				</port>
			</output>
		</layer>
		<layer id="265" name="Unsqueeze_459/Unsqueeze" type="Unsqueeze" version="opset1">
			<input>
				<port id="0" precision="FP16">
					<dim>1</dim>
					<dim>1</dim>
					<dim>512</dim>
				</port>
				<port id="1" precision="I64">
					<dim>1</dim>
				</port>
			</input>
			<output>
				<port id="2" names="966" precision="FP16">
					<dim>1</dim>
					<dim>1</dim>
					<dim>512</dim>
					<dim>1</dim>
				</port>
			</output>
		</layer>
		<layer id="266" name="Mul_460" type="Multiply" version="opset1">
			<data auto_broadcast="numpy"/>
			<input>
				<port id="0" precision="FP16">
					<dim>1</dim>
					<dim>1</dim>
					<dim>1</dim>
					<dim>512</dim>
				</port>
				<port id="1" precision="FP16">
					<dim>1</dim>
					<dim>1</dim>
					<dim>512</dim>
					<dim>1</dim>
				</port>
			</input>
			<output>
				<port id="2" names="967" precision="FP16">
					<dim>1</dim>
					<dim>1</dim>
					<dim>512</dim>
					<dim>512</dim>
				</port>
			</output>
		</layer>
		<layer id="267" name="Constant_501" type="Const" version="opset1">
			<data element_type="f16" offset="21199926" shape="1, 1, 1, 1" size="2"/>
			<output>
				<port id="0" names="1022" precision="FP16">
					<dim>1</dim>
					<dim>1</dim>
					<dim>1</dim>
					<dim>1</dim>
				</port>
			</output>
		</layer>
		<layer id="268" name="Equal_502" type="Equal" version="opset1">
			<input>
				<port id="0" precision="FP16">
					<dim>1</dim>
					<dim>1</dim>
					<dim>512</dim>
					<dim>512</dim>
				</port>
				<port id="1" precision="FP16">
					<dim>1</dim>
					<dim>1</dim>
					<dim>1</dim>
					<dim>1</dim>
				</port>
			</input>
			<output>
				<port id="2" names="1023,1024" precision="BOOL">
					<dim>1</dim>
					<dim>1</dim>
					<dim>512</dim>
					<dim>512</dim>
				</port>
			</output>
		</layer>
		<layer id="269" name="Constant_504" type="Const" version="opset1">
			<data element_type="f16" offset="21199928" shape="" size="2"/>
			<output>
				<port id="0" names="1025" precision="FP16"/>
			</output>
		</layer>
		<layer id="270" name="model.prenet.att_enc.attn_layers.0.conv_q.weight" type="Const" version="opset1">
			<data element_type="f16" offset="21199930" shape="256, 256, 1" size="131072"/>
			<output>
				<port id="0" names="model.prenet.att_enc.attn_layers.0.conv_q.weight" precision="FP16">
					<dim>256</dim>
					<dim>256</dim>
					<dim>1</dim>
				</port>
			</output>
		</layer>
		<layer id="271" name="Conv_462/WithoutBiases" type="Convolution" version="opset1">
			<data auto_pad="explicit" dilations="1" pads_begin="0" pads_end="0" strides="1"/>
			<input>
				<port id="0" precision="FP16">
					<dim>1</dim>
					<dim>256</dim>
					<dim>512</dim>
				</port>
				<port id="1" precision="FP16">
					<dim>256</dim>
					<dim>256</dim>
					<dim>1</dim>
				</port>
			</input>
			<output>
				<port id="2" precision="FP16">
					<dim>1</dim>
					<dim>256</dim>
					<dim>512</dim>
				</port>
			</output>
		</layer>
		<layer id="272" name="Conv_462/Dims9541" type="Const" version="opset1">
			<data element_type="f16" offset="21331002" shape="1, 256, 1" size="512"/>
			<output>
				<port id="0" precision="FP16">
					<dim>1</dim>
					<dim>256</dim>
					<dim>1</dim>
				</port>
			</output>
		</layer>
		<layer id="273" name="Conv_462" type="Add" version="opset1">
			<data auto_broadcast="numpy"/>
			<input>
				<port id="0" precision="FP16">
					<dim>1</dim>
					<dim>256</dim>
					<dim>512</dim>
				</port>
				<port id="1" precision="FP16">
					<dim>1</dim>
					<dim>256</dim>
					<dim>1</dim>
				</port>
			</input>
			<output>
				<port id="2" names="969" precision="FP16">
					<dim>1</dim>
					<dim>256</dim>
					<dim>512</dim>
				</port>
			</output>
		</layer>
		<layer id="274" name="model.prenet.att_enc.attn_layers.0.conv_k.weight" type="Const" version="opset1">
			<data element_type="f16" offset="21331514" shape="256, 256, 1" size="131072"/>
			<output>
				<port id="0" names="model.prenet.att_enc.attn_layers.0.conv_k.weight" precision="FP16">
					<dim>256</dim>
					<dim>256</dim>
					<dim>1</dim>
				</port>
			</output>
		</layer>
		<layer id="275" name="Conv_463/WithoutBiases" type="Convolution" version="opset1">
			<data auto_pad="explicit" dilations="1" pads_begin="0" pads_end="0" strides="1"/>
			<input>
				<port id="0" precision="FP16">
					<dim>1</dim>
					<dim>256</dim>
					<dim>512</dim>
				</port>
				<port id="1" precision="FP16">
					<dim>256</dim>
					<dim>256</dim>
					<dim>1</dim>
				</port>
			</input>
			<output>
				<port id="2" precision="FP16">
					<dim>1</dim>
					<dim>256</dim>
					<dim>512</dim>
				</port>
			</output>
		</layer>
		<layer id="276" name="Conv_463/Dims9367" type="Const" version="opset1">
			<data element_type="f16" offset="21462586" shape="1, 256, 1" size="512"/>
			<output>
				<port id="0" precision="FP16">
					<dim>1</dim>
					<dim>256</dim>
					<dim>1</dim>
				</port>
			</output>
		</layer>
		<layer id="277" name="Conv_463" type="Add" version="opset1">
			<data auto_broadcast="numpy"/>
			<input>
				<port id="0" precision="FP16">
					<dim>1</dim>
					<dim>256</dim>
					<dim>512</dim>
				</port>
				<port id="1" precision="FP16">
					<dim>1</dim>
					<dim>256</dim>
					<dim>1</dim>
				</port>
			</input>
			<output>
				<port id="2" names="970" precision="FP16">
					<dim>1</dim>
					<dim>256</dim>
					<dim>512</dim>
				</port>
			</output>
		</layer>
		<layer id="278" name="Shape_465" type="ShapeOf" version="opset3">
			<data output_type="i64"/>
			<input>
				<port id="0" precision="FP16">
					<dim>1</dim>
					<dim>256</dim>
					<dim>512</dim>
				</port>
			</input>
			<output>
				<port id="1" names="972" precision="I64">
					<dim>3</dim>
				</port>
			</output>
		</layer>
		<layer id="279" name="Constant_466" type="Const" version="opset1">
			<data element_type="i32" offset="21463098" shape="" size="4"/>
			<output>
				<port id="0" names="973" precision="I32"/>
			</output>
		</layer>
		<layer id="280" name="Gather_467/axis" type="Const" version="opset1">
			<data element_type="i64" offset="75776" shape="" size="8"/>
			<output>
				<port id="0" precision="I64"/>
			</output>
		</layer>
		<layer id="281" name="Gather_4671214" type="Gather" version="opset7">
			<data batch_dims="0"/>
			<input>
				<port id="0" precision="I64">
					<dim>3</dim>
				</port>
				<port id="1" precision="I32"/>
				<port id="2" precision="I64"/>
			</input>
			<output>
				<port id="3" names="974" precision="I64"/>
			</output>
		</layer>
		<layer id="282" name="Unsqueeze_477/Dims" type="Const" version="opset1">
			<data element_type="i64" offset="75776" shape="1" size="8"/>
			<output>
				<port id="0" precision="I64">
					<dim>1</dim>
				</port>
			</output>
		</layer>
		<layer id="283" name="Unsqueeze_477/Unsqueeze" type="Unsqueeze" version="opset1">
			<input>
				<port id="0" precision="I64"/>
				<port id="1" precision="I64">
					<dim>1</dim>
				</port>
			</input>
			<output>
				<port id="2" names="986" precision="I64">
					<dim>1</dim>
				</port>
			</output>
		</layer>
		<layer id="284" name="1271" type="Const" version="opset1">
			<data element_type="i64" offset="21463102" shape="1" size="8"/>
			<output>
				<port id="0" names="1271" precision="I64">
					<dim>1</dim>
				</port>
			</output>
		</layer>
		<layer id="285" name="1272" type="Const" version="opset1">
			<data element_type="i64" offset="21463110" shape="1" size="8"/>
			<output>
				<port id="0" names="1272" precision="I64">
					<dim>1</dim>
				</port>
			</output>
		</layer>
		<layer id="286" name="Shape_474" type="ShapeOf" version="opset3">
			<data output_type="i64"/>
			<input>
				<port id="0" precision="FP16">
					<dim>1</dim>
					<dim>256</dim>
					<dim>512</dim>
				</port>
			</input>
			<output>
				<port id="1" names="981" precision="I64">
					<dim>3</dim>
				</port>
			</output>
		</layer>
		<layer id="287" name="Constant_475" type="Const" version="opset1">
			<data element_type="i32" offset="21463118" shape="" size="4"/>
			<output>
				<port id="0" names="982" precision="I32"/>
			</output>
		</layer>
		<layer id="288" name="Gather_476/axis" type="Const" version="opset1">
			<data element_type="i64" offset="75776" shape="" size="8"/>
			<output>
				<port id="0" precision="I64"/>
			</output>
		</layer>
		<layer id="289" name="Gather_4761200" type="Gather" version="opset7">
			<data batch_dims="0"/>
			<input>
				<port id="0" precision="I64">
					<dim>3</dim>
				</port>
				<port id="1" precision="I32"/>
				<port id="2" precision="I64"/>
			</input>
			<output>
				<port id="3" names="983" precision="I64"/>
			</output>
		</layer>
		<layer id="290" name="Unsqueeze_478/Dims" type="Const" version="opset1">
			<data element_type="i64" offset="75776" shape="1" size="8"/>
			<output>
				<port id="0" precision="I64">
					<dim>1</dim>
				</port>
			</output>
		</layer>
		<layer id="291" name="Unsqueeze_478/Unsqueeze" type="Unsqueeze" version="opset1">
			<input>
				<port id="0" precision="I64"/>
				<port id="1" precision="I64">
					<dim>1</dim>
				</port>
			</input>
			<output>
				<port id="2" names="989" precision="I64">
					<dim>1</dim>
				</port>
			</output>
		</layer>
		<layer id="292" name="Concat_479" type="Concat" version="opset1">
			<data axis="0"/>
			<input>
				<port id="0" precision="I64">
					<dim>1</dim>
				</port>
				<port id="1" precision="I64">
					<dim>1</dim>
				</port>
				<port id="2" precision="I64">
					<dim>1</dim>
				</port>
				<port id="3" precision="I64">
					<dim>1</dim>
				</port>
			</input>
			<output>
				<port id="4" names="990" precision="I64">
					<dim>4</dim>
				</port>
			</output>
		</layer>
		<layer id="293" name="Reshape_480" type="Reshape" version="opset1">
			<data special_zero="true"/>
			<input>
				<port id="0" precision="FP16">
					<dim>1</dim>
					<dim>256</dim>
					<dim>512</dim>
				</port>
				<port id="1" precision="I64">
					<dim>4</dim>
				</port>
			</input>
			<output>
				<port id="2" names="991" precision="FP16">
					<dim>1</dim>
					<dim>4</dim>
					<dim>64</dim>
					<dim>512</dim>
				</port>
			</output>
		</layer>
		<layer id="294" name="913" type="Const" version="opset1">
			<data element_type="i64" offset="21463122" shape="4" size="32"/>
			<output>
				<port id="0" precision="I64">
					<dim>4</dim>
				</port>
			</output>
		</layer>
		<layer id="295" name="Transpose_481" type="Transpose" version="opset1">
			<input>
				<port id="0" precision="FP16">
					<dim>1</dim>
					<dim>4</dim>
					<dim>64</dim>
					<dim>512</dim>
				</port>
				<port id="1" precision="I64">
					<dim>4</dim>
				</port>
			</input>
			<output>
				<port id="2" names="992" precision="FP16">
					<dim>1</dim>
					<dim>4</dim>
					<dim>512</dim>
					<dim>64</dim>
				</port>
			</output>
		</layer>
		<layer id="296" name="Unsqueeze_482/Dims" type="Const" version="opset1">
			<data element_type="i64" offset="75776" shape="1" size="8"/>
			<output>
				<port id="0" precision="I64">
					<dim>1</dim>
				</port>
			</output>
		</layer>
		<layer id="297" name="Unsqueeze_482/Unsqueeze" type="Unsqueeze" version="opset1">
			<input>
				<port id="0" precision="I64"/>
				<port id="1" precision="I64">
					<dim>1</dim>
				</port>
			</input>
			<output>
				<port id="2" names="995" precision="I64">
					<dim>1</dim>
				</port>
			</output>
		</layer>
		<layer id="298" name="1273" type="Const" version="opset1">
			<data element_type="i64" offset="21463102" shape="1" size="8"/>
			<output>
				<port id="0" names="1273" precision="I64">
					<dim>1</dim>
				</port>
			</output>
		</layer>
		<layer id="299" name="1274" type="Const" version="opset1">
			<data element_type="i64" offset="21463110" shape="1" size="8"/>
			<output>
				<port id="0" names="1274" precision="I64">
					<dim>1</dim>
				</port>
			</output>
		</layer>
		<layer id="300" name="Shape_471" type="ShapeOf" version="opset3">
			<data output_type="i64"/>
			<input>
				<port id="0" precision="FP16">
					<dim>1</dim>
					<dim>256</dim>
					<dim>512</dim>
				</port>
			</input>
			<output>
				<port id="1" names="978" precision="I64">
					<dim>3</dim>
				</port>
			</output>
		</layer>
		<layer id="301" name="Constant_472" type="Const" version="opset1">
			<data element_type="i32" offset="21463118" shape="" size="4"/>
			<output>
				<port id="0" names="979" precision="I32"/>
			</output>
		</layer>
		<layer id="302" name="Gather_473/axis" type="Const" version="opset1">
			<data element_type="i64" offset="75776" shape="" size="8"/>
			<output>
				<port id="0" precision="I64"/>
			</output>
		</layer>
		<layer id="303" name="Gather_4731180" type="Gather" version="opset7">
			<data batch_dims="0"/>
			<input>
				<port id="0" precision="I64">
					<dim>3</dim>
				</port>
				<port id="1" precision="I32"/>
				<port id="2" precision="I64"/>
			</input>
			<output>
				<port id="3" names="980" precision="I64"/>
			</output>
		</layer>
		<layer id="304" name="Unsqueeze_483/Dims" type="Const" version="opset1">
			<data element_type="i64" offset="75776" shape="1" size="8"/>
			<output>
				<port id="0" precision="I64">
					<dim>1</dim>
				</port>
			</output>
		</layer>
		<layer id="305" name="Unsqueeze_483/Unsqueeze" type="Unsqueeze" version="opset1">
			<input>
				<port id="0" precision="I64"/>
				<port id="1" precision="I64">
					<dim>1</dim>
				</port>
			</input>
			<output>
				<port id="2" names="998" precision="I64">
					<dim>1</dim>
				</port>
			</output>
		</layer>
		<layer id="306" name="Concat_484" type="Concat" version="opset1">
			<data axis="0"/>
			<input>
				<port id="0" precision="I64">
					<dim>1</dim>
				</port>
				<port id="1" precision="I64">
					<dim>1</dim>
				</port>
				<port id="2" precision="I64">
					<dim>1</dim>
				</port>
				<port id="3" precision="I64">
					<dim>1</dim>
				</port>
			</input>
			<output>
				<port id="4" names="999" precision="I64">
					<dim>4</dim>
				</port>
			</output>
		</layer>
		<layer id="307" name="Reshape_485" type="Reshape" version="opset1">
			<data special_zero="true"/>
			<input>
				<port id="0" precision="FP16">
					<dim>1</dim>
					<dim>256</dim>
					<dim>512</dim>
				</port>
				<port id="1" precision="I64">
					<dim>4</dim>
				</port>
			</input>
			<output>
				<port id="2" precision="FP16">
					<dim>1</dim>
					<dim>4</dim>
					<dim>64</dim>
					<dim>512</dim>
				</port>
			</output>
		</layer>
		<layer id="308" name="Div_493_copy/const17403" type="Const" version="opset1">
			<data element_type="f16" offset="21463154" shape="1, 4, 1, 1" size="8"/>
			<output>
				<port id="0" precision="FP16">
					<dim>1</dim>
					<dim>4</dim>
					<dim>1</dim>
					<dim>1</dim>
				</port>
			</output>
		</layer>
		<layer id="309" name="Div_493_copy" type="Multiply" version="opset1">
			<data auto_broadcast="numpy"/>
			<input>
				<port id="0" precision="FP16">
					<dim>1</dim>
					<dim>4</dim>
					<dim>64</dim>
					<dim>512</dim>
				</port>
				<port id="1" precision="FP16">
					<dim>1</dim>
					<dim>4</dim>
					<dim>1</dim>
					<dim>1</dim>
				</port>
			</input>
			<output>
				<port id="2" names="1000" precision="FP16">
					<dim>1</dim>
					<dim>4</dim>
					<dim>64</dim>
					<dim>512</dim>
				</port>
			</output>
		</layer>
		<layer id="310" name="MatMul_491" type="MatMul" version="opset1">
			<data transpose_a="false" transpose_b="false"/>
			<input>
				<port id="0" precision="FP16">
					<dim>1</dim>
					<dim>4</dim>
					<dim>512</dim>
					<dim>64</dim>
				</port>
				<port id="1" precision="FP16">
					<dim>1</dim>
					<dim>4</dim>
					<dim>64</dim>
					<dim>512</dim>
				</port>
			</input>
			<output>
				<port id="2" names="1012" precision="FP16">
					<dim>1</dim>
					<dim>4</dim>
					<dim>512</dim>
					<dim>512</dim>
				</port>
			</output>
		</layer>
		<layer id="311" name="1278" type="Const" version="opset1">
			<data element_type="f16" offset="21463162" shape="1, 1, 9, 64" size="1152"/>
			<output>
				<port id="0" names="1278" precision="FP16">
					<dim>1</dim>
					<dim>1</dim>
					<dim>9</dim>
					<dim>64</dim>
				</port>
			</output>
		</layer>
		<layer id="312" name="MatMul_494" type="MatMul" version="opset1">
			<data transpose_a="false" transpose_b="true"/>
			<input>
				<port id="0" precision="FP16">
					<dim>1</dim>
					<dim>4</dim>
					<dim>512</dim>
					<dim>64</dim>
				</port>
				<port id="1" precision="FP16">
					<dim>1</dim>
					<dim>1</dim>
					<dim>9</dim>
					<dim>64</dim>
				</port>
			</input>
			<output>
				<port id="2" names="1015" precision="FP16">
					<dim>1</dim>
					<dim>4</dim>
					<dim>512</dim>
					<dim>9</dim>
				</port>
			</output>
		</layer>
		<layer id="313" name="921" type="Const" version="opset1">
			<data element_type="i64" offset="21463122" shape="4" size="32"/>
			<output>
				<port id="0" precision="I64">
					<dim>4</dim>
				</port>
			</output>
		</layer>
		<layer id="314" name="Transpose_495" type="Transpose" version="opset1">
			<input>
				<port id="0" precision="FP16">
					<dim>1</dim>
					<dim>4</dim>
					<dim>512</dim>
					<dim>9</dim>
				</port>
				<port id="1" precision="I64">
					<dim>4</dim>
				</port>
			</input>
			<output>
				<port id="2" names="1016" precision="FP16">
					<dim>1</dim>
					<dim>4</dim>
					<dim>9</dim>
					<dim>512</dim>
				</port>
			</output>
		</layer>
		<layer id="315" name="MatMul_496" type="MatMul" version="opset1">
			<data transpose_a="false" transpose_b="false"/>
			<input>
				<port id="0" precision="FP16">
					<dim>1</dim>
					<dim>4</dim>
					<dim>512</dim>
					<dim>9</dim>
				</port>
				<port id="1" precision="FP16">
					<dim>1</dim>
					<dim>4</dim>
					<dim>9</dim>
					<dim>512</dim>
				</port>
			</input>
			<output>
				<port id="2" names="1017" precision="FP16">
					<dim>1</dim>
					<dim>4</dim>
					<dim>512</dim>
					<dim>512</dim>
				</port>
			</output>
		</layer>
		<layer id="316" name="Mul_497" type="Multiply" version="opset1">
			<data auto_broadcast="numpy"/>
			<input>
				<port id="0" precision="FP16">
					<dim>1</dim>
					<dim>4</dim>
					<dim>512</dim>
					<dim>512</dim>
				</port>
				<port id="1" precision="FP16">
					<dim>1</dim>
					<dim>1</dim>
					<dim>512</dim>
					<dim>512</dim>
				</port>
			</input>
			<output>
				<port id="2" names="1018" precision="FP16">
					<dim>1</dim>
					<dim>4</dim>
					<dim>512</dim>
					<dim>512</dim>
				</port>
			</output>
		</layer>
		<layer id="317" name="Constant_498" type="Const" version="opset1">
			<data element_type="f16" offset="21464314" shape="1, 1, 1, 1" size="2"/>
			<output>
				<port id="0" names="1019" precision="FP16">
					<dim>1</dim>
					<dim>1</dim>
					<dim>1</dim>
					<dim>1</dim>
				</port>
			</output>
		</layer>
		<layer id="318" name="Div_499" type="Multiply" version="opset1">
			<data auto_broadcast="numpy"/>
			<input>
				<port id="0" precision="FP16">
					<dim>1</dim>
					<dim>4</dim>
					<dim>512</dim>
					<dim>512</dim>
				</port>
				<port id="1" precision="FP16">
					<dim>1</dim>
					<dim>1</dim>
					<dim>1</dim>
					<dim>1</dim>
				</port>
			</input>
			<output>
				<port id="2" names="1020" precision="FP16">
					<dim>1</dim>
					<dim>4</dim>
					<dim>512</dim>
					<dim>512</dim>
				</port>
			</output>
		</layer>
		<layer id="319" name="Add_500" type="Add" version="opset1">
			<data auto_broadcast="numpy"/>
			<input>
				<port id="0" precision="FP16">
					<dim>1</dim>
					<dim>4</dim>
					<dim>512</dim>
					<dim>512</dim>
				</port>
				<port id="1" precision="FP16">
					<dim>1</dim>
					<dim>4</dim>
					<dim>512</dim>
					<dim>512</dim>
				</port>
			</input>
			<output>
				<port id="2" names="1021" precision="FP16">
					<dim>1</dim>
					<dim>4</dim>
					<dim>512</dim>
					<dim>512</dim>
				</port>
			</output>
		</layer>
		<layer id="320" name="Where_505" type="Select" version="opset1">
			<data auto_broadcast="numpy"/>
			<input>
				<port id="0" precision="BOOL">
					<dim>1</dim>
					<dim>1</dim>
					<dim>512</dim>
					<dim>512</dim>
				</port>
				<port id="1" precision="FP16"/>
				<port id="2" precision="FP16">
					<dim>1</dim>
					<dim>4</dim>
					<dim>512</dim>
					<dim>512</dim>
				</port>
			</input>
			<output>
				<port id="3" names="1026" precision="FP16">
					<dim>1</dim>
					<dim>4</dim>
					<dim>512</dim>
					<dim>512</dim>
				</port>
			</output>
		</layer>
		<layer id="321" name="Softmax_506/FlattenONNX_/input_shape" type="ShapeOf" version="opset3">
			<data output_type="i64"/>
			<input>
				<port id="0" precision="FP16">
					<dim>1</dim>
					<dim>4</dim>
					<dim>512</dim>
					<dim>512</dim>
				</port>
			</input>
			<output>
				<port id="1" precision="I64">
					<dim>4</dim>
				</port>
			</output>
		</layer>
		<layer id="322" name="Softmax_506/FlattenONNX_/input_shape/Indices" type="Const" version="opset1">
			<data element_type="i32" offset="21464316" shape="3" size="12"/>
			<output>
				<port id="0" precision="I32">
					<dim>3</dim>
				</port>
			</output>
		</layer>
		<layer id="323" name="Softmax_506/FlattenONNX_/input_shape/Axis" type="Const" version="opset1">
			<data element_type="i64" offset="75776" shape="" size="8"/>
			<output>
				<port id="0" precision="I64"/>
			</output>
		</layer>
		<layer id="324" name="Softmax_506/FlattenONNX_/input_shape/Gather" type="Gather" version="opset7">
			<data batch_dims="0"/>
			<input>
				<port id="0" precision="I64">
					<dim>4</dim>
				</port>
				<port id="1" precision="I32">
					<dim>3</dim>
				</port>
				<port id="2" precision="I64"/>
			</input>
			<output>
				<port id="3" precision="I64">
					<dim>3</dim>
				</port>
			</output>
		</layer>
		<layer id="325" name="Softmax_506/FlattenONNX_/first_dims/value" type="Const" version="opset1">
			<data element_type="i64" offset="75776" shape="1" size="8"/>
			<output>
				<port id="0" precision="I64">
					<dim>1</dim>
				</port>
			</output>
		</layer>
		<layer id="326" name="Softmax_506/FlattenONNX_/first_dims" type="ReduceProd" version="opset1">
			<data keep_dims="true"/>
			<input>
				<port id="0" precision="I64">
					<dim>3</dim>
				</port>
				<port id="1" precision="I64">
					<dim>1</dim>
				</port>
			</input>
			<output>
				<port id="2" precision="I64">
					<dim>1</dim>
				</port>
			</output>
		</layer>
		<layer id="327" name="Softmax_506/FlattenONNX_/second_dims" type="Const" version="opset1">
			<data element_type="i64" offset="21464328" shape="1" size="8"/>
			<output>
				<port id="0" precision="I64">
					<dim>1</dim>
				</port>
			</output>
		</layer>
		<layer id="328" name="Softmax_506/FlattenONNX_/first_dims/shapes_concat" type="Concat" version="opset1">
			<data axis="0"/>
			<input>
				<port id="0" precision="I64">
					<dim>1</dim>
				</port>
				<port id="1" precision="I64">
					<dim>1</dim>
				</port>
			</input>
			<output>
				<port id="2" precision="I64">
					<dim>2</dim>
				</port>
			</output>
		</layer>
		<layer id="329" name="Softmax_506/FlattenONNX_/Reshape" type="Reshape" version="opset1">
			<data special_zero="true"/>
			<input>
				<port id="0" precision="FP16">
					<dim>1</dim>
					<dim>4</dim>
					<dim>512</dim>
					<dim>512</dim>
				</port>
				<port id="1" precision="I64">
					<dim>2</dim>
				</port>
			</input>
			<output>
				<port id="2" precision="FP16">
					<dim>2048</dim>
					<dim>512</dim>
				</port>
			</output>
		</layer>
		<layer id="330" name="Softmax_506/Softmax_" type="SoftMax" version="opset1">
			<data axis="1"/>
			<input>
				<port id="0" precision="FP16">
					<dim>2048</dim>
					<dim>512</dim>
				</port>
			</input>
			<output>
				<port id="1" precision="FP16">
					<dim>2048</dim>
					<dim>512</dim>
				</port>
			</output>
		</layer>
		<layer id="331" name="Softmax_506/ShapeOf_" type="ShapeOf" version="opset3">
			<data output_type="i64"/>
			<input>
				<port id="0" precision="FP16">
					<dim>1</dim>
					<dim>4</dim>
					<dim>512</dim>
					<dim>512</dim>
				</port>
			</input>
			<output>
				<port id="1" precision="I64">
					<dim>4</dim>
				</port>
			</output>
		</layer>
		<layer id="332" name="Softmax_506" type="Reshape" version="opset1">
			<data special_zero="true"/>
			<input>
				<port id="0" precision="FP16">
					<dim>2048</dim>
					<dim>512</dim>
				</port>
				<port id="1" precision="I64">
					<dim>4</dim>
				</port>
			</input>
			<output>
				<port id="2" names="1027" precision="FP16">
					<dim>1</dim>
					<dim>4</dim>
					<dim>512</dim>
					<dim>512</dim>
				</port>
			</output>
		</layer>
		<layer id="333" name="model.prenet.att_enc.attn_layers.0.conv_v.weight" type="Const" version="opset1">
			<data element_type="f16" offset="21464336" shape="256, 256, 1" size="131072"/>
			<output>
				<port id="0" names="model.prenet.att_enc.attn_layers.0.conv_v.weight" precision="FP16">
					<dim>256</dim>
					<dim>256</dim>
					<dim>1</dim>
				</port>
			</output>
		</layer>
		<layer id="334" name="Conv_464/WithoutBiases" type="Convolution" version="opset1">
			<data auto_pad="explicit" dilations="1" pads_begin="0" pads_end="0" strides="1"/>
			<input>
				<port id="0" precision="FP16">
					<dim>1</dim>
					<dim>256</dim>
					<dim>512</dim>
				</port>
				<port id="1" precision="FP16">
					<dim>256</dim>
					<dim>256</dim>
					<dim>1</dim>
				</port>
			</input>
			<output>
				<port id="2" precision="FP16">
					<dim>1</dim>
					<dim>256</dim>
					<dim>512</dim>
				</port>
			</output>
		</layer>
		<layer id="335" name="Conv_464/Dims9577" type="Const" version="opset1">
			<data element_type="f16" offset="21595408" shape="1, 256, 1" size="512"/>
			<output>
				<port id="0" precision="FP16">
					<dim>1</dim>
					<dim>256</dim>
					<dim>1</dim>
				</port>
			</output>
		</layer>
		<layer id="336" name="Conv_464" type="Add" version="opset1">
			<data auto_broadcast="numpy"/>
			<input>
				<port id="0" precision="FP16">
					<dim>1</dim>
					<dim>256</dim>
					<dim>512</dim>
				</port>
				<port id="1" precision="FP16">
					<dim>1</dim>
					<dim>256</dim>
					<dim>1</dim>
				</port>
			</input>
			<output>
				<port id="2" names="971" precision="FP16">
					<dim>1</dim>
					<dim>256</dim>
					<dim>512</dim>
				</port>
			</output>
		</layer>
		<layer id="337" name="Unsqueeze_486/Dims" type="Const" version="opset1">
			<data element_type="i64" offset="75776" shape="1" size="8"/>
			<output>
				<port id="0" precision="I64">
					<dim>1</dim>
				</port>
			</output>
		</layer>
		<layer id="338" name="Unsqueeze_486/Unsqueeze" type="Unsqueeze" version="opset1">
			<input>
				<port id="0" precision="I64"/>
				<port id="1" precision="I64">
					<dim>1</dim>
				</port>
			</input>
			<output>
				<port id="2" names="1003" precision="I64">
					<dim>1</dim>
				</port>
			</output>
		</layer>
		<layer id="339" name="1275" type="Const" version="opset1">
			<data element_type="i64" offset="21463102" shape="1" size="8"/>
			<output>
				<port id="0" names="1275" precision="I64">
					<dim>1</dim>
				</port>
			</output>
		</layer>
		<layer id="340" name="1276" type="Const" version="opset1">
			<data element_type="i64" offset="21463110" shape="1" size="8"/>
			<output>
				<port id="0" names="1276" precision="I64">
					<dim>1</dim>
				</port>
			</output>
		</layer>
		<layer id="341" name="Unsqueeze_487/Dims" type="Const" version="opset1">
			<data element_type="i64" offset="75776" shape="1" size="8"/>
			<output>
				<port id="0" precision="I64">
					<dim>1</dim>
				</port>
			</output>
		</layer>
		<layer id="342" name="Unsqueeze_487/Unsqueeze" type="Unsqueeze" version="opset1">
			<input>
				<port id="0" precision="I64"/>
				<port id="1" precision="I64">
					<dim>1</dim>
				</port>
			</input>
			<output>
				<port id="2" names="1006" precision="I64">
					<dim>1</dim>
				</port>
			</output>
		</layer>
		<layer id="343" name="Concat_488" type="Concat" version="opset1">
			<data axis="0"/>
			<input>
				<port id="0" precision="I64">
					<dim>1</dim>
				</port>
				<port id="1" precision="I64">
					<dim>1</dim>
				</port>
				<port id="2" precision="I64">
					<dim>1</dim>
				</port>
				<port id="3" precision="I64">
					<dim>1</dim>
				</port>
			</input>
			<output>
				<port id="4" names="1007" precision="I64">
					<dim>4</dim>
				</port>
			</output>
		</layer>
		<layer id="344" name="Reshape_489" type="Reshape" version="opset1">
			<data special_zero="true"/>
			<input>
				<port id="0" precision="FP16">
					<dim>1</dim>
					<dim>256</dim>
					<dim>512</dim>
				</port>
				<port id="1" precision="I64">
					<dim>4</dim>
				</port>
			</input>
			<output>
				<port id="2" names="1008" precision="FP16">
					<dim>1</dim>
					<dim>4</dim>
					<dim>64</dim>
					<dim>512</dim>
				</port>
			</output>
		</layer>
		<layer id="345" name="933" type="Const" version="opset1">
			<data element_type="i64" offset="21463122" shape="4" size="32"/>
			<output>
				<port id="0" precision="I64">
					<dim>4</dim>
				</port>
			</output>
		</layer>
		<layer id="346" name="Transpose_490" type="Transpose" version="opset1">
			<input>
				<port id="0" precision="FP16">
					<dim>1</dim>
					<dim>4</dim>
					<dim>64</dim>
					<dim>512</dim>
				</port>
				<port id="1" precision="I64">
					<dim>4</dim>
				</port>
			</input>
			<output>
				<port id="2" names="1009" precision="FP16">
					<dim>1</dim>
					<dim>4</dim>
					<dim>512</dim>
					<dim>64</dim>
				</port>
			</output>
		</layer>
		<layer id="347" name="MatMul_507" type="MatMul" version="opset1">
			<data transpose_a="false" transpose_b="false"/>
			<input>
				<port id="0" precision="FP16">
					<dim>1</dim>
					<dim>4</dim>
					<dim>512</dim>
					<dim>512</dim>
				</port>
				<port id="1" precision="FP16">
					<dim>1</dim>
					<dim>4</dim>
					<dim>512</dim>
					<dim>64</dim>
				</port>
			</input>
			<output>
				<port id="2" names="1028" precision="FP16">
					<dim>1</dim>
					<dim>4</dim>
					<dim>512</dim>
					<dim>64</dim>
				</port>
			</output>
		</layer>
		<layer id="348" name="Mul_510" type="Multiply" version="opset1">
			<data auto_broadcast="numpy"/>
			<input>
				<port id="0" precision="FP16">
					<dim>1</dim>
					<dim>4</dim>
					<dim>512</dim>
					<dim>512</dim>
				</port>
				<port id="1" precision="FP16">
					<dim>1</dim>
					<dim>1</dim>
					<dim>512</dim>
					<dim>512</dim>
				</port>
			</input>
			<output>
				<port id="2" names="1034" precision="FP16">
					<dim>1</dim>
					<dim>4</dim>
					<dim>512</dim>
					<dim>512</dim>
				</port>
			</output>
		</layer>
		<layer id="349" name="1280" type="Const" version="opset1">
			<data element_type="f16" offset="21595920" shape="1, 1, 9, 64" size="1152"/>
			<output>
				<port id="0" names="1280" precision="FP16">
					<dim>1</dim>
					<dim>1</dim>
					<dim>9</dim>
					<dim>64</dim>
				</port>
			</output>
		</layer>
		<layer id="350" name="MatMul_508" type="MatMul" version="opset1">
			<data transpose_a="false" transpose_b="true"/>
			<input>
				<port id="0" precision="FP16">
					<dim>1</dim>
					<dim>4</dim>
					<dim>512</dim>
					<dim>64</dim>
				</port>
				<port id="1" precision="FP16">
					<dim>1</dim>
					<dim>1</dim>
					<dim>9</dim>
					<dim>64</dim>
				</port>
			</input>
			<output>
				<port id="2" names="1031" precision="FP16">
					<dim>1</dim>
					<dim>4</dim>
					<dim>512</dim>
					<dim>9</dim>
				</port>
			</output>
		</layer>
		<layer id="351" name="1281" type="Const" version="opset1">
			<data element_type="f16" offset="21597072" shape="1, 1, 64, 9" size="1152"/>
			<output>
				<port id="0" names="1281" precision="FP16">
					<dim>1</dim>
					<dim>1</dim>
					<dim>64</dim>
					<dim>9</dim>
				</port>
			</output>
		</layer>
		<layer id="352" name="MatMul_509" type="MatMul" version="opset1">
			<data transpose_a="false" transpose_b="true"/>
			<input>
				<port id="0" precision="FP16">
					<dim>1</dim>
					<dim>4</dim>
					<dim>512</dim>
					<dim>9</dim>
				</port>
				<port id="1" precision="FP16">
					<dim>1</dim>
					<dim>1</dim>
					<dim>64</dim>
					<dim>9</dim>
				</port>
			</input>
			<output>
				<port id="2" names="1033" precision="FP16">
					<dim>1</dim>
					<dim>4</dim>
					<dim>512</dim>
					<dim>64</dim>
				</port>
			</output>
		</layer>
		<layer id="353" name="MatMul_511" type="MatMul" version="opset1">
			<data transpose_a="false" transpose_b="false"/>
			<input>
				<port id="0" precision="FP16">
					<dim>1</dim>
					<dim>4</dim>
					<dim>512</dim>
					<dim>512</dim>
				</port>
				<port id="1" precision="FP16">
					<dim>1</dim>
					<dim>4</dim>
					<dim>512</dim>
					<dim>64</dim>
				</port>
			</input>
			<output>
				<port id="2" names="1035" precision="FP16">
					<dim>1</dim>
					<dim>4</dim>
					<dim>512</dim>
					<dim>64</dim>
				</port>
			</output>
		</layer>
		<layer id="354" name="Add_512" type="Add" version="opset1">
			<data auto_broadcast="numpy"/>
			<input>
				<port id="0" precision="FP16">
					<dim>1</dim>
					<dim>4</dim>
					<dim>512</dim>
					<dim>64</dim>
				</port>
				<port id="1" precision="FP16">
					<dim>1</dim>
					<dim>4</dim>
					<dim>512</dim>
					<dim>64</dim>
				</port>
			</input>
			<output>
				<port id="2" names="1036" precision="FP16">
					<dim>1</dim>
					<dim>4</dim>
					<dim>512</dim>
					<dim>64</dim>
				</port>
			</output>
		</layer>
		<layer id="355" name="928" type="Const" version="opset1">
			<data element_type="i64" offset="21463122" shape="4" size="32"/>
			<output>
				<port id="0" precision="I64">
					<dim>4</dim>
				</port>
			</output>
		</layer>
		<layer id="356" name="Transpose_513" type="Transpose" version="opset1">
			<input>
				<port id="0" precision="FP16">
					<dim>1</dim>
					<dim>4</dim>
					<dim>512</dim>
					<dim>64</dim>
				</port>
				<port id="1" precision="I64">
					<dim>4</dim>
				</port>
			</input>
			<output>
				<port id="2" names="1037" precision="FP16">
					<dim>1</dim>
					<dim>4</dim>
					<dim>64</dim>
					<dim>512</dim>
				</port>
			</output>
		</layer>
		<layer id="357" name="Unsqueeze_514/Dims" type="Const" version="opset1">
			<data element_type="i64" offset="75776" shape="1" size="8"/>
			<output>
				<port id="0" precision="I64">
					<dim>1</dim>
				</port>
			</output>
		</layer>
		<layer id="358" name="Unsqueeze_514/Unsqueeze" type="Unsqueeze" version="opset1">
			<input>
				<port id="0" precision="I64"/>
				<port id="1" precision="I64">
					<dim>1</dim>
				</port>
			</input>
			<output>
				<port id="2" names="1038" precision="I64">
					<dim>1</dim>
				</port>
			</output>
		</layer>
		<layer id="359" name="Shape_468" type="ShapeOf" version="opset3">
			<data output_type="i64"/>
			<input>
				<port id="0" precision="FP16">
					<dim>1</dim>
					<dim>256</dim>
					<dim>512</dim>
				</port>
			</input>
			<output>
				<port id="1" names="975" precision="I64">
					<dim>3</dim>
				</port>
			</output>
		</layer>
		<layer id="360" name="Constant_469" type="Const" version="opset1">
			<data element_type="i32" offset="21598224" shape="" size="4"/>
			<output>
				<port id="0" names="976" precision="I32"/>
			</output>
		</layer>
		<layer id="361" name="Gather_470/axis" type="Const" version="opset1">
			<data element_type="i64" offset="75776" shape="" size="8"/>
			<output>
				<port id="0" precision="I64"/>
			</output>
		</layer>
		<layer id="362" name="Gather_4701220" type="Gather" version="opset7">
			<data batch_dims="0"/>
			<input>
				<port id="0" precision="I64">
					<dim>3</dim>
				</port>
				<port id="1" precision="I32"/>
				<port id="2" precision="I64"/>
			</input>
			<output>
				<port id="3" names="977" precision="I64"/>
			</output>
		</layer>
		<layer id="363" name="Unsqueeze_515/Dims" type="Const" version="opset1">
			<data element_type="i64" offset="75776" shape="1" size="8"/>
			<output>
				<port id="0" precision="I64">
					<dim>1</dim>
				</port>
			</output>
		</layer>
		<layer id="364" name="Unsqueeze_515/Unsqueeze" type="Unsqueeze" version="opset1">
			<input>
				<port id="0" precision="I64"/>
				<port id="1" precision="I64">
					<dim>1</dim>
				</port>
			</input>
			<output>
				<port id="2" names="1039" precision="I64">
					<dim>1</dim>
				</port>
			</output>
		</layer>
		<layer id="365" name="Unsqueeze_516/Dims" type="Const" version="opset1">
			<data element_type="i64" offset="75776" shape="1" size="8"/>
			<output>
				<port id="0" precision="I64">
					<dim>1</dim>
				</port>
			</output>
		</layer>
		<layer id="366" name="Unsqueeze_516/Unsqueeze" type="Unsqueeze" version="opset1">
			<input>
				<port id="0" precision="I64"/>
				<port id="1" precision="I64">
					<dim>1</dim>
				</port>
			</input>
			<output>
				<port id="2" names="1040" precision="I64">
					<dim>1</dim>
				</port>
			</output>
		</layer>
		<layer id="367" name="Concat_517" type="Concat" version="opset1">
			<data axis="0"/>
			<input>
				<port id="0" precision="I64">
					<dim>1</dim>
				</port>
				<port id="1" precision="I64">
					<dim>1</dim>
				</port>
				<port id="2" precision="I64">
					<dim>1</dim>
				</port>
			</input>
			<output>
				<port id="3" names="1041" precision="I64">
					<dim>3</dim>
				</port>
			</output>
		</layer>
		<layer id="368" name="Reshape_518" type="Reshape" version="opset1">
			<data special_zero="true"/>
			<input>
				<port id="0" precision="FP16">
					<dim>1</dim>
					<dim>4</dim>
					<dim>64</dim>
					<dim>512</dim>
				</port>
				<port id="1" precision="I64">
					<dim>3</dim>
				</port>
			</input>
			<output>
				<port id="2" names="1042" precision="FP16">
					<dim>1</dim>
					<dim>256</dim>
					<dim>512</dim>
				</port>
			</output>
		</layer>
		<layer id="369" name="model.prenet.att_enc.attn_layers.0.conv_o.weight" type="Const" version="opset1">
			<data element_type="f16" offset="21598228" shape="256, 256, 1" size="131072"/>
			<output>
				<port id="0" names="model.prenet.att_enc.attn_layers.0.conv_o.weight" precision="FP16">
					<dim>256</dim>
					<dim>256</dim>
					<dim>1</dim>
				</port>
			</output>
		</layer>
		<layer id="370" name="Conv_519/WithoutBiases" type="Convolution" version="opset1">
			<data auto_pad="explicit" dilations="1" pads_begin="0" pads_end="0" strides="1"/>
			<input>
				<port id="0" precision="FP16">
					<dim>1</dim>
					<dim>256</dim>
					<dim>512</dim>
				</port>
				<port id="1" precision="FP16">
					<dim>256</dim>
					<dim>256</dim>
					<dim>1</dim>
				</port>
			</input>
			<output>
				<port id="2" precision="FP16">
					<dim>1</dim>
					<dim>256</dim>
					<dim>512</dim>
				</port>
			</output>
		</layer>
		<layer id="371" name="Conv_519/Dims9427" type="Const" version="opset1">
			<data element_type="f16" offset="21729300" shape="1, 256, 1" size="512"/>
			<output>
				<port id="0" precision="FP16">
					<dim>1</dim>
					<dim>256</dim>
					<dim>1</dim>
				</port>
			</output>
		</layer>
		<layer id="372" name="Conv_519" type="Add" version="opset1">
			<data auto_broadcast="numpy"/>
			<input>
				<port id="0" precision="FP16">
					<dim>1</dim>
					<dim>256</dim>
					<dim>512</dim>
				</port>
				<port id="1" precision="FP16">
					<dim>1</dim>
					<dim>256</dim>
					<dim>1</dim>
				</port>
			</input>
			<output>
				<port id="2" names="1043" precision="FP16">
					<dim>1</dim>
					<dim>256</dim>
					<dim>512</dim>
				</port>
			</output>
		</layer>
		<layer id="373" name="Add_520" type="Add" version="opset1">
			<data auto_broadcast="numpy"/>
			<input>
				<port id="0" precision="FP16">
					<dim>1</dim>
					<dim>256</dim>
					<dim>512</dim>
				</port>
				<port id="1" precision="FP16">
					<dim>1</dim>
					<dim>256</dim>
					<dim>512</dim>
				</port>
			</input>
			<output>
				<port id="2" names="1044" precision="FP16">
					<dim>1</dim>
					<dim>256</dim>
					<dim>512</dim>
				</port>
			</output>
		</layer>
		<layer id="374" name="ReduceMean_521/axis" type="Const" version="opset1">
			<data element_type="i64" offset="21729812" shape="1" size="8"/>
			<output>
				<port id="0" precision="I64">
					<dim>1</dim>
				</port>
			</output>
		</layer>
		<layer id="375" name="ReduceMean_521" type="ReduceMean" version="opset1">
			<data keep_dims="true"/>
			<input>
				<port id="0" precision="FP16">
					<dim>1</dim>
					<dim>256</dim>
					<dim>512</dim>
				</port>
				<port id="1" precision="I64">
					<dim>1</dim>
				</port>
			</input>
			<output>
				<port id="2" precision="FP16">
					<dim>1</dim>
					<dim>1</dim>
					<dim>512</dim>
				</port>
			</output>
		</layer>
		<layer id="376" name="Sub_525/sub" type="Subtract" version="opset1">
			<data auto_broadcast="numpy"/>
			<input>
				<port id="0" precision="FP16">
					<dim>1</dim>
					<dim>256</dim>
					<dim>512</dim>
				</port>
				<port id="1" precision="FP16">
					<dim>1</dim>
					<dim>1</dim>
					<dim>512</dim>
				</port>
			</input>
			<output>
				<port id="2" names="1051" precision="FP16">
					<dim>1</dim>
					<dim>256</dim>
					<dim>512</dim>
				</port>
			</output>
		</layer>
		<layer id="377" name="Constant_529" type="Const" version="opset1">
			<data element_type="f16" offset="20410404" shape="1, 1, 1" size="2"/>
			<output>
				<port id="0" names="1055" precision="FP16">
					<dim>1</dim>
					<dim>1</dim>
					<dim>1</dim>
				</port>
			</output>
		</layer>
		<layer id="378" name="Sub_522/sub" type="Subtract" version="opset1">
			<data auto_broadcast="numpy"/>
			<input>
				<port id="0" precision="FP16">
					<dim>1</dim>
					<dim>256</dim>
					<dim>512</dim>
				</port>
				<port id="1" precision="FP16">
					<dim>1</dim>
					<dim>1</dim>
					<dim>512</dim>
				</port>
			</input>
			<output>
				<port id="2" names="1046" precision="FP16">
					<dim>1</dim>
					<dim>256</dim>
					<dim>512</dim>
				</port>
			</output>
		</layer>
		<layer id="379" name="1282" type="Const" version="opset1">
			<data element_type="f16" offset="21729820" shape="1, 1, 1" size="2"/>
			<output>
				<port id="0" names="1282" precision="FP16">
					<dim>1</dim>
					<dim>1</dim>
					<dim>1</dim>
				</port>
			</output>
		</layer>
		<layer id="380" name="Pow_523" type="Power" version="opset1">
			<data auto_broadcast="numpy"/>
			<input>
				<port id="0" precision="FP16">
					<dim>1</dim>
					<dim>256</dim>
					<dim>512</dim>
				</port>
				<port id="1" precision="FP16">
					<dim>1</dim>
					<dim>1</dim>
					<dim>1</dim>
				</port>
			</input>
			<output>
				<port id="2" names="1049" precision="FP16">
					<dim>1</dim>
					<dim>256</dim>
					<dim>512</dim>
				</port>
			</output>
		</layer>
		<layer id="381" name="ReduceMean_524/axis" type="Const" version="opset1">
			<data element_type="i64" offset="21729812" shape="1" size="8"/>
			<output>
…
		<edge from-layer="611" from-port="2" to-layer="613" to-port="0"/>
		<edge from-layer="612" from-port="0" to-layer="613" to-port="1"/>
		<edge from-layer="613" from-port="2" to-layer="614" to-port="0"/>
		<edge from-layer="614" from-port="1" to-layer="616" to-port="0"/>
		<edge from-layer="615" from-port="0" to-layer="616" to-port="1"/>
		<edge from-layer="616" from-port="2" to-layer="618" to-port="0"/>
		<edge from-layer="617" from-port="0" to-layer="618" to-port="1"/>
		<edge from-layer="618" from-port="2" to-layer="619" to-port="0"/>
		<edge from-layer="619" from-port="2" to-layer="683" to-port="0"/>
		<edge from-layer="619" from-port="2" to-layer="633" to-port="0"/>
		<edge from-layer="619" from-port="2" to-layer="715" to-port="0"/>
		<edge from-layer="619" from-port="2" to-layer="629" to-port="0"/>
		<edge from-layer="620" from-port="0" to-layer="621" to-port="1"/>
		<edge from-layer="621" from-port="2" to-layer="624" to-port="0"/>
		<edge from-layer="622" from-port="0" to-layer="623" to-port="1"/>
		<edge from-layer="623" from-port="2" to-layer="624" to-port="1"/>
		<edge from-layer="624" from-port="2" to-layer="1067" to-port="0"/>
		<edge from-layer="624" from-port="2" to-layer="773" to-port="0"/>
		<edge from-layer="624" from-port="2" to-layer="626" to-port="0"/>
		<edge from-layer="624" from-port="2" to-layer="920" to-port="0"/>
		<edge from-layer="625" from-port="0" to-layer="626" to-port="1"/>
		<edge from-layer="626" from-port="2" to-layer="669" to-port="0"/>
		<edge from-layer="627" from-port="0" to-layer="669" to-port="1"/>
		<edge from-layer="628" from-port="0" to-layer="629" to-port="1"/>
		<edge from-layer="629" from-port="2" to-layer="631" to-port="0"/>
		<edge from-layer="630" from-port="0" to-layer="631" to-port="1"/>
		<edge from-layer="631" from-port="2" to-layer="651" to-port="0"/>
		<edge from-layer="631" from-port="2" to-layer="644" to-port="0"/>
		<edge from-layer="632" from-port="0" to-layer="633" to-port="1"/>
		<edge from-layer="633" from-port="2" to-layer="635" to-port="0"/>
		<edge from-layer="634" from-port="0" to-layer="635" to-port="1"/>
		<edge from-layer="635" from-port="2" to-layer="636" to-port="0"/>
		<edge from-layer="635" from-port="2" to-layer="658" to-port="0"/>
		<edge from-layer="635" from-port="2" to-layer="665" to-port="0"/>
		<edge from-layer="635" from-port="2" to-layer="701" to-port="0"/>
		<edge from-layer="636" from-port="1" to-layer="639" to-port="0"/>
		<edge from-layer="637" from-port="0" to-layer="639" to-port="1"/>
		<edge from-layer="638" from-port="0" to-layer="639" to-port="2"/>
		<edge from-layer="639" from-port="3" to-layer="655" to-port="0"/>
		<edge from-layer="639" from-port="3" to-layer="687" to-port="0"/>
		<edge from-layer="639" from-port="3" to-layer="700" to-port="0"/>
		<edge from-layer="639" from-port="3" to-layer="641" to-port="0"/>
		<edge from-layer="640" from-port="0" to-layer="641" to-port="1"/>
		<edge from-layer="641" from-port="2" to-layer="650" to-port="0"/>
		<edge from-layer="642" from-port="0" to-layer="650" to-port="1"/>
		<edge from-layer="643" from-port="0" to-layer="650" to-port="2"/>
		<edge from-layer="644" from-port="1" to-layer="647" to-port="0"/>
		<edge from-layer="645" from-port="0" to-layer="647" to-port="1"/>
		<edge from-layer="646" from-port="0" to-layer="647" to-port="2"/>
		<edge from-layer="647" from-port="3" to-layer="649" to-port="0"/>
		<edge from-layer="647" from-port="3" to-layer="708" to-port="0"/>
		<edge from-layer="648" from-port="0" to-layer="649" to-port="1"/>
		<edge from-layer="649" from-port="2" to-layer="650" to-port="3"/>
		<edge from-layer="650" from-port="4" to-layer="651" to-port="1"/>
		<edge from-layer="651" from-port="2" to-layer="653" to-port="0"/>
		<edge from-layer="652" from-port="0" to-layer="653" to-port="1"/>
		<edge from-layer="653" from-port="2" to-layer="668" to-port="0"/>
		<edge from-layer="654" from-port="0" to-layer="655" to-port="1"/>
		<edge from-layer="655" from-port="2" to-layer="664" to-port="0"/>
		<edge from-layer="656" from-port="0" to-layer="664" to-port="1"/>
		<edge from-layer="657" from-port="0" to-layer="664" to-port="2"/>
		<edge from-layer="658" from-port="1" to-layer="661" to-port="0"/>
		<edge from-layer="659" from-port="0" to-layer="661" to-port="1"/>
		<edge from-layer="660" from-port="0" to-layer="661" to-port="2"/>
		<edge from-layer="661" from-port="3" to-layer="691" to-port="0"/>
		<edge from-layer="661" from-port="3" to-layer="663" to-port="0"/>
		<edge from-layer="662" from-port="0" to-layer="663" to-port="1"/>
		<edge from-layer="663" from-port="2" to-layer="664" to-port="3"/>
		<edge from-layer="664" from-port="4" to-layer="665" to-port="1"/>
		<edge from-layer="665" from-port="2" to-layer="667" to-port="0"/>
		<edge from-layer="666" from-port="0" to-layer="667" to-port="1"/>
		<edge from-layer="667" from-port="2" to-layer="668" to-port="1"/>
		<edge from-layer="668" from-port="2" to-layer="669" to-port="2"/>
		<edge from-layer="669" from-port="3" to-layer="670" to-port="0"/>
		<edge from-layer="669" from-port="3" to-layer="678" to-port="0"/>
		<edge from-layer="669" from-port="3" to-layer="680" to-port="0"/>
		<edge from-layer="670" from-port="1" to-layer="673" to-port="0"/>
		<edge from-layer="671" from-port="0" to-layer="673" to-port="1"/>
		<edge from-layer="672" from-port="0" to-layer="673" to-port="2"/>
		<edge from-layer="673" from-port="3" to-layer="675" to-port="0"/>
		<edge from-layer="674" from-port="0" to-layer="675" to-port="1"/>
		<edge from-layer="675" from-port="2" to-layer="677" to-port="0"/>
		<edge from-layer="676" from-port="0" to-layer="677" to-port="1"/>
		<edge from-layer="677" from-port="2" to-layer="678" to-port="1"/>
		<edge from-layer="678" from-port="2" to-layer="679" to-port="0"/>
		<edge from-layer="679" from-port="1" to-layer="681" to-port="0"/>
		<edge from-layer="680" from-port="1" to-layer="681" to-port="1"/>
		<edge from-layer="681" from-port="2" to-layer="696" to-port="0"/>
		<edge from-layer="682" from-port="0" to-layer="683" to-port="1"/>
		<edge from-layer="683" from-port="2" to-layer="685" to-port="0"/>
		<edge from-layer="684" from-port="0" to-layer="685" to-port="1"/>
		<edge from-layer="685" from-port="2" to-layer="693" to-port="0"/>
		<edge from-layer="686" from-port="0" to-layer="687" to-port="1"/>
		<edge from-layer="687" from-port="2" to-layer="692" to-port="0"/>
		<edge from-layer="688" from-port="0" to-layer="692" to-port="1"/>
		<edge from-layer="689" from-port="0" to-layer="692" to-port="2"/>
		<edge from-layer="690" from-port="0" to-layer="691" to-port="1"/>
		<edge from-layer="691" from-port="2" to-layer="692" to-port="3"/>
		<edge from-layer="692" from-port="4" to-layer="693" to-port="1"/>
		<edge from-layer="693" from-port="2" to-layer="695" to-port="0"/>
		<edge from-layer="694" from-port="0" to-layer="695" to-port="1"/>
		<edge from-layer="695" from-port="2" to-layer="696" to-port="1"/>
		<edge from-layer="696" from-port="2" to-layer="698" to-port="0"/>
		<edge from-layer="697" from-port="0" to-layer="698" to-port="1"/>
		<edge from-layer="698" from-port="2" to-layer="710" to-port="0"/>
		<edge from-layer="699" from-port="0" to-layer="700" to-port="1"/>
		<edge from-layer="700" from-port="2" to-layer="709" to-port="0"/>
		<edge from-layer="701" from-port="1" to-layer="704" to-port="0"/>
		<edge from-layer="702" from-port="0" to-layer="704" to-port="1"/>
		<edge from-layer="703" from-port="0" to-layer="704" to-port="2"/>
		<edge from-layer="704" from-port="3" to-layer="706" to-port="0"/>
		<edge from-layer="705" from-port="0" to-layer="706" to-port="1"/>
		<edge from-layer="706" from-port="2" to-layer="709" to-port="1"/>
		<edge from-layer="707" from-port="0" to-layer="708" to-port="1"/>
		<edge from-layer="708" from-port="2" to-layer="709" to-port="2"/>
		<edge from-layer="709" from-port="3" to-layer="710" to-port="1"/>
		<edge from-layer="710" from-port="2" to-layer="712" to-port="0"/>
		<edge from-layer="711" from-port="0" to-layer="712" to-port="1"/>
		<edge from-layer="712" from-port="2" to-layer="714" to-port="0"/>
		<edge from-layer="713" from-port="0" to-layer="714" to-port="1"/>
		<edge from-layer="714" from-port="2" to-layer="715" to-port="1"/>
		<edge from-layer="715" from-port="2" to-layer="720" to-port="0"/>
		<edge from-layer="715" from-port="2" to-layer="718" to-port="0"/>
		<edge from-layer="715" from-port="2" to-layer="717" to-port="0"/>
		<edge from-layer="716" from-port="0" to-layer="717" to-port="1"/>
		<edge from-layer="717" from-port="2" to-layer="720" to-port="1"/>
		<edge from-layer="717" from-port="2" to-layer="718" to-port="1"/>
		<edge from-layer="718" from-port="2" to-layer="732" to-port="0"/>
		<edge from-layer="719" from-port="0" to-layer="731" to-port="0"/>
		<edge from-layer="720" from-port="2" to-layer="722" to-port="0"/>
		<edge from-layer="721" from-port="0" to-layer="722" to-port="1"/>
		<edge from-layer="722" from-port="2" to-layer="724" to-port="0"/>
		<edge from-layer="723" from-port="0" to-layer="724" to-port="1"/>
		<edge from-layer="724" from-port="2" to-layer="726" to-port="0"/>
		<edge from-layer="725" from-port="0" to-layer="726" to-port="1"/>
		<edge from-layer="726" from-port="2" to-layer="728" to-port="0"/>
		<edge from-layer="727" from-port="0" to-layer="728" to-port="1"/>
		<edge from-layer="728" from-port="2" to-layer="730" to-port="0"/>
		<edge from-layer="729" from-port="0" to-layer="730" to-port="1"/>
		<edge from-layer="730" from-port="2" to-layer="731" to-port="1"/>
		<edge from-layer="731" from-port="2" to-layer="732" to-port="1"/>
		<edge from-layer="732" from-port="2" to-layer="734" to-port="0"/>
		<edge from-layer="733" from-port="0" to-layer="734" to-port="1"/>
		<edge from-layer="734" from-port="2" to-layer="736" to-port="0"/>
		<edge from-layer="735" from-port="0" to-layer="736" to-port="1"/>
		<edge from-layer="736" from-port="2" to-layer="737" to-port="0"/>
		<edge from-layer="736" from-port="2" to-layer="749" to-port="0"/>
		<edge from-layer="737" from-port="2" to-layer="739" to-port="0"/>
		<edge from-layer="738" from-port="0" to-layer="739" to-port="1"/>
		<edge from-layer="739" from-port="2" to-layer="741" to-port="0"/>
		<edge from-layer="740" from-port="0" to-layer="741" to-port="1"/>
		<edge from-layer="741" from-port="2" to-layer="742" to-port="0"/>
		<edge from-layer="742" from-port="1" to-layer="743" to-port="0"/>
		<edge from-layer="743" from-port="2" to-layer="745" to-port="0"/>
		<edge from-layer="744" from-port="0" to-layer="745" to-port="1"/>
		<edge from-layer="745" from-port="2" to-layer="747" to-port="0"/>
		<edge from-layer="746" from-port="0" to-layer="747" to-port="1"/>
		<edge from-layer="747" from-port="2" to-layer="748" to-port="0"/>
		<edge from-layer="748" from-port="2" to-layer="749" to-port="1"/>
		<edge from-layer="749" from-port="2" to-layer="754" to-port="0"/>
		<edge from-layer="749" from-port="2" to-layer="752" to-port="0"/>
		<edge from-layer="749" from-port="2" to-layer="751" to-port="0"/>
		<edge from-layer="750" from-port="0" to-layer="751" to-port="1"/>
		<edge from-layer="751" from-port="2" to-layer="752" to-port="1"/>
		<edge from-layer="751" from-port="2" to-layer="754" to-port="1"/>
		<edge from-layer="752" from-port="2" to-layer="766" to-port="0"/>
		<edge from-layer="753" from-port="0" to-layer="765" to-port="0"/>
		<edge from-layer="754" from-port="2" to-layer="756" to-port="0"/>
		<edge from-layer="755" from-port="0" to-layer="756" to-port="1"/>
		<edge from-layer="756" from-port="2" to-layer="758" to-port="0"/>
		<edge from-layer="757" from-port="0" to-layer="758" to-port="1"/>
		<edge from-layer="758" from-port="2" to-layer="760" to-port="0"/>
		<edge from-layer="759" from-port="0" to-layer="760" to-port="1"/>
		<edge from-layer="760" from-port="2" to-layer="762" to-port="0"/>
		<edge from-layer="761" from-port="0" to-layer="762" to-port="1"/>
		<edge from-layer="762" from-port="2" to-layer="764" to-port="0"/>
		<edge from-layer="763" from-port="0" to-layer="764" to-port="1"/>
		<edge from-layer="764" from-port="2" to-layer="765" to-port="1"/>
		<edge from-layer="765" from-port="2" to-layer="766" to-port="1"/>
		<edge from-layer="766" from-port="2" to-layer="768" to-port="0"/>
		<edge from-layer="767" from-port="0" to-layer="768" to-port="1"/>
		<edge from-layer="768" from-port="2" to-layer="770" to-port="0"/>
		<edge from-layer="769" from-port="0" to-layer="770" to-port="1"/>
		<edge from-layer="770" from-port="2" to-layer="771" to-port="0"/>
		<edge from-layer="771" from-port="2" to-layer="830" to-port="0"/>
		<edge from-layer="771" from-port="2" to-layer="862" to-port="0"/>
		<edge from-layer="771" from-port="2" to-layer="780" to-port="0"/>
		<edge from-layer="771" from-port="2" to-layer="776" to-port="0"/>
		<edge from-layer="772" from-port="0" to-layer="773" to-port="1"/>
		<edge from-layer="773" from-port="2" to-layer="816" to-port="0"/>
		<edge from-layer="774" from-port="0" to-layer="816" to-port="1"/>
		<edge from-layer="775" from-port="0" to-layer="776" to-port="1"/>
		<edge from-layer="776" from-port="2" to-layer="778" to-port="0"/>
		<edge from-layer="777" from-port="0" to-layer="778" to-port="1"/>
		<edge from-layer="778" from-port="2" to-layer="791" to-port="0"/>
		<edge from-layer="778" from-port="2" to-layer="798" to-port="0"/>
		<edge from-layer="779" from-port="0" to-layer="780" to-port="1"/>
		<edge from-layer="780" from-port="2" to-layer="782" to-port="0"/>
		<edge from-layer="781" from-port="0" to-layer="782" to-port="1"/>
		<edge from-layer="782" from-port="2" to-layer="805" to-port="0"/>
		<edge from-layer="782" from-port="2" to-layer="848" to-port="0"/>
		<edge from-layer="782" from-port="2" to-layer="783" to-port="0"/>
		<edge from-layer="782" from-port="2" to-layer="812" to-port="0"/>
		<edge from-layer="783" from-port="1" to-layer="786" to-port="0"/>
		<edge from-layer="784" from-port="0" to-layer="786" to-port="1"/>
		<edge from-layer="785" from-port="0" to-layer="786" to-port="2"/>
		<edge from-layer="786" from-port="3" to-layer="802" to-port="0"/>
		<edge from-layer="786" from-port="3" to-layer="788" to-port="0"/>
		<edge from-layer="786" from-port="3" to-layer="847" to-port="0"/>
		<edge from-layer="786" from-port="3" to-layer="834" to-port="0"/>
		<edge from-layer="787" from-port="0" to-layer="788" to-port="1"/>
		<edge from-layer="788" from-port="2" to-layer="797" to-port="0"/>
		<edge from-layer="789" from-port="0" to-layer="797" to-port="1"/>
		<edge from-layer="790" from-port="0" to-layer="797" to-port="2"/>
		<edge from-layer="791" from-port="1" to-layer="794" to-port="0"/>
		<edge from-layer="792" from-port="0" to-layer="794" to-port="1"/>
		<edge from-layer="793" from-port="0" to-layer="794" to-port="2"/>
		<edge from-layer="794" from-port="3" to-layer="855" to-port="0"/>
		<edge from-layer="794" from-port="3" to-layer="796" to-port="0"/>
		<edge from-layer="795" from-port="0" to-layer="796" to-port="1"/>
		<edge from-layer="796" from-port="2" to-layer="797" to-port="3"/>
		<edge from-layer="797" from-port="4" to-layer="798" to-port="1"/>
		<edge from-layer="798" from-port="2" to-layer="800" to-port="0"/>
		<edge from-layer="799" from-port="0" to-layer="800" to-port="1"/>
		<edge from-layer="800" from-port="2" to-layer="815" to-port="0"/>
		<edge from-layer="801" from-port="0" to-layer="802" to-port="1"/>
		<edge from-layer="802" from-port="2" to-layer="811" to-port="0"/>
		<edge from-layer="803" from-port="0" to-layer="811" to-port="1"/>
		<edge from-layer="804" from-port="0" to-layer="811" to-port="2"/>
		<edge from-layer="805" from-port="1" to-layer="808" to-port="0"/>
		<edge from-layer="806" from-port="0" to-layer="808" to-port="1"/>
		<edge from-layer="807" from-port="0" to-layer="808" to-port="2"/>
		<edge from-layer="808" from-port="3" to-layer="810" to-port="0"/>
		<edge from-layer="808" from-port="3" to-layer="838" to-port="0"/>
		<edge from-layer="809" from-port="0" to-layer="810" to-port="1"/>
		<edge from-layer="810" from-port="2" to-layer="811" to-port="3"/>
		<edge from-layer="811" from-port="4" to-layer="812" to-port="1"/>
		<edge from-layer="812" from-port="2" to-layer="814" to-port="0"/>
		<edge from-layer="813" from-port="0" to-layer="814" to-port="1"/>
		<edge from-layer="814" from-port="2" to-layer="815" to-port="1"/>
		<edge from-layer="815" from-port="2" to-layer="816" to-port="2"/>
		<edge from-layer="816" from-port="3" to-layer="825" to-port="0"/>
		<edge from-layer="816" from-port="3" to-layer="817" to-port="0"/>
		<edge from-layer="816" from-port="3" to-layer="827" to-port="0"/>
		<edge from-layer="817" from-port="1" to-layer="820" to-port="0"/>
		<edge from-layer="818" from-port="0" to-layer="820" to-port="1"/>
		<edge from-layer="819" from-port="0" to-layer="820" to-port="2"/>
		<edge from-layer="820" from-port="3" to-layer="822" to-port="0"/>
		<edge from-layer="821" from-port="0" to-layer="822" to-port="1"/>
		<edge from-layer="822" from-port="2" to-layer="824" to-port="0"/>
		<edge from-layer="823" from-port="0" to-layer="824" to-port="1"/>
		<edge from-layer="824" from-port="2" to-layer="825" to-port="1"/>
		<edge from-layer="825" from-port="2" to-layer="826" to-port="0"/>
		<edge from-layer="826" from-port="1" to-layer="828" to-port="0"/>
		<edge from-layer="827" from-port="1" to-layer="828" to-port="1"/>
		<edge from-layer="828" from-port="2" to-layer="843" to-port="0"/>
		<edge from-layer="829" from-port="0" to-layer="830" to-port="1"/>
		<edge from-layer="830" from-port="2" to-layer="832" to-port="0"/>
		<edge from-layer="831" from-port="0" to-layer="832" to-port="1"/>
		<edge from-layer="832" from-port="2" to-layer="840" to-port="0"/>
		<edge from-layer="833" from-port="0" to-layer="834" to-port="1"/>
		<edge from-layer="834" from-port="2" to-layer="839" to-port="0"/>
		<edge from-layer="835" from-port="0" to-layer="839" to-port="1"/>
		<edge from-layer="836" from-port="0" to-layer="839" to-port="2"/>
		<edge from-layer="837" from-port="0" to-layer="838" to-port="1"/>
		<edge from-layer="838" from-port="2" to-layer="839" to-port="3"/>
		<edge from-layer="839" from-port="4" to-layer="840" to-port="1"/>
		<edge from-layer="840" from-port="2" to-layer="842" to-port="0"/>
		<edge from-layer="841" from-port="0" to-layer="842" to-port="1"/>
		<edge from-layer="842" from-port="2" to-layer="843" to-port="1"/>
		<edge from-layer="843" from-port="2" to-layer="845" to-port="0"/>
		<edge from-layer="844" from-port="0" to-layer="845" to-port="1"/>
		<edge from-layer="845" from-port="2" to-layer="857" to-port="0"/>
		<edge from-layer="846" from-port="0" to-layer="847" to-port="1"/>
		<edge from-layer="847" from-port="2" to-layer="856" to-port="0"/>
		<edge from-layer="848" from-port="1" to-layer="851" to-port="0"/>
		<edge from-layer="849" from-port="0" to-layer="851" to-port="1"/>
		<edge from-layer="850" from-port="0" to-layer="851" to-port="2"/>
		<edge from-layer="851" from-port="3" to-layer="853" to-port="0"/>
		<edge from-layer="852" from-port="0" to-layer="853" to-port="1"/>
		<edge from-layer="853" from-port="2" to-layer="856" to-port="1"/>
		<edge from-layer="854" from-port="0" to-layer="855" to-port="1"/>
		<edge from-layer="855" from-port="2" to-layer="856" to-port="2"/>
		<edge from-layer="856" from-port="3" to-layer="857" to-port="1"/>
		<edge from-layer="857" from-port="2" to-layer="859" to-port="0"/>
		<edge from-layer="858" from-port="0" to-layer="859" to-port="1"/>
		<edge from-layer="859" from-port="2" to-layer="861" to-port="0"/>
		<edge from-layer="860" from-port="0" to-layer="861" to-port="1"/>
		<edge from-layer="861" from-port="2" to-layer="862" to-port="1"/>
		<edge from-layer="862" from-port="2" to-layer="867" to-port="0"/>
		<edge from-layer="862" from-port="2" to-layer="865" to-port="0"/>
		<edge from-layer="862" from-port="2" to-layer="864" to-port="0"/>
		<edge from-layer="863" from-port="0" to-layer="864" to-port="1"/>
		<edge from-layer="864" from-port="2" to-layer="867" to-port="1"/>
		<edge from-layer="864" from-port="2" to-layer="865" to-port="1"/>
		<edge from-layer="865" from-port="2" to-layer="879" to-port="0"/>
		<edge from-layer="866" from-port="0" to-layer="878" to-port="0"/>
		<edge from-layer="867" from-port="2" to-layer="869" to-port="0"/>
		<edge from-layer="868" from-port="0" to-layer="869" to-port="1"/>
		<edge from-layer="869" from-port="2" to-layer="871" to-port="0"/>
		<edge from-layer="870" from-port="0" to-layer="871" to-port="1"/>
		<edge from-layer="871" from-port="2" to-layer="873" to-port="0"/>
		<edge from-layer="872" from-port="0" to-layer="873" to-port="1"/>
		<edge from-layer="873" from-port="2" to-layer="875" to-port="0"/>
		<edge from-layer="874" from-port="0" to-layer="875" to-port="1"/>
		<edge from-layer="875" from-port="2" to-layer="877" to-port="0"/>
		<edge from-layer="876" from-port="0" to-layer="877" to-port="1"/>
		<edge from-layer="877" from-port="2" to-layer="878" to-port="1"/>
		<edge from-layer="878" from-port="2" to-layer="879" to-port="1"/>
		<edge from-layer="879" from-port="2" to-layer="881" to-port="0"/>
		<edge from-layer="880" from-port="0" to-layer="881" to-port="1"/>
		<edge from-layer="881" from-port="2" to-layer="883" to-port="0"/>
		<edge from-layer="882" from-port="0" to-layer="883" to-port="1"/>
		<edge from-layer="883" from-port="2" to-layer="884" to-port="0"/>
		<edge from-layer="883" from-port="2" to-layer="896" to-port="0"/>
		<edge from-layer="884" from-port="2" to-layer="886" to-port="0"/>
		<edge from-layer="885" from-port="0" to-layer="886" to-port="1"/>
		<edge from-layer="886" from-port="2" to-layer="888" to-port="0"/>
		<edge from-layer="887" from-port="0" to-layer="888" to-port="1"/>
		<edge from-layer="888" from-port="2" to-layer="889" to-port="0"/>
		<edge from-layer="889" from-port="1" to-layer="890" to-port="0"/>
		<edge from-layer="890" from-port="2" to-layer="892" to-port="0"/>
		<edge from-layer="891" from-port="0" to-layer="892" to-port="1"/>
		<edge from-layer="892" from-port="2" to-layer="894" to-port="0"/>
		<edge from-layer="893" from-port="0" to-layer="894" to-port="1"/>
		<edge from-layer="894" from-port="2" to-layer="895" to-port="0"/>
		<edge from-layer="895" from-port="2" to-layer="896" to-port="1"/>
		<edge from-layer="896" from-port="2" to-layer="898" to-port="0"/>
		<edge from-layer="896" from-port="2" to-layer="899" to-port="0"/>
		<edge from-layer="896" from-port="2" to-layer="901" to-port="0"/>
		<edge from-layer="897" from-port="0" to-layer="898" to-port="1"/>
		<edge from-layer="898" from-port="2" to-layer="901" to-port="1"/>
		<edge from-layer="898" from-port="2" to-layer="899" to-port="1"/>
		<edge from-layer="899" from-port="2" to-layer="913" to-port="0"/>
		<edge from-layer="900" from-port="0" to-layer="912" to-port="0"/>
		<edge from-layer="901" from-port="2" to-layer="903" to-port="0"/>
		<edge from-layer="902" from-port="0" to-layer="903" to-port="1"/>
		<edge from-layer="903" from-port="2" to-layer="905" to-port="0"/>
		<edge from-layer="904" from-port="0" to-layer="905" to-port="1"/>
		<edge from-layer="905" from-port="2" to-layer="907" to-port="0"/>
		<edge from-layer="906" from-port="0" to-layer="907" to-port="1"/>
		<edge from-layer="907" from-port="2" to-layer="909" to-port="0"/>
		<edge from-layer="908" from-port="0" to-layer="909" to-port="1"/>
		<edge from-layer="909" from-port="2" to-layer="911" to-port="0"/>
		<edge from-layer="910" from-port="0" to-layer="911" to-port="1"/>
		<edge from-layer="911" from-port="2" to-layer="912" to-port="1"/>
		<edge from-layer="912" from-port="2" to-layer="913" to-port="1"/>
		<edge from-layer="913" from-port="2" to-layer="915" to-port="0"/>
		<edge from-layer="914" from-port="0" to-layer="915" to-port="1"/>
		<edge from-layer="915" from-port="2" to-layer="917" to-port="0"/>
		<edge from-layer="916" from-port="0" to-layer="917" to-port="1"/>
		<edge from-layer="917" from-port="2" to-layer="918" to-port="0"/>
		<edge from-layer="918" from-port="2" to-layer="927" to-port="0"/>
		<edge from-layer="918" from-port="2" to-layer="977" to-port="0"/>
		<edge from-layer="918" from-port="2" to-layer="1009" to-port="0"/>
		<edge from-layer="918" from-port="2" to-layer="923" to-port="0"/>
		<edge from-layer="919" from-port="0" to-layer="920" to-port="1"/>
		<edge from-layer="920" from-port="2" to-layer="963" to-port="0"/>
		<edge from-layer="921" from-port="0" to-layer="963" to-port="1"/>
		<edge from-layer="922" from-port="0" to-layer="923" to-port="1"/>
		<edge from-layer="923" from-port="2" to-layer="925" to-port="0"/>
		<edge from-layer="924" from-port="0" to-layer="925" to-port="1"/>
		<edge from-layer="925" from-port="2" to-layer="938" to-port="0"/>
		<edge from-layer="925" from-port="2" to-layer="945" to-port="0"/>
		<edge from-layer="926" from-port="0" to-layer="927" to-port="1"/>
		<edge from-layer="927" from-port="2" to-layer="929" to-port="0"/>
		<edge from-layer="928" from-port="0" to-layer="929" to-port="1"/>
		<edge from-layer="929" from-port="2" to-layer="952" to-port="0"/>
		<edge from-layer="929" from-port="2" to-layer="959" to-port="0"/>
		<edge from-layer="929" from-port="2" to-layer="995" to-port="0"/>
		<edge from-layer="929" from-port="2" to-layer="930" to-port="0"/>
		<edge from-layer="930" from-port="1" to-layer="933" to-port="0"/>
		<edge from-layer="931" from-port="0" to-layer="933" to-port="1"/>
		<edge from-layer="932" from-port="0" to-layer="933" to-port="2"/>
		<edge from-layer="933" from-port="3" to-layer="949" to-port="0"/>
		<edge from-layer="933" from-port="3" to-layer="935" to-port="0"/>
		<edge from-layer="933" from-port="3" to-layer="994" to-port="0"/>
		<edge from-layer="933" from-port="3" to-layer="981" to-port="0"/>
		<edge from-layer="934" from-port="0" to-layer="935" to-port="1"/>
		<edge from-layer="935" from-port="2" to-layer="944" to-port="0"/>
		<edge from-layer="936" from-port="0" to-layer="944" to-port="1"/>
		<edge from-layer="937" from-port="0" to-layer="944" to-port="2"/>
		<edge from-layer="938" from-port="1" to-layer="941" to-port="0"/>
		<edge from-layer="939" from-port="0" to-layer="941" to-port="1"/>
		<edge from-layer="940" from-port="0" to-layer="941" to-port="2"/>
		<edge from-layer="941" from-port="3" to-layer="1002" to-port="0"/>
		<edge from-layer="941" from-port="3" to-layer="943" to-port="0"/>
		<edge from-layer="942" from-port="0" to-layer="943" to-port="1"/>
		<edge from-layer="943" from-port="2" to-layer="944" to-port="3"/>
		<edge from-layer="944" from-port="4" to-layer="945" to-port="1"/>
		<edge from-layer="945" from-port="2" to-layer="947" to-port="0"/>
		<edge from-layer="946" from-port="0" to-layer="947" to-port="1"/>
		<edge from-layer="947" from-port="2" to-layer="962" to-port="0"/>
		<edge from-layer="948" from-port="0" to-layer="949" to-port="1"/>
		<edge from-layer="949" from-port="2" to-layer="958" to-port="0"/>
		<edge from-layer="950" from-port="0" to-layer="958" to-port="1"/>
		<edge from-layer="951" from-port="0" to-layer="958" to-port="2"/>
		<edge from-layer="952" from-port="1" to-layer="955" to-port="0"/>
		<edge from-layer="953" from-port="0" to-layer="955" to-port="1"/>
		<edge from-layer="954" from-port="0" to-layer="955" to-port="2"/>
		<edge from-layer="955" from-port="3" to-layer="957" to-port="0"/>
		<edge from-layer="955" from-port="3" to-layer="985" to-port="0"/>
		<edge from-layer="956" from-port="0" to-layer="957" to-port="1"/>
		<edge from-layer="957" from-port="2" to-layer="958" to-port="3"/>
		<edge from-layer="958" from-port="4" to-layer="959" to-port="1"/>
		<edge from-layer="959" from-port="2" to-layer="961" to-port="0"/>
		<edge from-layer="960" from-port="0" to-layer="961" to-port="1"/>
		<edge from-layer="961" from-port="2" to-layer="962" to-port="1"/>
		<edge from-layer="962" from-port="2" to-layer="963" to-port="2"/>
		<edge from-layer="963" from-port="3" to-layer="974" to-port="0"/>
		<edge from-layer="963" from-port="3" to-layer="964" to-port="0"/>
		<edge from-layer="963" from-port="3" to-layer="972" to-port="0"/>
		<edge from-layer="964" from-port="1" to-layer="967" to-port="0"/>
		<edge from-layer="965" from-port="0" to-layer="967" to-port="1"/>
		<edge from-layer="966" from-port="0" to-layer="967" to-port="2"/>
		<edge from-layer="967" from-port="3" to-layer="969" to-port="0"/>
		<edge from-layer="968" from-port="0" to-layer="969" to-port="1"/>
		<edge from-layer="969" from-port="2" to-layer="971" to-port="0"/>
		<edge from-layer="970" from-port="0" to-layer="971" to-port="1"/>
		<edge from-layer="971" from-port="2" to-layer="972" to-port="1"/>
		<edge from-layer="972" from-port="2" to-layer="973" to-port="0"/>
		<edge from-layer="973" from-port="1" to-layer="975" to-port="0"/>
		<edge from-layer="974" from-port="1" to-layer="975" to-port="1"/>
		<edge from-layer="975" from-port="2" to-layer="990" to-port="0"/>
		<edge from-layer="976" from-port="0" to-layer="977" to-port="1"/>
		<edge from-layer="977" from-port="2" to-layer="979" to-port="0"/>
		<edge from-layer="978" from-port="0" to-layer="979" to-port="1"/>
		<edge from-layer="979" from-port="2" to-layer="987" to-port="0"/>
		<edge from-layer="980" from-port="0" to-layer="981" to-port="1"/>
		<edge from-layer="981" from-port="2" to-layer="986" to-port="0"/>
		<edge from-layer="982" from-port="0" to-layer="986" to-port="1"/>
		<edge from-layer="983" from-port="0" to-layer="986" to-port="2"/>
		<edge from-layer="984" from-port="0" to-layer="985" to-port="1"/>
		<edge from-layer="985" from-port="2" to-layer="986" to-port="3"/>
		<edge from-layer="986" from-port="4" to-layer="987" to-port="1"/>
		<edge from-layer="987" from-port="2" to-layer="989" to-port="0"/>
		<edge from-layer="988" from-port="0" to-layer="989" to-port="1"/>
		<edge from-layer="989" from-port="2" to-layer="990" to-port="1"/>
		<edge from-layer="990" from-port="2" to-layer="992" to-port="0"/>
		<edge from-layer="991" from-port="0" to-layer="992" to-port="1"/>
		<edge from-layer="992" from-port="2" to-layer="1004" to-port="0"/>
		<edge from-layer="993" from-port="0" to-layer="994" to-port="1"/>
		<edge from-layer="994" from-port="2" to-layer="1003" to-port="0"/>
		<edge from-layer="995" from-port="1" to-layer="998" to-port="0"/>
		<edge from-layer="996" from-port="0" to-layer="998" to-port="1"/>
		<edge from-layer="997" from-port="0" to-layer="998" to-port="2"/>
		<edge from-layer="998" from-port="3" to-layer="1000" to-port="0"/>
		<edge from-layer="999" from-port="0" to-layer="1000" to-port="1"/>
		<edge from-layer="1000" from-port="2" to-layer="1003" to-port="1"/>
		<edge from-layer="1001" from-port="0" to-layer="1002" to-port="1"/>
		<edge from-layer="1002" from-port="2" to-layer="1003" to-port="2"/>
		<edge from-layer="1003" from-port="3" to-layer="1004" to-port="1"/>
		<edge from-layer="1004" from-port="2" to-layer="1006" to-port="0"/>
		<edge from-layer="1005" from-port="0" to-layer="1006" to-port="1"/>
		<edge from-layer="1006" from-port="2" to-layer="1008" to-port="0"/>
		<edge from-layer="1007" from-port="0" to-layer="1008" to-port="1"/>
		<edge from-layer="1008" from-port="2" to-layer="1009" to-port="1"/>
		<edge from-layer="1009" from-port="2" to-layer="1014" to-port="0"/>
		<edge from-layer="1009" from-port="2" to-layer="1012" to-port="0"/>
		<edge from-layer="1009" from-port="2" to-layer="1011" to-port="0"/>
		<edge from-layer="1010" from-port="0" to-layer="1011" to-port="1"/>
		<edge from-layer="1011" from-port="2" to-layer="1014" to-port="1"/>
		<edge from-layer="1011" from-port="2" to-layer="1012" to-port="1"/>
		<edge from-layer="1012" from-port="2" to-layer="1026" to-port="0"/>
		<edge from-layer="1013" from-port="0" to-layer="1025" to-port="0"/>
		<edge from-layer="1014" from-port="2" to-layer="1016" to-port="0"/>
		<edge from-layer="1015" from-port="0" to-layer="1016" to-port="1"/>
		<edge from-layer="1016" from-port="2" to-layer="1018" to-port="0"/>
		<edge from-layer="1017" from-port="0" to-layer="1018" to-port="1"/>
		<edge from-layer="1018" from-port="2" to-layer="1020" to-port="0"/>
		<edge from-layer="1019" from-port="0" to-layer="1020" to-port="1"/>
		<edge from-layer="1020" from-port="2" to-layer="1022" to-port="0"/>
		<edge from-layer="1021" from-port="0" to-layer="1022" to-port="1"/>
		<edge from-layer="1022" from-port="2" to-layer="1024" to-port="0"/>
		<edge from-layer="1023" from-port="0" to-layer="1024" to-port="1"/>
		<edge from-layer="1024" from-port="2" to-layer="1025" to-port="1"/>
		<edge from-layer="1025" from-port="2" to-layer="1026" to-port="1"/>
		<edge from-layer="1026" from-port="2" to-layer="1028" to-port="0"/>
		<edge from-layer="1027" from-port="0" to-layer="1028" to-port="1"/>
		<edge from-layer="1028" from-port="2" to-layer="1030" to-port="0"/>
		<edge from-layer="1029" from-port="0" to-layer="1030" to-port="1"/>
		<edge from-layer="1030" from-port="2" to-layer="1031" to-port="0"/>
		<edge from-layer="1030" from-port="2" to-layer="1043" to-port="0"/>
		<edge from-layer="1031" from-port="2" to-layer="1033" to-port="0"/>
		<edge from-layer="1032" from-port="0" to-layer="1033" to-port="1"/>
		<edge from-layer="1033" from-port="2" to-layer="1035" to-port="0"/>
		<edge from-layer="1034" from-port="0" to-layer="1035" to-port="1"/>
		<edge from-layer="1035" from-port="2" to-layer="1036" to-port="0"/>
		<edge from-layer="1036" from-port="1" to-layer="1037" to-port="0"/>
		<edge from-layer="1037" from-port="2" to-layer="1039" to-port="0"/>
		<edge from-layer="1038" from-port="0" to-layer="1039" to-port="1"/>
		<edge from-layer="1039" from-port="2" to-layer="1041" to-port="0"/>
		<edge from-layer="1040" from-port="0" to-layer="1041" to-port="1"/>
		<edge from-layer="1041" from-port="2" to-layer="1042" to-port="0"/>
		<edge from-layer="1042" from-port="2" to-layer="1043" to-port="1"/>
		<edge from-layer="1043" from-port="2" to-layer="1045" to-port="0"/>
		<edge from-layer="1043" from-port="2" to-layer="1046" to-port="0"/>
		<edge from-layer="1043" from-port="2" to-layer="1048" to-port="0"/>
		<edge from-layer="1044" from-port="0" to-layer="1045" to-port="1"/>
		<edge from-layer="1045" from-port="2" to-layer="1048" to-port="1"/>
		<edge from-layer="1045" from-port="2" to-layer="1046" to-port="1"/>
		<edge from-layer="1046" from-port="2" to-layer="1060" to-port="0"/>
		<edge from-layer="1047" from-port="0" to-layer="1059" to-port="0"/>
		<edge from-layer="1048" from-port="2" to-layer="1050" to-port="0"/>
		<edge from-layer="1049" from-port="0" to-layer="1050" to-port="1"/>
		<edge from-layer="1050" from-port="2" to-layer="1052" to-port="0"/>
		<edge from-layer="1051" from-port="0" to-layer="1052" to-port="1"/>
		<edge from-layer="1052" from-port="2" to-layer="1054" to-port="0"/>
		<edge from-layer="1053" from-port="0" to-layer="1054" to-port="1"/>
		<edge from-layer="1054" from-port="2" to-layer="1056" to-port="0"/>
		<edge from-layer="1055" from-port="0" to-layer="1056" to-port="1"/>
		<edge from-layer="1056" from-port="2" to-layer="1058" to-port="0"/>
		<edge from-layer="1057" from-port="0" to-layer="1058" to-port="1"/>
		<edge from-layer="1058" from-port="2" to-layer="1059" to-port="1"/>
		<edge from-layer="1059" from-port="2" to-layer="1060" to-port="1"/>
		<edge from-layer="1060" from-port="2" to-layer="1062" to-port="0"/>
		<edge from-layer="1061" from-port="0" to-layer="1062" to-port="1"/>
		<edge from-layer="1062" from-port="2" to-layer="1064" to-port="0"/>
		<edge from-layer="1063" from-port="0" to-layer="1064" to-port="1"/>
		<edge from-layer="1064" from-port="2" to-layer="1065" to-port="0"/>
		<edge from-layer="1065" from-port="2" to-layer="1074" to-port="0"/>
		<edge from-layer="1065" from-port="2" to-layer="1124" to-port="0"/>
		<edge from-layer="1065" from-port="2" to-layer="1156" to-port="0"/>
		<edge from-layer="1065" from-port="2" to-layer="1070" to-port="0"/>
		<edge from-layer="1066" from-port="0" to-layer="1067" to-port="1"/>
		<edge from-layer="1067" from-port="2" to-layer="1110" to-port="0"/>
		<edge from-layer="1068" from-port="0" to-layer="1110" to-port="1"/>
		<edge from-layer="1069" from-port="0" to-layer="1070" to-port="1"/>
		<edge from-layer="1070" from-port="2" to-layer="1072" to-port="0"/>
		<edge from-layer="1071" from-port="0" to-layer="1072" to-port="1"/>
		<edge from-layer="1072" from-port="2" to-layer="1092" to-port="0"/>
		<edge from-layer="1072" from-port="2" to-layer="1085" to-port="0"/>
		<edge from-layer="1073" from-port="0" to-layer="1074" to-port="1"/>
		<edge from-layer="1074" from-port="2" to-layer="1076" to-port="0"/>
		<edge from-layer="1075" from-port="0" to-layer="1076" to-port="1"/>
		<edge from-layer="1076" from-port="2" to-layer="1142" to-port="0"/>
		<edge from-layer="1076" from-port="2" to-layer="1077" to-port="0"/>
		<edge from-layer="1076" from-port="2" to-layer="1106" to-port="0"/>
		<edge from-layer="1076" from-port="2" to-layer="1099" to-port="0"/>
		<edge from-layer="1077" from-port="1" to-layer="1080" to-port="0"/>
		<edge from-layer="1078" from-port="0" to-layer="1080" to-port="1"/>
		<edge from-layer="1079" from-port="0" to-layer="1080" to-port="2"/>
		<edge from-layer="1080" from-port="3" to-layer="1082" to-port="0"/>
		<edge from-layer="1080" from-port="3" to-layer="1141" to-port="0"/>
		<edge from-layer="1080" from-port="3" to-layer="1128" to-port="0"/>
		<edge from-layer="1080" from-port="3" to-layer="1096" to-port="0"/>
		<edge from-layer="1081" from-port="0" to-layer="1082" to-port="1"/>
		<edge from-layer="1082" from-port="2" to-layer="1091" to-port="0"/>
		<edge from-layer="1083" from-port="0" to-layer="1091" to-port="1"/>
		<edge from-layer="1084" from-port="0" to-layer="1091" to-port="2"/>
		<edge from-layer="1085" from-port="1" to-layer="1088" to-port="0"/>
		<edge from-layer="1086" from-port="0" to-layer="1088" to-port="1"/>
		<edge from-layer="1087" from-port="0" to-layer="1088" to-port="2"/>
		<edge from-layer="1088" from-port="3" to-layer="1090" to-port="0"/>
		<edge from-layer="1088" from-port="3" to-layer="1149" to-port="0"/>
		<edge from-layer="1089" from-port="0" to-layer="1090" to-port="1"/>
		<edge from-layer="1090" from-port="2" to-layer="1091" to-port="3"/>
		<edge from-layer="1091" from-port="4" to-layer="1092" to-port="1"/>
		<edge from-layer="1092" from-port="2" to-layer="1094" to-port="0"/>
		<edge from-layer="1093" from-port="0" to-layer="1094" to-port="1"/>
		<edge from-layer="1094" from-port="2" to-layer="1109" to-port="0"/>
		<edge from-layer="1095" from-port="0" to-layer="1096" to-port="1"/>
		<edge from-layer="1096" from-port="2" to-layer="1105" to-port="0"/>
		<edge from-layer="1097" from-port="0" to-layer="1105" to-port="1"/>
		<edge from-layer="1098" from-port="0" to-layer="1105" to-port="2"/>
		<edge from-layer="1099" from-port="1" to-layer="1102" to-port="0"/>
		<edge from-layer="1100" from-port="0" to-layer="1102" to-port="1"/>
		<edge from-layer="1101" from-port="0" to-layer="1102" to-port="2"/>
		<edge from-layer="1102" from-port="3" to-layer="1132" to-port="0"/>
		<edge from-layer="1102" from-port="3" to-layer="1104" to-port="0"/>
		<edge from-layer="1103" from-port="0" to-layer="1104" to-port="1"/>
		<edge from-layer="1104" from-port="2" to-layer="1105" to-port="3"/>
		<edge from-layer="1105" from-port="4" to-layer="1106" to-port="1"/>
		<edge from-layer="1106" from-port="2" to-layer="1108" to-port="0"/>
		<edge from-layer="1107" from-port="0" to-layer="1108" to-port="1"/>
		<edge from-layer="1108" from-port="2" to-layer="1109" to-port="1"/>
		<edge from-layer="1109" from-port="2" to-layer="1110" to-port="2"/>
		<edge from-layer="1110" from-port="3" to-layer="1111" to-port="0"/>
		<edge from-layer="1110" from-port="3" to-layer="1119" to-port="0"/>
		<edge from-layer="1110" from-port="3" to-layer="1121" to-port="0"/>
		<edge from-layer="1111" from-port="1" to-layer="1114" to-port="0"/>
		<edge from-layer="1112" from-port="0" to-layer="1114" to-port="1"/>
		<edge from-layer="1113" from-port="0" to-layer="1114" to-port="2"/>
		<edge from-layer="1114" from-port="3" to-layer="1116" to-port="0"/>
		<edge from-layer="1115" from-port="0" to-layer="1116" to-port="1"/>
		<edge from-layer="1116" from-port="2" to-layer="1118" to-port="0"/>
		<edge from-layer="1117" from-port="0" to-layer="1118" to-port="1"/>
		<edge from-layer="1118" from-port="2" to-layer="1119" to-port="1"/>
		<edge from-layer="1119" from-port="2" to-layer="1120" to-port="0"/>
		<edge from-layer="1120" from-port="1" to-layer="1122" to-port="0"/>
		<edge from-layer="1121" from-port="1" to-layer="1122" to-port="1"/>
		<edge from-layer="1122" from-port="2" to-layer="1137" to-port="0"/>
		<edge from-layer="1123" from-port="0" to-layer="1124" to-port="1"/>
		<edge from-layer="1124" from-port="2" to-layer="1126" to-port="0"/>
		<edge from-layer="1125" from-port="0" to-layer="1126" to-port="1"/>
		<edge from-layer="1126" from-port="2" to-layer="1134" to-port="0"/>
		<edge from-layer="1127" from-port="0" to-layer="1128" to-port="1"/>
		<edge from-layer="1128" from-port="2" to-layer="1133" to-port="0"/>
		<edge from-layer="1129" from-port="0" to-layer="1133" to-port="1"/>
		<edge from-layer="1130" from-port="0" to-layer="1133" to-port="2"/>
		<edge from-layer="1131" from-port="0" to-layer="1132" to-port="1"/>
		<edge from-layer="1132" from-port="2" to-layer="1133" to-port="3"/>
		<edge from-layer="1133" from-port="4" to-layer="1134" to-port="1"/>
		<edge from-layer="1134" from-port="2" to-layer="1136" to-port="0"/>
		<edge from-layer="1135" from-port="0" to-layer="1136" to-port="1"/>
		<edge from-layer="1136" from-port="2" to-layer="1137" to-port="1"/>
		<edge from-layer="1137" from-port="2" to-layer="1139" to-port="0"/>
		<edge from-layer="1138" from-port="0" to-layer="1139" to-port="1"/>
		<edge from-layer="1139" from-port="2" to-layer="1151" to-port="0"/>
		<edge from-layer="1140" from-port="0" to-layer="1141" to-port="1"/>
		<edge from-layer="1141" from-port="2" to-layer="1150" to-port="0"/>
		<edge from-layer="1142" from-port="1" to-layer="1145" to-port="0"/>
		<edge from-layer="1143" from-port="0" to-layer="1145" to-port="1"/>
		<edge from-layer="1144" from-port="0" to-layer="1145" to-port="2"/>
		<edge from-layer="1145" from-port="3" to-layer="1147" to-port="0"/>
		<edge from-layer="1146" from-port="0" to-layer="1147" to-port="1"/>
		<edge from-layer="1147" from-port="2" to-layer="1150" to-port="1"/>
		<edge from-layer="1148" from-port="0" to-layer="1149" to-port="1"/>
		<edge from-layer="1149" from-port="2" to-layer="1150" to-port="2"/>
		<edge from-layer="1150" from-port="3" to-layer="1151" to-port="1"/>
		<edge from-layer="1151" from-port="2" to-layer="1153" to-port="0"/>
		<edge from-layer="1152" from-port="0" to-layer="1153" to-port="1"/>
		<edge from-layer="1153" from-port="2" to-layer="1155" to-port="0"/>
		<edge from-layer="1154" from-port="0" to-layer="1155" to-port="1"/>
		<edge from-layer="1155" from-port="2" to-layer="1156" to-port="1"/>
		<edge from-layer="1156" from-port="2" to-layer="1158" to-port="0"/>
		<edge from-layer="1156" from-port="2" to-layer="1159" to-port="0"/>
		<edge from-layer="1156" from-port="2" to-layer="1161" to-port="0"/>
		<edge from-layer="1157" from-port="0" to-layer="1158" to-port="1"/>
		<edge from-layer="1158" from-port="2" to-layer="1159" to-port="1"/>
		<edge from-layer="1158" from-port="2" to-layer="1161" to-port="1"/>
		<edge from-layer="1159" from-port="2" to-layer="1173" to-port="0"/>
		<edge from-layer="1160" from-port="0" to-layer="1172" to-port="0"/>
		<edge from-layer="1161" from-port="2" to-layer="1163" to-port="0"/>
		<edge from-layer="1162" from-port="0" to-layer="1163" to-port="1"/>
		<edge from-layer="1163" from-port="2" to-layer="1165" to-port="0"/>
		<edge from-layer="1164" from-port="0" to-layer="1165" to-port="1"/>
		<edge from-layer="1165" from-port="2" to-layer="1167" to-port="0"/>
		<edge from-layer="1166" from-port="0" to-layer="1167" to-port="1"/>
		<edge from-layer="1167" from-port="2" to-layer="1169" to-port="0"/>
		<edge from-layer="1168" from-port="0" to-layer="1169" to-port="1"/>
		<edge from-layer="1169" from-port="2" to-layer="1171" to-port="0"/>
		<edge from-layer="1170" from-port="0" to-layer="1171" to-port="1"/>
		<edge from-layer="1171" from-port="2" to-layer="1172" to-port="1"/>
		<edge from-layer="1172" from-port="2" to-layer="1173" to-port="1"/>
		<edge from-layer="1173" from-port="2" to-layer="1175" to-port="0"/>
		<edge from-layer="1174" from-port="0" to-layer="1175" to-port="1"/>
		<edge from-layer="1175" from-port="2" to-layer="1177" to-port="0"/>
		<edge from-layer="1176" from-port="0" to-layer="1177" to-port="1"/>
		<edge from-layer="1177" from-port="2" to-layer="1190" to-port="0"/>
		<edge from-layer="1177" from-port="2" to-layer="1178" to-port="0"/>
		<edge from-layer="1178" from-port="2" to-layer="1180" to-port="0"/>
		<edge from-layer="1179" from-port="0" to-layer="1180" to-port="1"/>
		<edge from-layer="1180" from-port="2" to-layer="1182" to-port="0"/>
		<edge from-layer="1181" from-port="0" to-layer="1182" to-port="1"/>
		<edge from-layer="1182" from-port="2" to-layer="1183" to-port="0"/>
		<edge from-layer="1183" from-port="1" to-layer="1184" to-port="0"/>
		<edge from-layer="1184" from-port="2" to-layer="1186" to-port="0"/>
		<edge from-layer="1185" from-port="0" to-layer="1186" to-port="1"/>
		<edge from-layer="1186" from-port="2" to-layer="1188" to-port="0"/>
		<edge from-layer="1187" from-port="0" to-layer="1188" to-port="1"/>
		<edge from-layer="1188" from-port="2" to-layer="1189" to-port="0"/>
		<edge from-layer="1189" from-port="2" to-layer="1190" to-port="1"/>
		<edge from-layer="1190" from-port="2" to-layer="1192" to-port="0"/>
		<edge from-layer="1190" from-port="2" to-layer="1193" to-port="0"/>
		<edge from-layer="1190" from-port="2" to-layer="1195" to-port="0"/>
		<edge from-layer="1191" from-port="0" to-layer="1192" to-port="1"/>
		<edge from-layer="1192" from-port="2" to-layer="1195" to-port="1"/>
		<edge from-layer="1192" from-port="2" to-layer="1193" to-port="1"/>
		<edge from-layer="1193" from-port="2" to-layer="1207" to-port="0"/>
		<edge from-layer="1194" from-port="0" to-layer="1206" to-port="0"/>
		<edge from-layer="1195" from-port="2" to-layer="1197" to-port="0"/>
		<edge from-layer="1196" from-port="0" to-layer="1197" to-port="1"/>
		<edge from-layer="1197" from-port="2" to-layer="1199" to-port="0"/>
		<edge from-layer="1198" from-port="0" to-layer="1199" to-port="1"/>
		<edge from-layer="1199" from-port="2" to-layer="1201" to-port="0"/>
		<edge from-layer="1200" from-port="0" to-layer="1201" to-port="1"/>
		<edge from-layer="1201" from-port="2" to-layer="1203" to-port="0"/>
		<edge from-layer="1202" from-port="0" to-layer="1203" to-port="1"/>
		<edge from-layer="1203" from-port="2" to-layer="1205" to-port="0"/>
		<edge from-layer="1204" from-port="0" to-layer="1205" to-port="1"/>
		<edge from-layer="1205" from-port="2" to-layer="1206" to-port="1"/>
		<edge from-layer="1206" from-port="2" to-layer="1207" to-port="1"/>
		<edge from-layer="1207" from-port="2" to-layer="1209" to-port="0"/>
		<edge from-layer="1208" from-port="0" to-layer="1209" to-port="1"/>
		<edge from-layer="1209" from-port="2" to-layer="1211" to-port="0"/>
		<edge from-layer="1210" from-port="0" to-layer="1211" to-port="1"/>
		<edge from-layer="1211" from-port="2" to-layer="1212" to-port="0"/>
		<edge from-layer="1212" from-port="2" to-layer="1214" to-port="0"/>
		<edge from-layer="1213" from-port="0" to-layer="1214" to-port="1"/>
		<edge from-layer="1214" from-port="2" to-layer="1216" to-port="0"/>
		<edge from-layer="1215" from-port="0" to-layer="1216" to-port="1"/>
		<edge from-layer="1216" from-port="2" to-layer="1218" to-port="0"/>
		<edge from-layer="1217" from-port="0" to-layer="1218" to-port="1"/>
		<edge from-layer="1218" from-port="2" to-layer="1219" to-port="0"/>
	</edges>
	<meta_data>
		<MO_version value="2021.4.0-3827-c5b65f2cb1d-releases/2021/4"/>
		<cli_parameters>
			<caffe_parser_path value="DIR"/>
			<data_type value="FP16"/>
			<disable_nhwc_to_nchw value="False"/>
			<disable_omitting_optional value="False"/>
			<disable_resnet_optimization value="False"/>
			<disable_weights_compression value="False"/>
			<enable_concat_optimization value="False"/>
			<enable_flattening_nested_params value="False"/>
			<enable_ssd_gluoncv value="False"/>
			<extensions value="DIR"/>
			<framework value="onnx"/>
			<freeze_placeholder_with_value value="{}"/>
			<generate_deprecated_IR_V7 value="False"/>
			<input value="input_seq,input_mask,pos_mask"/>
			<input_model value="DIR/model.onnx"/>
			<input_model_is_text value="False"/>
			<input_shape value="[1,512],[1,1,512],[1,1,512,512]"/>
			<k value="DIR/CustomLayersMapping.xml"/>
			<keep_shape_ops value="True"/>
			<legacy_ir_generation value="False"/>
			<legacy_mxnet_model value="False"/>
			<log_level value="ERROR"/>
			<mean_scale_values value="{}"/>
			<mean_values value="()"/>
			<model_name value="text-to-speech-en-0001-duration-prediction"/>
			<output value="['embeddings', 'duration']"/>
			<output_dir value="DIR"/>
			<placeholder_data_types value="{}"/>
			<placeholder_shapes value="{'input_seq': array([  1, 512]), 'input_mask': array([  1,   1, 512]), 'pos_mask': array([  1,   1, 512, 512])}"/>
			<progress value="False"/>
			<remove_memory value="False"/>
			<remove_output_softmax value="False"/>
			<reverse_input_channels value="False"/>
			<save_params_from_nd value="False"/>
			<scale_values value="()"/>
			<silent value="False"/>
			<static_shape value="False"/>
			<stream_output value="False"/>
			<transform value=""/>
			<unset unset_cli_parameters="batch, counts, disable_fusing, disable_gfusing, finegrain_fusing, input_checkpoint, input_meta_graph, input_proto, input_symbol, mean_file, mean_file_offsets, move_to_preprocess, nd_prefix_name, pretrained_model_name, saved_model_dir, saved_model_tags, scale, tensorboard_logdir, tensorflow_custom_layer_libraries, tensorflow_custom_operations_config_update, tensorflow_object_detection_api_pipeline_config, tensorflow_use_custom_operations_config, transformations_config"/>
		</cli_parameters>
	</meta_data>
</net>
